model/lightning_logs/version_1/checkpoints/epoch=3-step=444.ckpt (torch, 394952 bytes, 21 tensors)

planner.astar.neighbor_filter f4 [1, 1, 3, 3]
0	0x3f800000	1.0
1	0x3f800000	1.0
2	0x3f800000	1.0
3	0x3f800000	1.0
4	0x00000000	0.0
5	0x3f800000	1.0
6	0x3f800000	1.0
7	0x3f800000	1.0
8	0x3f800000	1.0

planner.encoder.model.0.weight f4 [32, 4, 3, 3]
0	0xbde93c10	-0.11388409
1	0x3cb7c4c1	0.022432687
2	0xbd2b2925	-0.041787285
3	0xbd29409a	-0.041321374
4	0xbe103471	-0.14082505
5	0x3d89cfc5	0.06729082
6	0xbe1fae43	-0.1559382
7	0xbc4cad4b	-0.012492488
8	0x3d5fe3fd	0.054660786
9	0xbc992a40	-0.018696904
10	0x3e1f9840	0.15585423
11	0x3d8a943c	0.06766555
12	0x3dcd458b	0.1002303
13	0x3df81df9	0.12115092
14	0xbd85a403	-0.065254234
15	0x3d737f0d	0.059447337
16	0xbd895b64	-0.067068845
17	0x3d650885	0.055916328
18	0xbdfc0329	-0.1230529
19	0x3dce5672	0.10075082
20	0x3d666c4c	0.056255624
21	0xbd988e7c	-0.07449052
22	0xbdb451c2	-0.088046566
23	0x3d0973f5	0.03355785
24	0x3e128c4b	0.1431133
25	0x3d95c9bd	0.07313869
26	0xbcc43494	-0.023950852
27	0x3c37c1e6	0.011215663
28	0x3dff4787	0.12464815
29	0xbd9c1e4f	-0.076229684
30	0x3c33b28a	0.01096786
31	0xbdb24308	-0.087041914
32	0x3d87789d	0.06614802
33	0xbdc53698	-0.096295536
34	0xbc9cc203	-0.01913548
35	0x3d0503f9	0.03247449
36	0x3da0478f	0.07826149
37	0xbd350c7c	-0.04420136
38	0x3e16b6a5	0.14718111
39	0xbe302e88	-0.1720525
40	0xbd2c2662	-0.042028792
41	0xbe27fdf4	-0.16405469
42	0xbda3fe62	-0.08007504
43	0x3b0dc255	0.0021630723
44	0xbda8ab1d	-0.08235762
45	0x3d5b9f1f	0.053618547
46	0xbcadbaf3	-0.021207308
47	0xbdfd67fe	-0.123733506
48	0x3df741f5	0.12073127
49	0x3deef685	0.116681136
50	0x3de5e512	0.11225332
51	0x3dc21109	0.094759054
52	0x3da9da7d	0.082936265
53	0x3e01a4c9	0.12660517
54	0x3e106e8b	0.14104669
55	0xbc197e3d	-0.009368476
56	0xbdc7a3a4	-0.09748009
57	0xbda20ce8	-0.07912618
58	0xb88ad504	-6.62003e-05
59	0x3c4d3b79	0.012526386
60	0xbcc31d2d	-0.023817623
61	0x3df489fd	0.11940382
62	0x3da9a80a	0.08284004
63	0xbdf1281d	-0.11775229
64	0xbda0f454	-0.07859102
65	0xbd915c80	-0.07097721
66	0x3de96327	0.11395865
67	0xbda65f00	-0.081235886
68	0xbdf57fc9	-0.11987264
69	0xbd58c749	-0.052924428
70	0xbdc2db92	-0.09514536
71	0xbe0cd412	-0.13752773
72	0xbe323538	-0.17403114
73	0x3e15055f	0.1455283
74	0x3db04040	0.08606005
75	0xbd71cec1	-0.059035067
76	0xbd8e8a70	-0.069599986
77	0x3d00cf75	0.031447846
78	0x3df65530	0.12027967
79	0xbdbac80f	-0.091201894
80	0xbd0a2295	-0.033724386
81	0x3d929aa5	0.07158402
82	0xbdc0a8db	-0.094072066
83	0xbb0f26a6	-0.0021843105
84	0xbddeeafa	-0.10884662
85	0x3e49dbc0	0.19712734
86	0x3e091c9e	0.13389823
87	0xbdd38ca2	-0.10329558
88	0xbd0c1132	-0.034196086
89	0x3df54f6c	0.11978039
90	0x3c653e0b	0.013991843
91	0x3d8ce82d	0.068802215
92	0xbdde218c	-0.10846242
93	0xbd54147c	-0.051777348
94	0x3e05c2c0	0.13062572
95	0xbd927d51	-0.071528085
96	0x3c4f7ee7	0.012664533
97	0x3e0729e9	0.13199581
98	0x3e169320	0.14704561
99	0x3cf7e008	0.030258194
100	0x3d83a5fe	0.06428145
101	0x3db649d1	0.08900798
102	0xbd4dd012	-0.05024726
103	0xbd893a70	-0.06700599
104	0x3e05ee65	0.13079222
105	0x3d8a2756	0.06745784
106	0xbbe5ea37	-0.007016446
107	0xbe0dd77a	-0.13851729
108	0xbdbb9fff	-0.09161376
109	0xbde01ebf	-0.10943364
110	0x3d2e5e2b	0.042570274
111	0xbd1c4804	-0.038154617
112	0xbb3101df	-0.0027009172
113	0x3b93d76d	0.0045117647
114	0x3e24429a	0.16041031
115	0x3e3ce963	0.18448405
116	0x3c8c6e24	0.017142363
117	0x3b573368	0.0032837037
118	0x3e16fc7e	0.14744756
119	0x3d233840	0.039848566
120	0xbe045744	-0.12923914
121	0x3dd49a42	0.10380985
122	0x3e4a0aeb	0.19730727
123	0xbe017ed5	-0.12646039
124	0xbb88c17a	-0.004173455
125	0x3d92e4ec	0.0717257
126	0xbe04f466	-0.12983856
127	0xbddd6c23	-0.10811641
128	0x3e1e49c1	0.15457822
129	0xbd849b48	-0.0647493
130	0x3de8ccb7	0.11367171
131	0x3cd4b5ff	0.025965689
132	0x3c73dd03	0.014884236
133	0xbde2b647	-0.11069923
134	0xbcc771fa	-0.02434634
135	0x3e0e1930	0.13876796
136	0x3e0f37a5	0.1398607
137	0x3c78d292	0.015186923
138	0xbd3e4f40	-0.046462297
139	0x3de0a4bf	0.10968923
140	0xbe089dbb	-0.1334142
141	0x3c98913f	0.018623946
142	0xbdcd70e4	-0.10031298
143	0xbd437c2b	-0.047725838
144	0x3d982fda	0.07431002
145	0xbe13e97e	-0.14444539
146	0xbcf39a6d	-0.029736722
147	0x3e183823	0.14865164
148	0x3d3c8bfd	0.04603194
149	0xbd8ca1a4	-0.06866768
150	0xbd43cebb	-0.047804575
151	0x3dd6ad79	0.10482306
152	0x3d27dae9	0.040980253
153	0x3e01e076	0.12683281
154	0xbdc20d14	-0.09475151
155	0x3d77ba17	0.060480203
156	0x3d3d1321	0.04616082
157	0x3d29b28e	0.04143005
158	0x3e2f3971	0.17111756
159	0x3e1820bd	0.14856239
160	0x3e17c592	0.14821461
161	0x3dc83e7c	0.09777543
162	0x3db72aef	0.08943736
163	0xbc3981cb	-0.011322449
164	0xbe068ecc	-0.1314041
165	0xbe02d560	-0.12776709
166	0xbdc24a31	-0.09486807
167	0xbdc920dc	-0.098207206
168	0x3dda5d69	0.10662348
169	0x3d837ccc	0.064202875
170	0xbd2c4f9c	-0.04206811
171	0xbde738c9	-0.11290128
172	0x3e382266	0.17981872
173	0x3df8c510	0.12146962
174	0x3ceb73e8	0.028741792
175	0x3e07d0be	0.13263223
176	0xbe01d878	-0.12680233
177	0xbe12407e	-0.14282414
178	0xbe02baf2	-0.12766626
179	0xbd3c1dc0	-0.04592681
180	0xbe161642	-0.14656928
181	0x3e08ce83	0.13360028
182	0x3ca6757f	0.020319698
183	0x3d7d1dd0	0.06179601
184	0xbdd80738	-0.10548252
185	0xbc7c59f5	-0.015402307
186	0xbd0fdae9	-0.03512088
187	0xbde85769	-0.11344797
188	0x3df3a3b9	0.11896462
189	0xbda6a0b3	-0.0813612
190	0x3d418c81	0.047253136
191	0xbdce6f84	-0.10079864
192	0xbd2d6554	-0.042332962
193	0xbd6c6e92	-0.057722636
194	0x3d9cdcbf	0.076592915
195	0x3d8ad2c3	0.06778481
196	0xbc4a98f6	-0.01236557
197	0xbd0dac13	-0.03458793
198	0xbcdbd62d	-0.026835525
199	0x3e1a0b17	0.15043293
200	0xbae19fd3	-0.0017213769
201	0x3dfbd745	0.12296919
202	0xbd579902	-0.052636154
203	0x3e40f66b	0.18844001
204	0x3e17d3f1	0.14826943
205	0x3e077706	0.13228998
206	0x3e1befa2	0.15228131
207	0x3d888605	0.06666187
208	0xbdee6bae	-0.11641632
209	0xbd1492cc	-0.03627281
210	0x3dacb66c	0.08433232
211	0xbd36b263	-0.044603717
212	0x3d023585	0.03178932
213	0x3dede185	0.1161528
214	0xbe1bdbc0	-0.15220547
215	0xbe21674f	-0.15762065
216	0xbd9433f8	-0.07236475
217	0x3d567466	0.0523571
218	0xbc337183	-0.010952356
219	0x3db27367	0.087134175
220	0x3c94bc2e	0.018156137
221	0xbd9ec9f9	-0.07753367
222	0x3d806fcf	0.06271326
223	0x3e31c1b5	0.1735905
224	0xbdbe7351	-0.092993386
225	0x3e326f02	0.17425159
226	0x3d9e76e1	0.07737518
227	0x3e45d20b	0.19318406
228	0xbddb3e4f	-0.10705244
229	0xbdd550b8	-0.104157865
230	0x3dbdb04e	0.09262143
231	0xbe083ee5	-0.13305242
232	0xbddc7a3f	-0.10765504
233	0x3da8e481	0.08246709
234	0x3d476a76	0.048685513
235	0xbe30af83	-0.17254452
236	0x3dc586f0	0.09644878
237	0xbd663348	-0.05620125
238	0x3debb519	0.11509151
239	0xbdf65c48	-0.1202932
240	0xbe6b1265	-0.22956236
241	0xbe1a4968	-0.15067065
242	0xbd9f5e80	-0.07781696
243	0xbe40c92c	-0.18826741
244	0xbb524c31	-0.003208887
245	0xbd8dd399	-0.06925125
246	0xbdb87cba	-0.09008165
247	0xbc63cdf5	-0.013904084
248	0x3c38633e	0.01125413
249	0xbe5febbc	-0.2186727
250	0x3d853b7d	0.06505487
251	0xbdcd966e	-0.10038458
252	0x3daa36d2	0.083112374
253	0x3de89436	0.11356394
254	0xbd623bb3	-0.055232715
255	0xbb47d91d	-0.00304944

planner.encoder.model.0.bias f4 [32]
0	0x3e17e2b8	0.1483258
1	0x3daebc82	0.08532049
2	0x3c9838a4	0.018581696
3	0xbdd0235c	-0.10162994
4	0x3e0e87c4	0.13918978
5	0x3e1c88af	0.15286516
6	0xbd2905b4	-0.041265205
7	0xbdc58870	-0.09645164
8	0xbd94363f	-0.07236909
9	0x3ddfa124	0.10919407
10	0xbe136135	-0.1439255
11	0xbd9a7fd5	-0.07543913
12	0xbb90bd58	-0.004417103
13	0x3dddba45	0.10826544
14	0xbcb7fb83	-0.022458797
15	0xbdfb5781	-0.122725494
16	0xbde7008c	-0.11279401
17	0x3d5da9f8	0.054117173
18	0xbac2ee68	-0.0014872076
19	0xbd293101	-0.0413065
20	0x3dd690bb	0.10476824
21	0x3d81df25	0.063413896
22	0x3c393445	0.011303966
23	0xbd48aaf1	-0.048991147
24	0xbde06188	-0.109561026
25	0xbe285983	-0.16440396
26	0x3da45053	0.08023133
27	0x3b18bdf3	0.0023306578
28	0x3e0cfabd	0.13767524
29	0xbd7495f0	-0.059713304
30	0xbe24ae12	-0.16082028
31	0xbdbb23ea	-0.091377094

planner.encoder.model.1.weight f4 [32]
0	0x3f76b438	0.9636874
1	0x3f7b55f8	0.9817805
2	0x3f804d22	1.0023539
3	0x3f7e2e5b	0.9928948
4	0x3f7c8ec3	0.9865534
5	0x3f82eb6f	1.0228099
6	0x3f815688	1.0104532
7	0x3f81024e	1.0078828
8	0x3f76aa08	0.963532
9	0x3f80b42e	1.0054986
10	0x3f81600e	1.0107439
11	0x3f80d388	1.0064554
12	0x3f802612	1.0011618
13	0x3f810031	1.0078183
14	0x3f800106	1.0000312
15	0x3f82086e	1.0158823
16	0x3f819f1e	1.0126684
17	0x3f81bcb1	1.0135709
18	0x3f80a912	1.0051596
19	0x3f82a3e7	1.0206269
20	0x3f787b9a	0.970636
21	0x3f78df6f	0.9721593
22	0x3f7ece3d	0.99533445
23	0x3f8194d9	1.012355
24	0x3f797992	0.97451127
25	0x3f78ec39	0.9723545
26	0x3f821c94	1.0164971
27	0x3f8299e5	1.0203215
28	0x3f7a92e7	0.97880405
29	0x3f812369	1.0088931
30	0x3f831ca9	1.0243121
31	0x3f74d30f	0.9563455

planner.encoder.model.1.bias f4 [32]
0	0xbca7b09f	-0.020469962
1	0xbca2d0b2	-0.019874904
2	0x3c816a68	0.015797809
3	0x3b09d91b	0.0021033946
4	0xbccf93d8	-0.025339052
5	0x3bcfb11d	0.006338252
6	0xbc8aab4c	-0.016927384
7	0xbc3714f2	-0.011174427
8	0xbcd90038	-0.026489362
9	0x3c499798	0.012304209
10	0x3d1d82b0	0.03845471
11	0x3b4040b5	0.0029335443
12	0xbbe36c1c	-0.006940378
13	0xbc25b2ed	-0.01011346
14	0xbd3d08e5	-0.04615106
15	0x3cebc3aa	0.028779823
16	0x3ca174f4	0.019709088
17	0x3d2c4307	0.04205611
18	0x3bbefd00	0.0058285
19	0xbcb5ad1d	-0.022177273
20	0xbd3b3b47	-0.04571083
21	0xbd357740	-0.04430318
22	0x3c33ceaf	0.01097457
23	0x3c683224	0.014172111
24	0xbd0c586b	-0.03426401
25	0xbd1ac4a6	-0.037785195
26	0xbcff52e2	-0.031167451
27	0xbcccc57e	-0.024996515
28	0xbd0ddffa	-0.03463743
29	0xbca13a8c	-0.019681238
30	0x3d04762d	0.032339264
31	0xbb23a9b0	-0.0024972968

planner.encoder.model.1.running_mean f4 [32]
0	0x416ad9ee	14.6782055
1	0x4220133d	40.018787
2	0x423b1b3d	46.7766
3	0x42337ba7	44.870754
4	0x42a1c541	80.88526
5	0x4274abcb	61.167767
6	0xc1b4470e	-22.534695
7	0x41623068	14.136818
8	0xc24b7684	-50.865738
9	0x41c34bb6	24.411968
10	0x42244179	41.06394
11	0x426f6c54	59.85579
12	0x4225e611	41.474674
13	0xc189d7a2	-17.23029
14	0xc1afbd9f	-21.967588
15	0x41b430c8	22.523819
16	0x41caafeb	25.335897
17	0xc1bda2f9	-23.704576
18	0xc20c6edb	-35.108257
19	0xc21d8fb6	-39.390343
20	0xc2409f99	-48.155857
21	0xc16dcb94	-14.862202
22	0x423a70b9	46.61008
23	0x4208b59d	34.177357
24	0x42990cd2	76.52504
25	0xc21f1c79	-39.777805
26	0xc1837528	-16.432205
27	0x41d9d4db	27.228933
28	0x41d066b6	26.050152
29	0x4206136b	33.518963
30	0x4198d29c	19.102837
31	0x41566f71	13.402207

planner.encoder.model.1.running_var f4 [32]
0	0x42aba2a0	85.81763
1	0x4366987b	230.59563
2	0x43c182fe	387.02338
3	0x43d464a2	424.7862
4	0x447287a5	970.11945
5	0x4435826a	726.0377
6	0x4392d93c	293.69714
7	0x435c5043	220.31352
8	0x43bc5891	376.69193
9	0x42b4a256	90.31706
10	0x43a94588	338.5432
11	0x441565fa	597.5934
12	0x4389b7ec	275.4369
13	0x43804a33	256.57968
14	0x4315651e	149.39499
15	0x43404847	192.28233
16	0x436d55fb	237.33586
17	0x42fdbaab	126.864586
18	0x436482ec	228.51141
19	0x4381a48b	259.2855
20	0x43b65837	364.68918
21	0x4355c07c	213.75189
22	0x43b7b944	367.4474
23	0x437f7831	255.4695
24	0x448830ee	1089.529
25	0x43867893	268.942
26	0x43339f9d	179.62349
27	0x43c6f793	397.93417
28	0x4347061c	199.02386
29	0x439a8745	309.0568
30	0x4378d5f1	248.83571
31	0x42cb2bd7	101.585625

planner.encoder.model.3.weight f4 [64, 32, 3, 3]
0	0xbc975696	-0.018473905
1	0x3c63087b	0.013857002
2	0xbce180b0	-0.027527183
3	0x3d33578a	0.043784656
4	0x3d85466b	0.06507572
5	0x3cc19890	0.023632318
6	0xbd7aa99f	-0.06119692
7	0x3cb3d7c1	0.021953465
8	0xbc3ea3b7	-0.011635712
9	0x3ce988e1	0.028507652
10	0xbb489a28	-0.0030609462
11	0xbd16189a	-0.036644556
12	0xbd1c93d0	-0.038226902
13	0x3d13219e	0.03592073
14	0x3c65f92e	0.01403646
15	0x3d2d7c8f	0.042355116
16	0xbbf09780	-0.007342279
17	0x3c9abd36	0.01888905
18	0x3d49383e	0.049125902
19	0x3d8a63e0	0.06757331
20	0x3cd0c33f	0.025483726
21	0x3d6be29b	0.057589155
22	0x3d6dda7d	0.058069695
23	0x3d84fdd0	0.064937234
24	0xbd13f8d1	-0.03612596
25	0x3d2d96ba	0.042380072
26	0xbc2cddf1	-0.010550962
27	0xbd10ce3f	-0.03535294
28	0x3d15716f	0.03648513
29	0x3d3c5b04	0.045985237
30	0x3d5c24af	0.05374592
31	0x3cc6a1fb	0.02424716
32	0x3ced9eb5	0.029006341
33	0x39c91974	0.00038356672
34	0x3cb37161	0.02190465
35	0x3af690e5	0.0018811492
36	0xbc7c970a	-0.01541687
37	0xbcb1628d	-0.021653438
38	0xbd0f430c	-0.03497605
39	0x3b5ec14c	0.0033989726
40	0x3d950906	0.07277112
41	0x3d3a5cd1	0.045498673
42	0xbb90ef78	-0.004423078
43	0xbcfe4b3d	-0.031041736
44	0x3c91523e	0.017739411
45	0xbd67649f	-0.056492444
46	0x3c1d000d	0.009582532
47	0xbcf5dd1b	-0.030012658
48	0x3d58048e	0.05273872
49	0x3d1d1fe0	0.038360476
50	0xbd45516b	-0.04817335
51	0x3d19b2b5	0.037523944
52	0xbc1dea3f	-0.009638368
53	0xbd5bf16a	-0.053697027
54	0xbc980dfc	-0.018561356
55	0x3c046b57	0.008082232
56	0x3d0d75a6	0.034536026
57	0xbb99fa8f	-0.0046990584
58	0x3d07c222	0.033144124
59	0xbd832320	-0.06403184
60	0xbccd8035	-0.025085548
61	0xbd7f7231	-0.06236476
62	0xbc365e71	-0.011130915
63	0xbd52e0d4	-0.051483944
64	0x3cc37391	0.023858817
65	0x3c9616bd	0.01832139
66	0xbd12d749	-0.035849843
67	0x3d70b49c	0.058765993
68	0xbd843c7d	-0.0645685
69	0xbd6c39c5	-0.05767228
70	0xbc1a4dc2	-0.009417953
71	0xbc4b4d83	-0.012408617
72	0x3d254773	0.040351342
73	0xbd4bc7ec	-0.049751207
74	0x3d20260b	0.03909878
75	0x3c12a7f5	0.008951177
76	0xbd235da3	-0.03988422
77	0xbd3f8917	-0.0467616
78	0x3bd45306	0.0064796237
79	0xbc82e5ee	-0.01597878
80	0x3d1edc1d	0.038784135
81	0xbcb0df34	-0.021590807
82	0xbda89588	-0.08231646
83	0xbd2a11e7	-0.04152098
84	0xbd4eb6ed	-0.05046742
85	0xbd78eb8b	-0.060771506
86	0xbd0159e1	-0.031579856
87	0xbbaa25c0	-0.0051924884
88	0xbd854589	-0.065074034
89	0xbd11b8ef	-0.035576757
90	0xbc3d29b3	-0.011545586
91	0x3d97025f	0.07373499
92	0x3dc17ef4	0.094480425
93	0x3d7cb53b	0.061696272
94	0x3d9b5e53	0.0758635
95	0x3b2ff386	0.0026848032
96	0xbd316cf2	-0.04331679
97	0x3d07da30	0.033167064
98	0x3ca8a217	0.020585103
99	0x3d337fb3	0.043822955
100	0x3b69aa8d	0.0035654635
101	0x3aa851e9	0.0012841794
102	0x36882c26	4.0582554e-06
103	0x3d92dfd0	0.07171595
104	0x3baa9cc9	0.0052066785
105	0xbd40b876	-0.047050916
106	0x3c6d1675	0.014470686
107	0x3d6d47c0	0.057929754
108	0x3c1008d6	0.008791169
109	0x3ca3197e	0.019909617
110	0x3d297ed5	0.041380722
111	0xbc67b786	-0.0141428765
112	0xbd4ec40e	-0.05047994
113	0x3bc691ef	0.006059877
114	0xbd02b86a	-0.031914152
115	0x3ccab897	0.024746222
116	0xbcf9aae3	-0.030476993
117	0x3d373708	0.044730216
118	0xbc80163c	-0.015635602
119	0x3d7aaa86	0.06119778
120	0xbd011fc3	-0.03152443
121	0xbd27eb7c	-0.04099606
122	0xbc5594ed	-0.013035995
123	0xbc9bd0c7	-0.019020451
124	0x3d233136	0.039841853
125	0xbd349e60	-0.04409635
126	0xbd48b553	-0.04900105
127	0xbb658081	-0.0035019221
128	0x3999b0ab	0.00029314062
129	0xbd4f1071	-0.05055279
130	0x3c8365ae	0.016039696
131	0xbd2c0bf1	-0.042003576
132	0x3c2f5e2e	0.0107036065
133	0xba8f3f70	-0.001092894
134	0xbd1f5d8e	-0.03890758
135	0x3d19990c	0.037499472
136	0x3d3bebd5	0.045879204
137	0x3ce96039	0.028488265
138	0x3b898228	0.004196424
139	0x3d507d77	0.050900903
140	0x3bf52596	0.0074812872
141	0xbcc70eae	-0.024298992
142	0xbc85bcfc	-0.016325466
143	0x3bb2830b	0.0054477504
144	0xba918d4d	-0.0011104733
145	0x3cc61048	0.024177685
146	0xbd1b71da	-0.037950374
147	0xbcc1ba02	-0.023648266
148	0x3cfc8bd8	0.030828401
149	0x3d87f809	0.06639106
150	0xbc9d8188	-0.019226804
151	0x3bb1aa8e	0.005421943
152	0xbc531cb7	-0.012885264
153	0xbc8eea82	-0.017445806
154	0xbcb859ac	-0.022503696
155	0x3d6d4535	0.05792733
156	0x3cc2189e	0.023693379
157	0xba3fe9f3	-0.0007320933
158	0x3dcaf831	0.0991062
159	0x395d4618	0.00021102314
160	0x3d0dcb16	0.034617506
161	0x3da176ba	0.078839734
162	0xbd62ad35	-0.055340964
163	0xbd05925f	-0.032610293
164	0xbd4250d9	-0.047440384
165	0x3c2d0f0c	0.0105626695
166	0xbcbd39b4	-0.023098804
167	0xbd6bf088	-0.057602435
168	0x3b11b012	0.002223019
169	0x3b7c18b2	0.0038466868
170	0x3d84ff1f	0.06493973
171	0x3cb0a4e9	0.02156301
172	0xbccce79b	-0.025012782
173	0x3d8b39ce	0.06798135
174	0x3d238079	0.039917443
175	0x3cf0f733	0.029414749
176	0xbc4e761f	-0.012601404
177	0x3d8d35fd	0.06895063
178	0x3c3dd0bb	0.01158541
179	0x3d343bd6	0.044002376
180	0x3cedf39d	0.029046828
181	0x3b3bace8	0.0028636996
182	0x3d877478	0.066140115
183	0x3d77b4c1	0.060475115
184	0x3c378046	0.011200016
185	0x3b335621	0.002736457
186	0xbb9aefc3	-0.004728289
187	0x3d890eee	0.06692301
188	0x3c0ea124	0.008705411
189	0x3d3f6b4c	0.046733186
190	0x3cdeb507	0.02718593
191	0x3d3b0f9f	0.045669194
192	0x3cd479e3	0.025937026
193	0x3d28bfbe	0.041198485
194	0xbc4f9746	-0.012670344
195	0xbbd9a67e	-0.006642162
196	0xbd454eec	-0.04817097
197	0x3d2fe5ca	0.042943753
198	0xbca4793a	-0.020077337
199	0xbd3b0425	-0.04565825
200	0xbc5f4472	-0.0136271585
201	0xbd839dad	-0.06426559
202	0x3d1dc3e9	0.038516913
203	0xbb8b383a	-0.004248646
204	0xbcc06679	-0.023486363
205	0x3a0b85ec	0.0005322385
206	0x3c415e69	0.011802294
207	0x3d025328	0.031817585
208	0xbd18458c	-0.0371757
209	0x3d5e0775	0.05420633
210	0xbd0e522d	-0.034746338
211	0x3b1b817c	0.0023728302
212	0xbb2cd635	-0.0026372795
213	0x3bd00e33	0.006349349
214	0xb9aa49d8	-0.00032479945
215	0x3d1ba2a8	0.037996918
216	0xbcdf4a48	-0.0272571
217	0xbce7cdc8	-0.028296366
218	0x3d2035ab	0.03911368
219	0xbd35805b	-0.044311862
220	0x3d4f5235	0.050615508
221	0xbd6b5894	-0.05745752
222	0xbc4964d3	-0.012292105
223	0x3cb1638c	0.021653913
224	0x3c937164	0.017998405
225	0xbcb09439	-0.021555053
226	0xbbf9f971	-0.0076286127
227	0x3d1170fa	0.035508133
228	0xbd9c2738	-0.07624668
229	0xbd1e74ad	-0.03868549
230	0x3c841bd5	0.016126553
231	0x3d201511	0.03908259
232	0xbbea3a0c	-0.007148033
233	0x3d28178d	0.041038085
234	0x3c6660c0	0.014061153
235	0x3afb42cc	0.0019169687
236	0x3d5882a0	0.05285895
237	0x3cb748d2	0.02237359
238	0xbd811828	-0.063034356
239	0x3bacb7a6	0.005270916
240	0xbd866968	-0.065630734
241	0xbd53b45e	-0.051685683
242	0x3d0562a8	0.03256479
243	0xbbf3bc98	-0.0074382536
244	0x3d81a68e	0.06330596
245	0xbc3de234	-0.011589576
246	0x3cd9e096	0.026596349
247	0x3d7b78ce	0.061394505
248	0xbbac206f	-0.00525289
249	0x3d350542	0.044194467
250	0x3c936cdb	0.017996242
251	0x3c4a300f	0.01234056
252	0x3928c4d1	0.00016095048
253	0x3cd7a0ae	0.026321735
254	0x3cb26c0d	0.021780038
255	0xbcae8b29	-0.021306591

planner.encoder.model.3.bias f4 [64]
0	0xbcbacb12	-0.02280191
1	0x3d273b6f	0.040828165
2	0xbd63cbec	-0.055614397
3	0xbc8d1038	-0.017219648
4	0xbcb4a9a5	-0.022053549
5	0xbd35b11c	-0.044358358
6	0xbd248f29	-0.04017559
7	0x3cc8fe96	0.024535459
8	0x3d23c78c	0.039985225
9	0xbd1beda2	-0.03806842
10	0xbc9145e0	-0.017733514
11	0x3d1696ec	0.036765024
12	0xbd0aad23	-0.033856522
13	0x3d32e858	0.04367861
14	0xbd022808	-0.031776458
15	0xbafeda39	-0.0019443698
16	0xbd24aa76	-0.040201627
17	0xbd3417f4	-0.043968156
18	0x3d05c37f	0.032657143
19	0x3d5a3dc7	0.05328157
20	0x3c72a1e0	0.014809102
21	0x3d255677	0.040365662
22	0xbd480d8f	-0.048841055
23	0xbd4ba7c7	-0.04972055
24	0xbcb113a0	-0.021615803
25	0xbcdf46e9	-0.027255492
26	0xbc6c2f66	-0.014415598
27	0x3d248053	0.040161442
28	0x3c7a4a51	0.0152765075
29	0x3ce4d15b	0.02793186
30	0xbc393d2e	-0.01130609
31	0xbd4e2d6a	-0.05033628
32	0xbd462fdb	-0.048385482
33	0xbb88cb16	-0.0041746004
34	0xbb8f025d	-0.0043642954
35	0x3cfeae63	0.031089013
36	0xbd45fa20	-0.04833424
37	0xbd3c8564	-0.04602565
38	0xbcc9c12d	-0.024628246
39	0xbd3b0007	-0.045654323
40	0x3d01988f	0.03163963
41	0xbd4c15ea	-0.049825586
42	0x3d0c8c95	0.034313757
43	0x3bf98e7f	0.007615864
44	0xbb3aae7c	-0.0028485348
45	0xbd0a88cc	-0.033821866
46	0x3ce18dd5	0.027533451
47	0xbc83e537	-0.01610051
48	0xbcd7ff47	-0.026366843
49	0x3d0f6eda	0.035017826
50	0xbc222068	-0.009895422
51	0x3d53f411	0.05174643
52	0x3ce9a8fe	0.028522965
53	0x3d6364e4	0.05551614
54	0xbd65be26	-0.056089543
55	0x3cb651d4	0.022255816
56	0xbd70f94e	-0.058831505
57	0xbc839a4c	-0.016064785
58	0x3cb2a1f2	0.021805737
59	0x3d329198	0.04359588
60	0xbc90172d	-0.017589176
61	0xbd694726	-0.056952618
62	0xba3ad1ee	-0.0007126619
63	0xbbd1bd90	-0.0064007714

planner.encoder.model.4.weight f4 [64]
0	0x3f81a8a5	1.0129591
1	0x3f81daed	1.0144936
2	0x3f80c9d3	1.0061592
3	0x3f7ed897	0.9954924
4	0x3f7ad8a5	0.97986823
5	0x3f832eec	1.0248694
6	0x3f80115a	1.0005295
7	0x3f7c354c	0.98518825
8	0x3f7969c2	0.97427
9	0x3f80cdae	1.0062768
10	0x3f7e1f46	0.9926647
11	0x3f81eefc	1.0151057
12	0x3f7e8726	0.9942497
13	0x3f7b9c96	0.98285806
14	0x3f823096	1.0171077
15	0x3f7df86f	0.99207205
16	0x3f7c4d5e	0.9855555
17	0x3f8044e9	1.002103
18	0x3f7846cd	0.96983033
19	0x3f77066c	0.96494174
20	0x3f800ce3	1.0003933
21	0x3f7c06a2	0.9844762
22	0x3f82cef0	1.0219402
23	0x3f7ba6ef	0.98301595
24	0x3f7ad1f1	0.97976595
25	0x3f813997	1.00957
26	0x3f7fa067	0.9985413
27	0x3f790ce4	0.97285295
28	0x3f7da6cf	0.99082655
29	0x3f82e6f5	1.0226732
30	0x3f80f587	1.0074929
31	0x3f82419e	1.0176275
32	0x3f7f30a6	0.99683607
33	0x3f7c5035	0.98559886
34	0x3f82c107	1.0215157
35	0x3f7e0254	0.992223
36	0x3f80567b	1.0026392
37	0x3f7de532	0.9917785
38	0x3f7d73a4	0.9900458
39	0x3f843caf	1.0331019
40	0x3f82d3b4	1.0220857
41	0x3f83b029	1.0288135
42	0x3f8181fd	1.0117794
43	0x3f7eb2ee	0.99491775
44	0x3f80465c	1.0021472
45	0x3f823624	1.0172772
46	0x3f8133cb	1.0093931
47	0x3f8059c4	1.0027394
48	0x3f81c8a3	1.0139354
49	0x3f804cad	1.00234
50	0x3f8231a3	1.0171398
51	0x3f7f4b73	0.997245
52	0x3f82c3cc	1.0216002
53	0x3f805dfa	1.0028679
54	0x3f7b9404	0.9827273
55	0x3f7ee998	0.99575186
56	0x3f7cb6cc	0.98716426
57	0x3f80bd80	1.0057831
58	0x3f7adbc0	0.9799156
59	0x3f82aff7	1.020995
60	0x3f81f3ff	1.0152587
61	0x3f86d479	1.0533592
62	0x3f7ee9ed	0.9957569
63	0x3f78ca51	0.9718371

planner.encoder.model.4.bias f4 [64]
0	0x3bb9faa6	0.0056756316
1	0x3c55b3ad	0.013043326
2	0x3b067861	0.0020518529
3	0xbc415988	-0.011801131
4	0xbd051989	-0.032495055
5	0x3caeb7e6	0.021327924
6	0x3af51c72	0.0018700494
7	0xbce96ea6	-0.028495144
8	0xbc801ea0	-0.015639603
9	0xbcbf2066	-0.023330878
10	0xb98d05c7	-0.0002689792
11	0xbcc4ac1d	-0.024007851
12	0x3d1dece1	0.038555983
13	0xbbe58e23	-0.0070054694
14	0xbb2a435b	-0.0025980088
15	0xbd4042c6	-0.04693868
16	0xbcecf874	-0.028927065
17	0xba5cf3f4	-0.0008428686
18	0xbc8dbb40	-0.017301202
19	0xbd4c7416	-0.049915396
20	0xbb05a8c9	-0.0020394793
21	0xbcc74e6d	-0.024329389
22	0x3b9176fc	0.004439233
23	0xbd1b9d16	-0.037991606
24	0xbcc8f38c	-0.024530195
25	0xba6a1595	-0.00089296076
26	0xbb9efd3a	-0.0048519643
27	0xbd02e633	-0.031957816
28	0xbb238bf2	-0.002495524
29	0x3b28e7f0	0.002577301
30	0x3cde4b4b	0.027135512
31	0xbcbe75f4	-0.023249604
32	0x3c97f03f	0.018547175
33	0xbd13dd29	-0.036099587
34	0x3c4449df	0.011980503
35	0xbbb514d7	-0.005526166
36	0x3aa16baa	0.0012315412
37	0xbbf6e94b	-0.007535135
38	0xbd34099d	-0.04395448
39	0x3c0340a7	0.00801102
40	0x3d0cc25b	0.03436504
41	0x3cf1b066	0.029503059
42	0x3bc08a00	0.005875826
43	0xbc786202	-0.015160086
44	0xbc9400cb	-0.018066784
45	0x3c43fcd8	0.011962138
46	0xbc133661	-0.008985133
47	0xbd499f98	-0.049224466
48	0x3ccfb3b3	0.025354242
49	0xbd07677b	-0.03305767
50	0x3c963967	0.018337918
51	0x3ca2ce9e	0.019873913
52	0x3c2043b8	0.00978177
53	0xbbeccaf4	-0.0072263423
54	0xbcfb613b	-0.030686012
55	0xbc11d69c	-0.0089012645
56	0xbc2899b7	-0.010290555
57	0x3af64e45	0.0018791637
58	0xbcc78fed	-0.024360621
59	0x3b3319cd	0.002732861
60	0xbcadcfb2	-0.0212172
61	0x3d58be5e	0.052915923
62	0xbbb17d2f	-0.0054165344
63	0x3b80f8da	0.0039359154

planner.encoder.model.4.running_mean f4 [64]
0	0x3ed9974a	0.42498237
1	0x3db1f422	0.08689143
2	0xbee08d87	-0.43857977
3	0x3f247e77	0.6425547
4	0xbca4f807	-0.0201378
5	0xbeaf9216	-0.34291142
6	0xbed4573b	-0.41472802
7	0xbc3c095e	-0.011476843
8	0xbef3e14d	-0.47632828
9	0xbe25a8cc	-0.16177672
10	0x3f79da3c	0.97598624
11	0xbf23d71c	-0.64000106
12	0x3ecdebae	0.40218872
13	0x3e889a45	0.26680198
14	0xbf40be74	-0.7529061
15	0x3f1cb408	0.61212206
16	0x3f7970f5	0.97437984
17	0x3e00878d	0.12551709
18	0xbeed8d30	-0.4639678
19	0xbd8c75ea	-0.06858428
20	0x3db6e3b5	0.089301504
21	0xbf19d601	-0.6009217
22	0xbf00b01c	-0.5026872
23	0xbf91b016	-1.1381862
24	0x3dc9b759	0.09849424
25	0xbe9a9eb8	-0.30199218
26	0xbe2de936	-0.16983494
27	0xbecab32e	-0.39589828
28	0xbf2968d8	-0.66175604
29	0x3ecf5ae8	0.40499043
30	0xbf5de7da	-0.866819
31	0xbe1d292b	-0.15347736
32	0xbec65a98	-0.38740993
33	0x3f2656ea	0.6497637
34	0x3eb6155f	0.3556318
35	0xbe0bd8fc	-0.13656992
36	0xbe03e4b6	-0.12880215
37	0x3e3b7673	0.18306904
38	0xbce5466a	-0.027987678
39	0x3f87ec22	1.0618937
40	0x3deac541	0.114634044
41	0xbed7b5a2	-0.42130762
42	0xbf90fdf3	-1.1327499
43	0x3f657f18	0.89647055
44	0x3f9a508b	1.205583
45	0x3ee82746	0.45342463
46	0xbfb33b8d	-1.4002548
47	0x3f45203c	0.7700231
48	0xbf2d883d	-0.6778601
49	0x3f325701	0.6966401
50	0x3f5341d4	0.8252232
51	0xbebcb96f	-0.36860225
52	0xbe831517	-0.25602028
53	0x3ed22554	0.41044104
54	0x3f62b9dc	0.8856485
55	0xbf0a1a70	-0.5394659
56	0xbedaf2f2	-0.42763478
57	0xbf89c632	-1.076361
58	0x3ec07859	0.37591818
59	0x3e003cc6	0.12523183
60	0x3e2e3d1f	0.17015503
61	0xbe9f4a9d	-0.31111613
62	0xbf1911ee	-0.59792984
63	0x3d513eb6	0.051085196

planner.encoder.model.4.running_var f4 [64]
0	0x3eb46582	0.35233694
1	0x3f254512	0.6455852
2	0x3f245007	0.6418461
3	0x3f872ffc	1.0561519
4	0x3f0b2ea9	0.5436807
5	0x3f786002	0.97021496
6	0x3f469895	0.7757657
7	0x3f68bcb8	0.9091296
8	0x3eef43d9	0.4673145
9	0x3f149e80	0.5805435
10	0x3f26a890	0.65100956
11	0x3eb558bf	0.3541927
12	0x3ef62c30	0.48080587
13	0x3f64c0fd	0.89356977
14	0x3f3230e4	0.6960585
15	0x3ee81d22	0.45334727
16	0x3f214f19	0.6301132
17	0x3f36e798	0.71447134
18	0x3ef83d2e	0.48484176
19	0x3ef2b37c	0.4740256
20	0x3f66a38d	0.9009331
21	0x3eb71769	0.35760048
22	0x3ee135d2	0.43986374
23	0x3f242d16	0.64131296
24	0x3e91e737	0.28496715
25	0x3e31ad66	0.17351303
26	0x3e6fe9f6	0.23429093
27	0x3e9ffb23	0.3124629
28	0x3f07df64	0.5307524
29	0x3f438a78	0.7638316
30	0x3fc832e9	1.5640537
31	0x3f7f9420	0.99835396
32	0x3e190eaf	0.14947008
33	0x3f5d8680	0.86533356
34	0x3eb0764f	0.34465262
35	0x3e788215	0.24268372
36	0x3f262599	0.6490112
37	0x3f6de32b	0.92924756
38	0x3e80e3b3	0.2517372
39	0x3f74e064	0.9565489
40	0x3f19f178	0.6013408
41	0x3f4c7fe9	0.79882675
42	0x3f883576	1.0641315
43	0x3f99861f	1.1994056
44	0x3f9d231f	1.2276343
45	0x3edad7ef	0.4274287
46	0x3f5ffd1b	0.87495583
47	0x3f6f6b0a	0.93522704
48	0x3f4c20a7	0.79737324
49	0x3f0f123b	0.5588719
50	0x3f63b334	0.8894532
51	0x3ec34577	0.38138935
52	0x3eba6fe4	0.3641349
53	0x3eba529d	0.36391154
54	0x3f1bce98	0.6086211
55	0x3ef3f3d3	0.4764696
56	0x3f44e2aa	0.7690836
57	0x3f6e29e4	0.9303267
58	0x3ed4f43f	0.41592595
59	0x3f071ca8	0.527781
60	0x3ec81aba	0.3908289
61	0x3f4aab98	0.7916808
62	0x3f3f37ab	0.7469432
63	0x3f1a830f	0.6035623

planner.encoder.model.6.weight f4 [128, 64, 3, 3]
0	0xbd0ce432	-0.03439731
1	0xbd03bf73	-0.032165002
2	0xbcf715a7	-0.030161692
3	0xbd1c243d	-0.038120497
4	0xbbca2fba	-0.00617024
5	0x3ca5d938	0.02024518
6	0x3c92a0a8	0.017898872
7	0xbcb30e91	-0.021857532
8	0x3bbc50e6	0.0057469485
9	0xbcae9ef4	-0.02131603
10	0x3d0704de	0.032963626
11	0x3c9a7be9	0.018857913
12	0xbd9a24a5	-0.07526521
13	0xbcc4c47d	-0.024019474
14	0xbd691aeb	-0.056910437
15	0xbbbba458	-0.0057263784
16	0xbd8916f3	-0.0669383
17	0x3c4306f5	0.011903514
18	0x3c75510f	0.014972939
19	0x3c441509	0.011967906
20	0x3d34c7b3	0.04413576
21	0x3cd434a2	0.025904004
22	0xbce89493	-0.028391158
23	0x3d6952ce	0.056963734
24	0xbb0352f2	-0.0020038453
25	0x3b90feef	0.0044249217
26	0x3bd3258c	0.006443685
27	0x3d2ec48b	0.042667907
28	0x3c3567ae	0.011072082
29	0xbc9b8baf	-0.018987505
30	0x3adea577	0.0016986568
31	0xbd0d34de	-0.034474246
32	0xbd377351	-0.04478771
33	0xbd68fe91	-0.0568834
34	0xbcd0a5fd	-0.025469774
35	0xbc847d66	-0.016173076
36	0x3c6526ab	0.01398627
37	0x3b8f1ab0	0.004367195
38	0x3d36de18	0.0446454
39	0x3cde7596	0.027155679
40	0x3cebc301	0.028779509
41	0xbd0be096	-0.03414973
42	0xbd323be4	-0.043514147
43	0x3b84cfe5	0.0040531033
44	0xbc062123	-0.008186611
45	0x3c99162a	0.018687326
46	0xbd5d55fb	-0.054037075
47	0xbd1cc966	-0.038278006
48	0x3c2ad58b	0.010426889
49	0x3cf0fed3	0.029418385
50	0x3d801360	0.062536955
51	0x3d60b285	0.05485775
52	0x3c225ade	0.00990936
53	0x3d2eccd5	0.04267581
54	0xbc4a0f30	-0.012332723
55	0x3cd95802	0.026531223
56	0xbcbb673b	-0.022876373
57	0xbc5c08f7	-0.013429872
58	0xbd364370	-0.044497907
59	0xbcf5bb12	-0.029996429
60	0xbd1bc410	-0.038028777
61	0x3ca8b868	0.020595744
62	0xbd3a3bba	-0.045467116
63	0xbce320a3	-0.027725523
64	0xbc7769b6	-0.015100887
65	0xbd2b0d26	-0.041760586
66	0xbd2c4b00	-0.042063713
67	0xbc1624db	-0.0091640605
68	0xbd6b04ac	-0.057377502
69	0xbd07a319	-0.033114526
70	0xbc710dd2	-0.014712768
71	0x3bd746d4	0.0065697227
72	0xbc3b7b95	-0.0114430385
73	0xbd035935	-0.032067496
74	0x3cac578b	0.021037837
75	0xbd3eec68	-0.046612173
76	0xbbbbcd77	-0.0057312804
77	0xbd1c6ec8	-0.038191587
78	0xbd5b28db	-0.05350576
79	0xbb9a2615	-0.0047042468
80	0xbd077006	-0.03306582
81	0xbca980f1	-0.020691367
82	0xbcc4a942	-0.02400649
83	0xbd0fd473	-0.035114717
84	0x3cce17ff	0.025157927
85	0xbca4dbca	-0.020124335
86	0xbd1e93c1	-0.038715128
87	0xbbad893a	-0.0052958997
88	0xbd353176	-0.044236623
89	0x3c85dfee	0.01634213
90	0x3b2baa10	0.0026193894
91	0x3c1b07c7	0.0094623035
92	0xbc92dd1b	-0.017927697
93	0xbbc1ff7b	-0.005920348
94	0x3be2fe7a	0.0069273086
95	0xbd2d1038	-0.042251796
96	0xbcbe87d9	-0.023258137
97	0x3a95897c	0.0011408771
98	0xbc4c1f0a	-0.012458572
99	0xbc314088	-0.010818608
100	0x3c6bb478	0.014386289
101	0xbcbfb532	-0.02340183
102	0x3cb40fd6	0.021980207
103	0xbc8d92a2	-0.017281834
104	0x3bc39a78	0.005969342
105	0xbd9f14d8	-0.077676475
106	0xbbc974cb	-0.006147956
107	0xbbb40f58	-0.005494993
108	0xbcdd7f70	-0.027038306
109	0x3d22039d	0.039554227
110	0xbc8f8631	-0.017520042
111	0xbb8dd0c4	-0.0043278653
112	0x3c557ce3	0.013030264
113	0x3d35ceb2	0.044386573
114	0x3ca16806	0.019702923
115	0xbc8e4799	-0.017368125
116	0xbc51b207	-0.012798793
117	0x3c8237fd	0.015895838
118	0x3ca61222	0.020272318
119	0xbbbab8c7	-0.0056982967
120	0xbcf0acca	-0.029379267
121	0xbc28838c	-0.0102852695
122	0x3bed2c8e	0.0072379773
123	0xbd4d18af	-0.05007237
124	0x3bb267bf	0.0054444964
125	0xbd13d706	-0.036093734
126	0xbcc2d76c	-0.023784362
127	0xbc249104	-0.01004434
128	0xbc59bf3d	-0.013290224
129	0x3c930a5a	0.017949272
130	0xbcb7e099	-0.022445964
131	0xbd3e7106	-0.046494506
132	0xbcb2c162	-0.021820728
133	0x3c7919d3	0.015203911
134	0x3c8051fe	0.015664097
135	0xbd05662d	-0.032568146
136	0x3ad61e39	0.0016335911
137	0xbd43f8ad	-0.047844578
138	0x3ae6b78d	0.001760231
139	0xbd813518	-0.06308955
140	0xbba808a2	-0.0051279822
141	0xbd099a94	-0.033594683
142	0xbd164f2e	-0.036696605
143	0xbcd47a85	-0.025937328
144	0x3b82bad3	0.0039895563
145	0xbd1aa06c	-0.037750646
146	0xbcf1ce5f	-0.02951735
147	0x3c8bffa9	0.017089682
148	0xbcee3bb6	-0.029081207
149	0x3aaef05b	0.0013346778
150	0xbd54d625	-0.051962037
151	0xbc42edb1	-0.01189749
152	0xbc60edf9	-0.013728612
153	0x3d0276ae	0.031851463
154	0x3d345121	0.044022683
155	0xbcdccd6b	-0.02695342
156	0xbc18f0e8	-0.00933478
157	0x3ccd912d	0.02509364
158	0xbd243cb3	-0.04009695
159	0x3c3a656b	0.011376719
160	0xbd14e147	-0.036347654
161	0x3cb09103	0.021553522
162	0x3b4b1115	0.0030985523
163	0x3d8b66dc	0.06806728
164	0x3a9f3f31	0.001214957
165	0xbc7f5607	-0.015584475
166	0xbb31eb88	-0.0027148444
167	0x3a497f08	0.00076864706
168	0xbd650155	-0.055909473
169	0xbd49dc6e	-0.049282484
170	0xbd2d981e	-0.0423814
171	0x3cc79039	0.024360763
172	0x3bc79b1c	0.0060914885
173	0xbc26bded	-0.010177118
174	0xbc691549	-0.014226266
175	0x3d0fc85e	0.035103194
176	0x3d5199d4	0.051172093
177	0xbd17592b	-0.03695027
178	0x3cb05cb7	0.021528585
179	0x3d1dd51c	0.038533315
180	0x3c3e102c	0.011600535
181	0x3cd65c6c	0.026167117
182	0xbd25367b	-0.04033516
183	0x3ca080f0	0.019592732
184	0x3c0a539f	0.008442788
185	0xbcb0ae62	-0.021567527
186	0xbd4dfa30	-0.050287426
187	0xbba0dc57	-0.004909079
188	0x3c479129	0.012180605
189	0x3c943d43	0.018095618
190	0xbcc9b847	-0.024624003
191	0x3bcd0ff4	0.0062580053
192	0x3b098aa4	0.0020987177
193	0xbd2a9c03	-0.04165269
194	0xbc3a297e	-0.011362432
195	0xbd1da56f	-0.038487848
196	0x3b99cee4	0.0046938527
197	0xbd18407b	-0.03717087
198	0x3d4b9e0b	0.04971127
199	0xbcb81d1c	-0.022474818
200	0x3d6d426a	0.057924666
201	0xbc370586	-0.0111707505
202	0xbc8356cb	-0.016032597
203	0x3ca3d549	0.019999163
204	0xbd160a80	-0.036631107
205	0xbc995d83	-0.018721348
206	0x3a55b044	0.0008151571
207	0x3b337ae0	0.0027386472
208	0xbc5fefbc	-0.013667997
209	0x3c48d024	0.012256656
210	0x3c9d7c1b	0.019224217
211	0x3a99d6b2	0.0011736958
212	0xbd081aa5	-0.033228535
213	0x3d02544d	0.031818677
214	0xbbbf6e20	-0.0058419853
215	0xbbafb10a	-0.005361681
216	0xbb0c719b	-0.0021430019
217	0x3be4d68b	0.0069835833
218	0x3c960565	0.01831312
219	0x3ce5e618	0.028063819
220	0x3c879c06	0.01655389
221	0x3ce18c4c	0.02753272
222	0xbcd4d920	-0.02598244
223	0x3d628936	0.055306636
224	0x3bfab14c	0.00765053
225	0x3d24e256	0.040254913
226	0x3d4fe058	0.05075106
227	0x3cf5c34e	0.030000355
228	0x3cbcfc15	0.02306942
229	0xbc886e19	-0.016654061
230	0xbd1cc59f	-0.038274404
231	0xbb843a42	-0.004035265
232	0xbd154148	-0.03643921
233	0xbb0fc1bd	-0.0021935545
234	0xbc0779a4	-0.0082687475
235	0x3d8e6b03	0.069540046
236	0x3d6b464f	0.0574401
237	0xbcbcfd2a	-0.023069937
238	0x3cac552a	0.021036703
239	0x3d8d2cc3	0.06893303
240	0x3be534d5	0.0069948235
241	0x3c03bc93	0.008040565
242	0x3c2e78ba	0.010648901
243	0xbd1d083a	-0.038337924
244	0xbd14d50a	-0.036335982
245	0xbc59cc3d	-0.013293323
246	0x3ce02d71	0.027365418
247	0xbce223d0	-0.027604967
248	0xbb69dc6a	-0.0035684356
249	0xbd4b7579	-0.049672578
250	0x3cfedcb3	0.031111097
251	0xbc9c9d37	-0.019117935
252	0x3b9c5034	0.004770303
253	0xbd465b14	-0.048426703
254	0xb9cb6608	-0.00038795196
255	0xbc556a55	-0.01302584

planner.encoder.model.6.bias f4 [128]
0	0x3d02a9ac	0.031900093
1	0xbc7a49b7	-0.015276364
2	0x3ca47b78	0.020078406
3	0x3ba4098b	0.0050060204
4	0x3c9418f2	0.018078301
5	0xbcae0429	-0.021242218
6	0xbcec6f3e	-0.028861638
7	0x3cfa5601	0.030558588
8	0xbd1be678	-0.03806159
9	0x3d10fa9c	0.03539525
10	0x3c80f5da	0.015742231
11	0xbd1fa6a6	-0.038977288
12	0xbc5734b5	-0.013135125
13	0xbc205233	-0.009785223
14	0xbccbedf9	-0.024893748
15	0x3b91c310	0.004448302
16	0x3c28608d	0.010276926
17	0xbbe1b595	-0.0068881013
18	0x3ca1ae51	0.01973644
19	0xbd16469f	-0.036688443
20	0x3c119f6e	0.008888109
21	0x3be58fdc	0.0070056748
22	0xbcd08e23	-0.025458401
23	0xbd0b8401	-0.034061436
24	0xbc632b51	-0.013865308
25	0xbc9468d6	-0.018116396
26	0xbc127261	-0.008938403
27	0xbcc41f47	-0.023940695
28	0xbcb9b284	-0.02266813
29	0xbca4b6dc	-0.020106725
30	0xbcd1cebd	-0.025611276
31	0xbc98ace6	-0.018637132
32	0x3cae06f6	0.021243554
33	0xbced66a0	-0.0289796
34	0xbbdf47d4	-0.0068139825
35	0xbc8fbf24	-0.017547198
36	0x3c546cfc	0.012965437
37	0xbacbe53d	-0.0015555989
38	0x3d1bd136	0.038041316
39	0xbc9c7586	-0.019099008
40	0xbcb086cf	-0.021548657
41	0xbad22c05	-0.0016034847
42	0xbc47f3f7	-0.012204162
43	0x3cf9bbf4	0.03048513
44	0x3c839834	0.016063787
45	0xbd007c70	-0.031368673
46	0x3d0bfc39	0.034176085
47	0xbd15e078	-0.036591023
48	0x3bc30901	0.005952001
49	0xbce6480f	-0.028110532
50	0x37bc3a50	2.24385e-05
51	0x3d225afb	0.039637547
52	0xbd23f018	-0.040023893
53	0xbd0dc363	-0.034610163
54	0x39cff88a	0.00039667293
55	0x3c67fa96	0.014158865
56	0xbd09ab97	-0.033610906
57	0x3c086693	0.008325237
58	0xbce01d02	-0.027357582
59	0x3cb8f637	0.022578342
60	0xbc9995d0	-0.018748194
61	0xbcd5ebce	-0.026113417
62	0xbd110ea6	-0.03541436
63	0x3d009613	0.031393122
64	0x3cb5f110	0.022209674
65	0xbc8a2134	-0.016861536
66	0xbbf84692	-0.007576772
67	0xbbae4c6e	-0.0053191697
68	0x3d06f886	0.032951854
69	0x38ef113e	0.0001139962
70	0x3cf8d3ad	0.030374372
71	0x3d103748	0.03520897
72	0x3d1c4ada	0.03815732
73	0xbcc64c34	-0.024206258
74	0x36ad1d5e	5.1592206e-06
75	0xbd10a19e	-0.03531038
76	0x3d28abd1	0.041179482
77	0xbd008e12	-0.03138549
78	0xbcdafc91	-0.026731761
79	0xbc94ddd1	-0.018172177
80	0x3d145431	0.036213104
81	0xba6a7595	-0.00089439127
82	0x3cb45bbd	0.0220164
83	0x3d1623ec	0.03665535
84	0xbc8427ae	-0.016132202
85	0xb948d156	-0.0001915147
86	0xbca7ae33	-0.020468807
87	0xbc16d920	-0.00920704
88	0x3c94297e	0.018086191
89	0x3cc48660	0.023989856
90	0xbb72650b	-0.0036986496
91	0x3a19d55a	0.00058682787
92	0x3ce4d054	0.02793137
93	0x3c677717	0.014127514
94	0x3cadb3ed	0.02120396
95	0x3d20d6c1	0.039267305
96	0x3a503a53	0.00079432613
97	0xbc5a7da1	-0.013335616
98	0xbc0793cd	-0.008274985
99	0x3d19e121	0.037568215
100	0xbce123a0	-0.027482808
101	0xbc8cb5d3	-0.017176544
102	0x3ce21670	0.02759859
103	0xbd2aa374	-0.041659787
104	0xbd0fb80f	-0.03508764
105	0xbd1d7168	-0.03843823
106	0x3cb89186	0.022530328
107	0x3c396281	0.011314989
108	0xbcad5336	-0.021157842
109	0xbd0488d9	-0.03235707
110	0x3cedbb5e	0.029020008
111	0xbd151f3c	-0.03640674
112	0x3ce191d0	0.02753535
113	0x3bcbeb4b	0.0062231175
114	0x3ae9b000	0.0017828941
115	0x3c8afdc8	0.016966715
116	0xbd18fc22	-0.037349828
117	0x3d278b28	0.040904194
118	0x3cf498a7	0.029857947
119	0x3cde60ea	0.027145822
120	0xbc817a19	-0.015805291
121	0xbc2e23b6	-0.010628631
122	0xbc117cc3	-0.008879843
123	0x3cb137fc	0.02163314
124	0x3cd5ce71	0.026099415
125	0xbd0eae35	-0.034834106
126	0xbd012228	-0.031526715
127	0xbca8850d	-0.020571256

planner.encoder.model.7.weight f4 [128]
0	0x3f827c99	1.0194274
1	0x3f8265ae	1.018728
2	0x3f82a89c	1.0207705
3	0x3f7f7274	0.99784017
4	0x3f8430fa	1.0327446
5	0x3f7c7942	0.98622525
6	0x3f7daadb	0.9908883
7	0x3f812f53	1.0092567
8	0x3f826b7c	1.0189052
9	0x3f800104	1.000031
10	0x3f7efb28	0.99601984
11	0x3f79310c	0.97340465
12	0x3f7ea62e	0.9947232
13	0x3f7e73aa	0.9939524
14	0x3f80c7c1	1.006096
15	0x3f82b34e	1.021097
16	0x3f7c7ecf	0.98630995
17	0x3f846bcc	1.0345397
18	0x3f8165eb	1.0109228
19	0x3f803cc2	1.0018542
20	0x3f8205a4	1.0157971
21	0x3f7ec17d	0.9951399
22	0x3f832221	1.024479
23	0x3f828496	1.0196712
24	0x3f776ac2	0.96647274
25	0x3f7f3b68	0.9970002
26	0x3f7c8ad2	0.98649323
27	0x3f801c38	1.0008612
28	0x3f7ae714	0.9800885
29	0x3f7a7418	0.97833395
30	0x3f83a7b5	1.0285555
31	0x3f8fa44a	1.1222012
32	0x3f7b9b09	0.9828344
33	0x3f768d30	0.96309185
34	0x3f807bdc	1.0037799
35	0x3f8025e9	1.0011569
36	0x3f82fa80	1.0232697
37	0x3f801b29	1.0008289
38	0x3f7cf6c8	0.9881406
39	0x3f803b80	1.0018158
40	0x3f80db55	1.0066935
41	0x3f81088f	1.0080737
42	0x3f83eb5f	1.0306205
43	0x3f7f6351	0.9976092
44	0x3f83ad1b	1.0287203
45	0x3f824efc	1.0180354
46	0x3f80e225	1.0069014
47	0x3f7ea85a	0.99475634
48	0x3f7bc687	0.98349804
49	0x3f7bc831	0.9835234
50	0x3f82431b	1.0176729
51	0x3f7ec97d	0.99526197
52	0x3f7c946b	0.9866397
53	0x3f81c76c	1.0138984
54	0x3f7d4271	0.98929507
55	0x3f82e865	1.0227171
56	0x3f7afc85	0.98041564
57	0x3f7cb3ea	0.9871203
58	0x3f8430fc	1.0327449
59	0x3f808d84	1.0043187
60	0x3f8028e9	1.0012485
61	0x3f8520dd	1.0400654
62	0x3f82c369	1.0215884
63	0x3f7b32b8	0.98124266
64	0x3f81df12	1.0146201
65	0x3f7f1112	0.9963542
66	0x3f83eb39	1.0306159
67	0x3f7eab0b	0.9947974
68	0x3f7eaf43	0.9948618
69	0x3f8005e5	1.0001799
70	0x3f85faff	1.0467223
71	0x3f87d0b6	1.0610569
72	0x3f8524d2	1.0401862
73	0x3f803c86	1.001847
74	0x3f7ecc2d	0.995303
75	0x3f7c8c73	0.9865181
76	0x3f7c9250	0.98660755
77	0x3f79c17a	0.97560847
78	0x3f806100	1.0029602
79	0x3f805bb7	1.0027989
80	0x3f7df80a	0.992066
81	0x3f7f0c37	0.99628013
82	0x3f7ae303	0.9800264
83	0x3f7b3433	0.98126525
84	0x3f7cdb4f	0.9877214
85	0x3f7c77c5	0.98620254
86	0x3f7aab90	0.97918034
87	0x3f834d9b	1.0258058
88	0x3f7cd8ea	0.98768485
89	0x3f841daa	1.0321553
90	0x3f80a486	1.0050209
91	0x3f79a6ec	0.9752033
92	0x3f817db1	1.0116483
93	0x3f84a2dc	1.0362201
94	0x3f7fea66	0.9996704
95	0x3f84bf08	1.0370798
96	0x3f829db0	1.0204372
97	0x3f809e2c	1.004827
98	0x3f7e36d3	0.99302405
99	0x3f8185c0	1.0118942
100	0x3f8115f1	1.0084821
101	0x3f823223	1.017155
102	0x3f81997e	1.0124967
103	0x3f7b41ae	0.98147094
104	0x3f83374b	1.0251249
105	0x3f7ddded	0.99166757
106	0x3f7b79ac	0.9823253
107	0x3f8071a9	1.0034686
108	0x3f77854a	0.9668776
109	0x3f81a42b	1.0128225
110	0x3f80152f	1.0006465
111	0x3f83295a	1.0246994
112	0x3f800971	1.0002881
113	0x3f80d36c	1.0064521
114	0x3f816af1	1.0110761
115	0x3f829445	1.0201498
116	0x3f7ceb10	0.98796177
117	0x3f7dfb10	0.99211216
118	0x3f8047f0	1.0021954
119	0x3f818c9c	1.0121036
120	0x3f8056ca	1.0026486
121	0x3f7cdd14	0.9877484
122	0x3f8103e2	1.007931
123	0x3f7e72f2	0.9939414
124	0x3f7cf94a	0.98817885
125	0x3f846543	1.0343403
126	0x3f81dbd2	1.0145209
127	0x3f8045ea	1.0021336

planner.encoder.model.7.bias f4 [128]
0	0xbb7c347c	-0.0038483432
1	0x3cd8ad2d	0.026449764
2	0x3d1667ea	0.036720194
3	0xbd2b9737	-0.041892257
4	0x3d01e0fa	0.031708695
5	0x3b1397f8	0.0022521
6	0xbc1f139b	-0.009709264
7	0xbd8dc997	-0.06923216
8	0xbb53d316	-0.0032321862
9	0x3afeea0b	0.0019448412
10	0x3d0a9b72	0.03383965
11	0x3b252929	0.0025201535
12	0x3b2ed2c2	0.0026675914
13	0xbcbffadc	-0.023435049
14	0x3d2c7c41	0.042110685
15	0x3c22a7ae	0.009927673
16	0xbcbd6ddd	-0.023123676
17	0x3c9c8e6b	0.019110879
18	0x3c0e9f5c	0.008704986
19	0xbd36e61f	-0.044653054
20	0x3ab18bfb	0.0013545746
21	0xbb5d6c14	-0.0033786343
22	0xbd4829cf	-0.048867997
23	0x3c817dc4	0.01580704
24	0xbd31d86f	-0.043419298
25	0xbca50728	-0.020145014
26	0xbcae37f9	-0.021266924
27	0xbcb75f90	-0.022384435
28	0xbcadb581	-0.021204712
29	0xbc4567c6	-0.012048667
30	0xbbb8822a	-0.005630751
31	0x3d73800c	0.059448287
32	0xbd22dc94	-0.03976114
33	0xbd1dfa09	-0.03856853
34	0xbbad7cc9	-0.0052944166
35	0xbbd801f8	-0.0065920316
36	0x3b1af556	0.0023644767
37	0xbc08fcbb	-0.008361037
38	0xbd085e67	-0.033293154
39	0xba365594	-0.0006955501
40	0x3bf9ec45	0.0076270425
41	0xbc448424	-0.011994395
42	0x3bfbb896	0.0076819165
43	0x3cf82e03	0.030295378
44	0x3d5f05bb	0.054448824
45	0xbc8aea6c	-0.016957484
46	0xbd0a2efa	-0.033736207
47	0x3b4d1ac8	0.003129648
48	0xbc415135	-0.011799146
49	0xbb87e6af	-0.0041473727
50	0x3c5136de	0.012769429
51	0x3c911e59	0.017714666
52	0x3a667c8a	0.00087923615
53	0xbb857ed8	-0.004073959
54	0xbcef269e	-0.029193219
55	0x3d3a73c2	0.04552055
56	0xbad9e933	-0.0016625285
57	0xbd370ef8	-0.04469201
58	0xbcb3d833	-0.021953678
59	0xbb86711d	-0.0041028396
60	0x3cb27c08	0.021787658
61	0xbc1b7ce7	-0.009490228
62	0xba2783cd	-0.0006390184
63	0xbc645396	-0.013935944
64	0x3c427e40	0.011870921
65	0x3bf5c358	0.0075000934
66	0xbc54e7f5	-0.012994756
67	0x3c9240d6	0.017853182
68	0xbcb7deed	-0.022445166
69	0x3ced1b37	0.028943641
70	0x3cd7a8e6	0.026325654
71	0x3d0850be	0.033280127
72	0xbbae6f2c	-0.0053233113
73	0xbd08d7a2	-0.03340877
74	0xbb92e5b7	-0.0044829505
75	0xbd2fe332	-0.04294128
76	0xbce92ad7	-0.02846281
77	0xbcd1fecd	-0.025634194
78	0xbcb9a7bd	-0.022662992
79	0xba0bcfc7	-0.00053333904
80	0xb76aed57	-1.4002747e-05
81	0xbcf3456b	-0.029696187
82	0xbca40536	-0.020022016
83	0xbc72bad2	-0.014815049
84	0xbbb26d84	-0.005445184
85	0xbd2086da	-0.039191104
86	0xbce83fa7	-0.028350664
87	0xbc692e7e	-0.014232276
88	0xbcc758d6	-0.024334352
89	0x3c5f1fa3	0.013618383
90	0x3c71b16f	0.014751776
91	0xbcce6900	-0.025196552
92	0xbc9ce168	-0.01915045
93	0x3ca6f1f6	0.020379048
94	0xbcb4a408	-0.022050872
95	0x3ca63cf6	0.02029274
96	0x3cb387d2	0.02191535
97	0xbc3a4366	-0.011368608
98	0xbb032dc6	-0.0020016297
99	0x3c930190	0.017945081
100	0x3b7f4552	0.003895123
101	0xbd43cf88	-0.04780534
102	0xbc0b2229	-0.008492031
103	0x3c6687bc	0.0140704475
104	0xba97734c	-0.0011554747
105	0x3bdd75db	0.006758434
106	0xbc8125b5	-0.01576505
107	0x3c75b2fe	0.014996288
108	0x3c8683cb	0.016420266
109	0x3cc4f027	0.024040295
110	0xbc92d5ec	-0.017924272
111	0x3c0fefaa	0.008785168
112	0xbca13181	-0.019676926
113	0x3b8f7167	0.0043775323
114	0xbc9319a8	-0.01795657
115	0xbcdb79b3	-0.02679143
116	0xbcb07614	-0.021540679
117	0xbc5f5965	-0.013632153
118	0xbca023ce	-0.019548323
119	0x3c95260a	0.018206615
120	0x390ea112	0.00013602179
121	0xbc86880f	-0.0164223
122	0xbc2f091c	-0.010683324
123	0xbd31c374	-0.04339929
124	0xbbdbd3fe	-0.006708621
125	0xbc2fcb24	-0.010729585
126	0x3adb0808	0.0016710768
127	0xbd4a0be2	-0.04932774

planner.encoder.model.7.running_mean f4 [128]
0	0xbfa49d77	-1.2860554
1	0xbe43e228	-0.1912924
2	0xbf441eba	-0.76609385
3	0xbf6a88a7	-0.91614765
4	0x3e96bf77	0.2944295
5	0x3e0a04f3	0.1347845
6	0xbf4002f1	-0.7500449
7	0xbed7ef4a	-0.4217475
8	0x3d1cd7ae	0.038291626
9	0xbe8dde12	-0.2770849
10	0xbdcdd7c0	-0.10050917
11	0xbf52bd92	-0.8232051
12	0xbd8c1b67	-0.06841164
13	0xbf18a0b7	-0.5962023
14	0xbf550fc4	-0.8322718
15	0x3f5517a0	0.83239174
16	0x3e19f142	0.15033439
17	0xbf8a8507	-1.0821847
18	0xbe294dfc	-0.16533655
19	0xbdedc425	-0.11609677
20	0x3f085ae0	0.53263664
21	0xbda8b4be	-0.08237599
22	0x3f73a325	0.95170814
23	0xbcbcbd68	-0.023039535
24	0xbf855351	-1.0416051
25	0x3d864b07	0.06557279
26	0xbf2496e8	-0.64292765
27	0x3f04edc2	0.5192529
28	0x3eb15cbb	0.3464106
29	0xbea646cf	-0.32475898
30	0xbf1c6a38	-0.61099577
31	0xbf0988d1	-0.5372439
32	0x3f474383	0.7783739
33	0xbf8769a7	-1.0579118
34	0xbf88cb27	-1.0686997
35	0xbe821e3b	-0.2541369
36	0xbd2a7792	-0.041617937
37	0xbf893b0c	-1.0721145
38	0xbf84f5b6	-1.0387485
39	0xbc8c4dd4	-0.017126955
40	0x3d50f06b	0.05101053
41	0xbea558a6	-0.32294196
42	0x3f6efc6a	0.93353903
43	0xbf2473f6	-0.6423944
44	0xbe94a00d	-0.2902836
45	0x3e323d9d	0.17406316
46	0x3df43d9d	0.11925814
47	0xbe2179cc	-0.15769118
48	0xbf8802ab	-1.0625814
49	0xbcb1b960	-0.021694839
50	0x3e68d5ad	0.22737761
51	0xbf2a6c30	-0.6657133
52	0xbe1c1f82	-0.15246394
53	0xbee115b8	-0.43961883
54	0x3f664815	0.8995374
55	0xbf5e76a0	-0.8689976
56	0xbfcb7dee	-1.5897806
57	0xbef90038	-0.4863298
58	0x3f02cfd9	0.510984
59	0x3ddd8c54	0.10817781
60	0xbf89e1c1	-1.077202
61	0xbee73610	-0.45158434
62	0xbec885cf	-0.39164588
63	0xbfb5ee98	-1.4213438
64	0x3e0a1ecd	0.13488312
65	0x3e741ad4	0.23838359
66	0xbfc6ad52	-1.5521643
67	0x3d136f2e	0.0359947
68	0xbed491ae	-0.41517395
69	0xbf57b6d1	-0.8426333
70	0xbf18899a	-0.59584963
71	0xbf5da613	-0.86581534
72	0x3e365783	0.1780682
73	0xbef1699b	-0.47150883
74	0xbf231689	-0.6370626
75	0xbd11902a	-0.035537876
76	0xbe0ba9cd	-0.13638993
77	0xbf28ad38	-0.6588931
78	0x3f926f8e	1.1440294
79	0xbf8bbbbe	-1.0916669
80	0x3edddd08	0.43332696
81	0xbf4695b0	-0.77572155
82	0x3dc85058	0.09780949
83	0xbf261234	-0.64871526
84	0xbf342ed7	-0.7038397
85	0x3e8952c6	0.26820964
86	0x3ec7e582	0.39042288
87	0xbf5eccd8	-0.87031317
88	0x3eb44b3b	0.35213646
89	0xbfcdd351	-1.6080114
90	0xbf4586cf	-0.77158827
91	0x3edd3fb3	0.4321266
92	0xbdfa09ca	-0.12208898
93	0xbf68c8df	-0.90931505
94	0x3f03ccdd	0.5148447
95	0xbf82b8e0	-1.0212669
96	0xbed76714	-0.4207083
97	0x3e4a178b	0.19735543
98	0xbbf7f9f3	-0.007567638
99	0x3f46b15f	0.77614397
100	0xbf94f078	-1.1635885
101	0x3e9dc80a	0.3081668
102	0xbf2da151	-0.67824274
103	0xbfb7b3f1	-1.4351789
104	0xbf822ec2	-1.0170519
105	0x3f5cae83	0.86203784
106	0xbfc3f6d7	-1.5309705
107	0x3e99dc6f	0.3005099
108	0xbf6e38ee	-0.9305562
109	0x3f276e61	0.654028
110	0x3edad6e2	0.42742068
111	0xbe3e7c3f	-0.18602084
112	0x3fa1c655	1.2638651
113	0xbe2c56d2	-0.16829994
114	0xbeec4620	-0.4614725
115	0xbe1dfa4a	-0.15427509
116	0xbf2f3619	-0.6844192
117	0xbf16a333	-0.5884277
118	0xbf9f8961	-1.24638
119	0xbf83efb8	-1.0307531
120	0xbf04d36b	-0.518851
121	0xbf2005c9	-0.6250883
122	0xbf5d722c	-0.8650234
123	0x3fccb3ee	1.599241
124	0xbd626e3f	-0.05528092
125	0xbd639003	-0.055557262
126	0xbf80e3a7	-1.0069474
127	0xbeb1cbf7	-0.34725925

planner.encoder.model.7.running_var f4 [128]
0	0x40020f3a	2.0321794
1	0x3ff55da2	1.91692
2	0x40366295	2.849767
3	0x3fb8e09d	1.4443547
4	0x401be62c	2.4359236
5	0x3eb1c362	0.34719378
6	0x3f2c4b31	0.67302233
7	0x3f70700b	0.93920964
8	0x3f3c7bf5	0.73626643
9	0x3f8ac9a1	1.0842782
10	0x3f75d8c7	0.960339
11	0x3f95b41e	1.1695592
12	0x3edfcd6a	0.43711406
13	0x3f8b883f	1.0900954
14	0x400dc40b	2.2150905
15	0x4047929d	3.1183236
16	0x3f763eed	0.9618977
17	0x403a14dc	2.9075232
18	0x3fbaaa32	1.458319
19	0x3fb1d1d6	1.3892162
20	0x3fa7d51c	1.3111911
21	0x3fc1bf03	1.5136417
22	0x4037824b	2.8673275
23	0x3eb85a08	0.36006188
24	0x3fefa183	1.8721164
25	0x3fe751de	1.8071859
26	0x3f227e38	0.63473845
27	0x40221698	2.532629
28	0x3f91723f	1.136299
29	0x3fb86474	1.4405656
30	0x3f1608ea	0.5860735
31	0x3fe6b827	1.8024949
32	0x3eec690b	0.4617389
33	0x3f9e162b	1.2350515
34	0x4012316c	2.2842665
35	0x3f3af11d	0.7302416
36	0x3f52bd21	0.8231984
37	0x3fe86270	1.8155041
38	0x3f60c18d	0.87795335
39	0x3f533032	0.82495415
40	0x3fb264a7	1.3936967
41	0x3f9a2202	1.2041628
42	0x4007cee2	2.1220021
43	0x3ff8947f	1.9420317
44	0x3f88c39c	1.0684695
45	0x3f45d833	0.7728302
46	0x402700f6	2.6094337
47	0x4061ca3f	3.5279691
48	0x40358a21	2.8365557
49	0x3fb705a7	1.42986
50	0x3fc69e18	1.5516996
51	0x3f1b16ad	0.60581475
52	0x3f8669e2	1.0501063
53	0x3f4cc99c	0.7999513
54	0x3f1dbea6	0.6161903
55	0x3f9a1e7f	1.2040557
56	0x3f887800	1.0661621
57	0x3fb1a805	1.38794
58	0x3f5c81e9	0.8613573
59	0x3f7e134e	0.99248207
60	0x3f996667	1.1984376
61	0x3fe8606b	1.8154424
62	0x3f3aa2b4	0.72904515
63	0x4005c2a2	2.0900044
64	0x3fb6e156	1.4287517
65	0x3fa20b73	1.2659744
66	0x4024a449	2.5725272
67	0x3ff1f14b	1.8901762
68	0x3fdcebf8	1.7259512
69	0x3ffe0c6e	1.9847543
70	0x3f685f21	0.90770155
71	0x3fc66d58	1.5502119
72	0x400c771e	2.1947703
73	0x3fb86eff	1.4408873
74	0x3f9842d0	1.189539
75	0x3f3b3f27	0.7314324
76	0x3f0aede5	0.5426925
77	0x3fb0e872	1.3820937
78	0x3fd9e45e	1.7022817
79	0x3f17b941	0.5926705
80	0x3f485579	0.7825542
81	0x3fea69c8	1.8313532
82	0x3ffda198	1.981494
83	0x3fa683f3	1.3009018
84	0x3fecc47b	1.8497461
85	0x3f649f92	0.89305985
86	0x3ff42b2c	1.9075675
87	0x40528240	3.2891998
88	0x401be1d7	2.4356592
89	0x3fcf168d	1.6178757
90	0x3fcd9612	1.6061423
91	0x3f0bf506	0.5467075
92	0x3f898471	1.0743543
93	0x3f3c4627	0.73544544
94	0x3f292d31	0.6608458
95	0x40545e9e	3.318275
96	0x3fd9737d	1.6988369
97	0x3f15f171	0.58571535
98	0x3f212522	0.62947285
99	0x4017487a	2.3637986
100	0x40234c39	2.5515273
101	0x3f0d6924	0.55238557
102	0x3fcb3009	1.5874034
103	0x3f838354	1.0274453
104	0x3fd3ec82	1.6556551
105	0x3fc2ee1c	1.5228915
106	0x3fed8c49	1.8558437
107	0x3fd5c249	1.6699916
108	0x400ed994	2.23203
109	0x400c90c9	2.196337
110	0x3f4a73a8	0.7908273
111	0x3f408135	0.75197154
112	0x3f45875a	0.77159655
113	0x4006fdc0	2.1092377
114	0x3fbbb378	1.4664145
115	0x3ee7bd13	0.4526144
116	0x3f70762e	0.9393033
117	0x3f77e168	0.9682832
118	0x3fec3753	1.8454384
119	0x3f89baed	1.076017
120	0x3f8b8d0e	1.0902421
121	0x4001ccae	2.0281177
122	0x3fb26a93	1.3938774
123	0x3fc9f78a	1.5778668
124	0x3fef44bb	1.869285
125	0x3f943773	1.1579422
126	0x3fa36ab7	1.2766942
127	0x3f3380a0	0.7011814
