model/lightning_logs/version_2/checkpoints/epoch=3-step=68.ckpt (torch, 394952 bytes, 21 tensors)

planner.astar.neighbor_filter f4 [1, 1, 3, 3]
00000000: 0000 803f 0000 803f 0000 803f 0000 803f
00000010: 0000 0000 0000 803f 0000 803f 0000 803f
00000020: 0000 803f
1.0 1.0 1.0 1.0 0.0 1.0 1.0 1.0
1.0

planner.encoder.model.0.weight f4 [32, 4, 3, 3]
00000000: a030 1abe aba2 9ebc c9a6 75bd e039 2cbd
00000010: 6238 0fbe 6fb2 9e3d 4f5e 13be 08b1 0cbb
00000020: 81bb 8b3d 512e 3bbd 0f94 e43d e18b 383d
00000030: 4a34 c63d 3ad7 ef3d 48b1 74bd 60d2 8a3d
00000040: a54c 7dbd 6710 843d 1ba3 a2bd 91b6 b93d
00000050: 5d34 5a3d ed71 81bd 0dd3 9abd b0ca 523d
00000060: 9964 213e 3bfd ac3d 1508 33bc 93b7 3bbc
00000070: ecba ab3d eea2 02be 3336 353d 0049 b1bd
00000080: 3eb1 943d 1650 a5bd 8fc6 7cbc f72c 323d
00000090: 16bc ce3d 9549 23bd 8479 053e 9894 1dbe
000000a0: a27d 37bd 98fd 3fbe 9103 3abb f6ab e23c
000000b0: 861a c1bd 6f52 5a3d d652 37bd c80c 2dbe
000000c0: 8b45 e53d 1a47 ac3d 7b5e 733d d907 e33d
000000d0: 694c 113d 67d3 623d 58b0 fd3d 580b 4bbd
000000e0: 3899 1bbe fc31 c3bd a22b 17bd 6600 1ebd
000000f0: e1eb 71bc 32e1 a43d 81c0 053d 48a5 e5bd
00000100: 60ae 2fbd 2cbf 16bd b742 cf3d 6278 86bd
00000110: 51ae 9cbd f110 f7bc 666d 2bbd e7e7 15bd
00000120: a14f 2dbe 20a5 1a3e 9c5d cb3d 5b11 95bd
00000130: 188c b8bd 2b75 e93c 3540 b53d 17df e7bd
00000140: 3b28 6bbd cb24 6c3d 08d4 debd bc51 31bc
00000150: 024a 03be ab92 273e 6b45 df3d 7820 2cbe
00000160: f720 bbbd 6d28 7a3d 699c 5b3c 486f 533d
00000170: 4e40 fdbd 7ba7 94bd f25c be3d 7cce d4bd
00000180: 8b94 0ebd b74d a73d b832 bd3d 0452 063c
00000190: a56a 473d 42e1 a03d 850d b3bc 21a8 3cbd
000001a0: 7560 043e 55d5 243e 6492 983d 097c 96bd
000001b0: 4025 03be 351e 14be ec19 983c 2e6f 3abd
000001c0: 519d b9bc 1130 adbb eb8a 313e 7335 333e
000001d0: 918b a739 97cc 23bd f2b2 c23d b80c 7139
000001e0: 0d66 16be 7b40 883d cfec 2f3e 6c27 febd
000001f0: 2487 dbbc ac0b 3a3d 9d59 00be c490 04be
00000200: 187a 0c3e c903 3cbd 0bdc e13d 75d4 e33c
00000210: e0be 563d 4bcc c9bd 6b80 bcbc 5ce7 e83d
00000220: d069 a53d 6c2a 31bd 43e0 4b3c 3fc6 fd3d
00000230: f484 15be 4320 c73d d09d 5fbd 90b5 08bd
00000240: 4067 983d e5e6 13be c4ec 0fbd a059 1e3e
00000250: 100f 503d 5855 99bd 01d0 1bbd e7ca fb3d
00000260: c7f7 4f3d 705f ce3d e4d6 f9bd 4a35 ed3c
00000270: bd0d 593c b2bb e83b 86fc 033e 4628 9c3d
00000280: 0ce2 ba3d 45b5 3a3d f9de 653d 647b 37bd
00000290: 7868 2abe 2b9e 21be 52ae fdbd 2050 05be
000002a0: 6317 863d bccd 0c3d c3e4 87bd d0be b7bd
000002b0: 76ed 463e 69e7 123e 332d be3d 4c9a 2f3e
000002c0: 7fe1 acbd 6a62 c1bd d752 c5bd e8c0 a639
000002d0: 243c 22be 5e3d da3d 8d8d 83bc 95c7 673d
000002e0: 5675 08be 4bb5 51bd 5518 90bb a874 b3bd
000002f0: d3f7 fa3d e39e 92bd 8373 273d 4b4b f7bd
00000300: 4798 ccbc f59e 88bd 31b2 623d d32a e73d
00000310: 8f0c 9a3c d0b0 f7bc d92d a4bc 9a50 083e
00000320: bbde 0fbd bacf 093e 6e0f a9bd d07a 093e
00000330: ccb4 353e 8498 d63d 92ca bb3d 9775 653d
00000340: 5139 a6bd cbb8 2f3b 122a 4d3d 7776 37bd
00000350: b5ee f23c bbd5 ac3d 0fc8 28be 7adb 23be
00000360: e43f bfbd 6c33 103d 7caa 40bc 659b 3a3d
00000370: c22d 87bc 3080 a4bd fccc 1e3c 8676 ee3d
00000380: ef2c c7bd 2eb5 193e d51c 5c3d eacc 393e
00000390: bfab 15be a732 0fbe d286 a73d 1b99 32be
000003a0: 3e83 0ebe ee20 ab3d 14f2 ac3d 4b1e 11be
000003b0: 8a6b 083e 717b debc 17ce 0e3e 2ca0 9bbd
000003c0: cde8 2fbe f100 ebbd 128e efbc 2a60 2abe
000003d0: d34a 3dbc 84bd a7bd 3b74 27bd a548 5aba
000003e0: 001f 0c3c bde4 27be 343d ad3d 09d3 d2bd
000003f0: 9a98 a63d 3155 1b3e 2a72 58bd 162b 49bc
-0.15057611 -0.019364676 -0.05997351 -0.04204738 -0.13986352 0.07748877 -0.14391445 -0.0021467824
0.06822873 -0.045698468 0.111610524 0.045055274 0.09677942 0.11710973 -0.05973938 0.06778407
-0.061840672 0.06448441 -0.07941266 0.09068025 0.053272594 -0.06320558 -0.07559786 0.05146283
0.15761031 0.084467374 -0.01092722 -0.011457342 0.08385262 -0.12757465 0.04424114 -0.08656502
0.07260369 -0.08071916 -0.015428199 0.043499913 0.10094468 -0.039865095 0.13034636 -0.15388715
-0.044797547 -0.18749082 -0.0028383473 0.027669888 -0.09428887 0.05330127 -0.044756733 -0.16899407
0.11194905 0.08411999 0.059416275 0.11085481 0.03547326 0.05537739 0.123871505 -0.049571365
-0.15195167 -0.09531018 -0.036906846 -0.0385746 -0.014765711 0.08050765 0.03265429 -0.112131655
-0.042890906 -0.03680341 0.10120147 -0.0656593 -0.07650436 -0.030159445 -0.041852377 -0.036598112
-0.16924907 0.15102053 0.09929964 -0.07278701 -0.09011096 0.028498253 0.08850137 -0.11321848
-0.057411414 0.057652276 -0.108802855 -0.01082271 -0.128212 0.16364543 0.10901912 -0.16809261
-0.09137147 0.06107371 0.01340399 0.051619798 -0.12365781 -0.07258507 0.09295072 -0.10390946
-0.03480963 0.0816912 0.092381895 0.008198265 0.04868569 0.078554645 -0.021857033 -0.046058778
0.1292742 0.16097005 0.07449797 -0.073478766 -0.12807178 -0.14464648 0.018567048 -0.045516185
-0.022658022 -0.005285271 0.17338149 0.17500858 0.00031956707 -0.039990034 0.09506787 0.00022988289
-0.14687367 0.06652924 0.17180179 -0.12409863 -0.026797839 0.045421287 -0.12534185 -0.12945849
0.1371845 -0.045902047 0.11028298 0.027811268 0.052428126 -0.09853419 -0.023010453 0.11372253
0.08076823 -0.043253347 0.012443605 0.12391328 -0.14601499 0.0972295 -0.05459386 -0.033376276
0.074415684 -0.14443548 -0.035137907 0.15463877 0.050795615 -0.07486981 -0.038040165 0.1229456
0.05077341 0.10076797 -0.1219919 0.028956074 0.013247904 0.007102453 0.12889299 0.07624869
0.09125146 0.04558303 0.056120846 -0.04479541 -0.16641414 -0.15782993 -0.123867646 -0.13018847
0.065474294 0.03437589 -0.0663543 -0.089719415 0.19426522 0.14346088 0.09285965 0.17148703
-0.084414475 -0.09442599 -0.09634941 0.00031805714 -0.15843254 0.10656236 -0.016058708 0.05658682
-0.1332601 -0.051198285 -0.004397432 -0.08762485 0.122543 -0.071592115 0.040881645 -0.12074908
-0.024974955 -0.06670944 0.055345718 0.11287465 0.018804817 -0.030235678 -0.020041393 0.13311997
-0.03512452 0.13458148 -0.08254896 0.13425756 0.1774475 0.10478309 0.091694966 0.056020346
-0.08116401 0.0026813026 0.05008895 -0.04479071 0.02965484 0.08439203 -0.16482566 -0.16001692
-0.09338358 0.03520529 -0.011759397 0.045558352 -0.016501311 -0.08032262 0.009692427 0.116437
-0.09725367 0.15010521 0.053738434 0.18144575 -0.14616297 -0.13984166 0.08180012 -0.17441218
-0.13917252 0.0835589 0.0844461 -0.14171712 0.13322273 -0.02715847 0.13945805 -0.0759891
-0.1717865 -0.11474789 -0.02924255 -0.16638246 -0.011553484 -0.08190444 -0.04088233 -0.0008326865
0.008552313 -0.1639585 0.08458939 -0.10294158 0.08134575 0.15169217 -0.05284325 -0.012278339

planner.encoder.model.0.bias f4 [32]
00000000: 93e2 173e b3bc ae3d 0339 983c e223 d0bd
00000010: db87 0e3e be88 1c3e fe05 29bd 6188 c5bd
00000020: b836 94bd b6a0 df3d 0461 13be e87f 9abd
00000030: e9c0 90bb 4dba dd3d f0fb b7bc 7257 fbbd
00000040: 3201 e7bd 29a8 5d3d 0ff1 c2ba e730 29bd
00000050: f690 d63d 40df 813d 8c34 393c feaa 48bd
00000060: b561 e0bd 1459 28be 524f a43d 01b2 183b
00000070: 07fb 0c3e 1f95 74bd f6ad 24be 8d24 bbbd
0.14832525 0.08532085 0.018581873 -0.10163094 0.13919012 0.15286538 -0.04126548 -0.09645153
-0.07236999 0.10919325 -0.14392477 -0.075439274 -0.004417528 0.1082655 -0.022459 -0.12272538
-0.11279525 0.05411545 -0.0014872866 -0.041306403 0.10476868 0.0634141 0.011304032 -0.048991196
-0.10956136 -0.1644023 0.08022942 0.0023299458 0.13767634 -0.059712525 -0.16081986 -0.09137831

planner.encoder.model.1.weight f4 [32]
00000000: 0345 7f3f 2405 7d3f d43f 7d3f 5f77 833f
00000010: 7b29 823f d80b 813f 57af 7c3f 9203 7e3f
00000020: 5aaa 7f3f a321 7c3f d5e1 7b3f 35c8 813f
00000030: 2e26 813f 65de 7f3f f448 763f 133f 823f
00000040: 7125 813f 3c2b 7e3f a6e3 803f 80a9 813f
00000050: 1b73 803f 4395 7d3f 66b9 7c3f 08a2 803f
00000060: aea4 7e3f d918 803f 77ac 803f d469 813f
00000070: 8e94 833f 3e56 7e3f d57e 7f3f 22aa 813f
0.9971468 0.9883597 0.9892552 1.0270804 1.0168909 1.008174 0.9870505 0.992242
0.9986931 0.98488826 0.9839147 1.0139223 1.0089777 0.9994872 0.9620507 1.0175499
1.0089551 0.9928472 1.0069473 1.0129852 1.0035127 0.9905588 0.98720396 1.0049448
0.9947003 1.0007583 1.0052632 1.0110421 1.027971 0.99350345 0.99802905 1.0130045

planner.encoder.model.1.bias f4 [32]
00000000: 11ba e9bb 8a9f 3dbd 1107 2bbd ecf9 03bd
00000010: ce13 893c b7d1 843c 4059 87bc baa8 84bc
00000020: 2482 3f3d 9d90 aabc 60d7 e4bb 538b a5bc
00000030: 1bb0 2b3c 50c2 98ba 8830 86bc 5473 4a3c
00000040: 2844 bbbb 115d 44bb b05f abbc 3552 323c
00000050: 9e25 0c3c ae53 67bc a700 eabc 2939 023c
00000060: a728 5abc d07f 253c ef33 203c ae10 8dbc
00000070: 2957 84bc e0a1 b23c df12 74bb 9d3b bf3c
-0.0071327765 -0.046294726 -0.041754786 -0.032220766 0.016733076 0.016213281 -0.01652205 -0.016193736
0.04675497 -0.02082091 -0.0069836825 -0.020208037 0.010478999 -0.0011654589 -0.016380563 0.012356598
-0.005714912 -0.0029962698 -0.02091965 0.0108838575 0.0085538905 -0.014119072 -0.028564764 0.007948198
-0.013315356 0.010101274 0.009778007 -0.017219868 -0.016154842 0.021805704 -0.0037242693 0.023343856

planner.encoder.model.1.running_mean f4 [32]
00000000: 8f29 9d41 c04c f0c0 05a7 04c2 d351 5140
00000010: 5414 ec40 40b9 3e42 aab6 0ec2 2525 8341
00000020: 607e cd41 6857 9c42 7ca9 de41 16c9 14c2
00000030: 1d34 b7c2 2eb6 86c2 f9e1 a842 ab0b b040
00000040: b32d 0d40 4665 8b41 167b 3141 c49c 20c2
00000050: 29de b1c0 9941 b0c1 6623 a6c2 fdb6 2fc2
00000060: 6d7f 0943 461c 6441 4a2b 23c2 bd03 05c0
00000070: 0b3c c43f 75c7 0142 9b1a cd41 c7a9 cbc1
19.645292 -7.509369 -33.163105 3.2706192 7.3774815 47.68091 -35.678383 16.393137
25.686707 78.170715 27.832756 -37.196373 -91.60178 -67.35582 84.44135 5.5014243
2.2059143 17.42445 11.09255 -40.15309 -5.558369 -22.03203 -83.06914 -43.9287
137.49776 14.256903 -40.792274 -2.0783532 1.5330824 32.444782 25.63799 -25.4579

planner.encoder.model.1.running_var f4 [32]
00000000: a3ea 0443 289d df42 4ec2 8a43 79d1 2643
00000010: 9c61 3943 f95c 1044 2e73 ce43 949d 2043
00000020: fe4b 1543 eeba 8744 d873 6343 6749 c843
00000030: fac3 bc44 93a0 7444 b8f9 a044 a85e 0643
00000040: e69f 1243 17ed 1b43 60c4 c942 9749 a043
00000050: 07c0 5242 6e19 6043 465b aa44 d435 c843
00000060: 0060 6145 7737 7d42 3621 d143 9a6c 9443
00000070: 04cd c442 2dd8 8843 6a7a 7743 69af 1643
132.91655 111.806946 277.518 166.81825 185.38129 577.4527 412.89984 160.61554
149.29684 1085.8416 227.45251 400.57346 1510.1243 978.509 1287.8037 134.36975
146.6246 155.92613 100.883545 320.57492 52.687527 224.09933 1362.8523 400.42053
3606.0 63.304165 418.25946 296.84845 98.40042 273.68887 247.47818 150.6852

planner.encoder.model.3.weight f4 [64, 32, 3, 3]
00000000: fd02 fbbc 819b 28bb 881b 32bd 7018 063d
00000010: 554a 4d3d 2338 023c e29c 4bbd 86f2 ed3c
00000020: 396a a1bb 9f0f 05bc ed14 30bd fc2e 80bd
00000030: e969 8bbd ed08 f13a 96f2 f6bc c3df d83c
00000040: 53c8 9bbc 46b2 d5bb c37d 513d 941b 8d3d
00000050: 5720 e93c 4224 7c3d 36a7 763d a7ea 863d
00000060: 4ee5 17bd 6d41 173d c127 99bc f855 eabc
00000070: 4f5e aa3c 24ee 553d a7d9 863d cc26 623c
00000080: 50a3 063d c322 e43b fff4 a03c 0fd7 edbb
00000090: 74ec 6cbd 9699 35bd b4db 49bd 040c fcbc
000000a0: 8875 063d 3411 633b 62c2 b7bc e750 86bd
000000b0: 40ad 68bc 34c9 81bd 655b e13a 225e ecbc
000000c0: 4fb1 0c3d 0ae1 cb3c 2add 80bd 449c 873c
000000d0: 1edb f0bc c889 8bbd 1bb9 60bc 2d54 6e3c
000000e0: f77b 0f3d a982 453c 2803 5c3d 1b03 41bd
000000f0: 6938 89bc 48be 4abd cb7c f0ba 944a a8bc
00000100: 332e 4f3d 7bd8 5c3d 25df c13a d596 9c3d
00000110: c06d 35bc 1c27 0bbd 8933 7abb 9d8d 963c
00000120: f5d3 033d 98c6 7bbd c40e f83c ba76 ee3b
00000130: 38e6 48bd 0454 63bd f9e4 103b f6db c8bc
00000140: 4d59 043d 1512 d33b ab93 66bd 22e9 0fbd
00000150: 6d8c 96bc a375 eabc 9008 88bc 6378 c73c
00000160: 6df1 f5bc 5cd1 a1bc 6b48 24bd aaeb d23c
00000170: 4443 003d e592 0a3d 48b8 413d a8a3 24bd
00000180: 165a 16bd 73b9 633d f0b8 2c3d 7d4a 83bc
00000190: f573 35bd ac18 95bd 676d 0abd 1747 033d
000001a0: f46c 35bd 472c 17bd 55ee be3c b52f 3e3d
000001b0: 7d72 773c 4a6f cb3c ea66 2e3d 8de4 c8bb
000001c0: 12ef 30bd b6b7 2e3c 1d5e b8bc c61f 073d
000001d0: 73b7 ccbc 9111 7f3d 3bda 9238 8ad0 4f3d
000001e0: bb8b 2dbd 848c 50bd 0c6f 0bbd 73aa 10bc
000001f0: f120 4c3d 7c0c 2bbd 6ec4 b7bc 77ae 703c
00000200: 0494 02bb 9143 e0bc bd7c 103d e631 28bd
00000210: 336e b23c 787e ce3b 779e 35bd d0c5 6fba
00000220: ee84 293c 9724 89bc 31bd c2ba 2743 473d
00000230: 22d4 10bd 199d bbbb 9c21 8c3a 8424 503c
00000240: 493f 8d3c f27b aa3c 5880 31bd e27b d5bc
00000250: 5a62 e23c a18c 6d3d 6081 d7bc e084 0ebb
00000260: a015 e6bc 4ea6 f3bc 7fa7 16bd bf0d 003d
00000270: 5b6f 303c ab39 7cbc 091d 773d 2eb2 243b
00000280: 2b82 953c d671 8a3d 3e05 d6bc 20e9 e8bb
00000290: cec3 19bd 901e 193d dffd 193b 2c3f 38bd
000002a0: d08f fe3c 4d90 fb3c 76fe 523d a28f ad3c
000002b0: 3036 10bd 8ebe 1d3d 533c 203d c3fe b23c
000002c0: 3417 06bd 24a9 bf3c 2234 04bd 6c4f 64bc
000002d0: f001 fb3c 8f8a 7ebc dcf7 713d 4ae2 8d3d
000002e0: 5baa b13c ad94 a03b ebb4 9abc ad1d 563d
000002f0: 5c5e 40bc 9649 843d 9ac2 be3c 652b 5e3d
00000300: 952c 373d ba56 6a3d 861a fbbb e9fc c93b
00000310: 2969 1abd 77bf 313d fa44 28bb cdc1 0abd
00000320: 2ee6 81bc dc5d 3ebd 6615 543d c219 f8bb
00000330: 9d93 d5bb 29cc 483c 2084 0a3c 929e 1d3d
00000340: 97f1 04bd e254 403d 465c d9bc cb8f 1c3c
00000350: 8e10 13bc fa0b 3d3c 7c67 143b cbf6 e83c
00000360: 4fd0 27bd 9cc1 3bbd c80b cc3c edf4 5cbd
00000370: 20d9 133d f36e 8bbd 77c2 40bc 3709 ad3c
00000380: fbc7 d63c 59dd 8e3c b2d4 983b ad5c 7d3d
00000390: 0775 16bd aa1b 83bb 1042 303d 9158 7e3d
000003a0: 1cbc efbb 3941 5c3d 498b 453c a93a e63b
000003b0: 84c7 013d 7058 0e3d 6870 48bd 8e66 953a
000003c0: 0a58 55bd b79a 0ebd ec47 413c df5a d93c
000003d0: e1c1 9d3d 9814 53ba 1762 873d 3371 9e3d
000003e0: 5a10 1e3c d170 993d 1d10 913c 4586 aa3c
000003f0: 3afb 1e3d 13f4 8a3d d4a2 3f3d 2588 903c
-0.030641073 -0.0025727453 -0.043483287 0.03273815 0.050119717 0.007947954 -0.049710162 0.029046308
-0.004925993 -0.0081214 -0.042988706 -0.062589616 -0.0680731 0.0018389501 -0.03014497 0.026473885
-0.01901642 -0.006521496 0.051145326 0.06890026 0.028457804 0.061558016 0.06021806 0.06587725
-0.037083916 0.03692763 -0.018695714 -0.028605446 0.020796923 0.05222906 0.06584483 0.013803195
0.03287059 0.0069621517 0.019648073 -0.007258303 -0.057842687 -0.044335924 -0.04928179 -0.030767448
0.03282693 0.0034647705 -0.022431556 -0.065584 -0.014201462 -0.063372046 0.0017193375 -0.02885348
0.034348782 0.02488758 -0.06292184 0.016554005 -0.029401358 -0.06813389 -0.013716008 0.014546436
0.03503033 0.012055078 0.053713948 -0.047122102 -0.016750531 -0.049497873 -0.0018347738 -0.020543374
0.05058117 0.05391739 0.0014791234 0.076459564 -0.01107353 -0.033972844 -0.003817769 0.018378073
0.03218456 -0.06146869 0.030280478 0.007277337 -0.04904768 -0.055500045 0.0022109135 -0.024518948
0.032311726 0.0064413645 -0.05629317 -0.035134442 -0.018377507 -0.028620547 -0.016605645 0.024349397
-0.030022347 -0.01975315 -0.040108126 0.025747139 0.03131415 0.033831496 0.047294885 -0.040195137
-0.036707006 0.05559678 0.042168558 -0.01602673 -0.04430004 -0.072800964 -0.03379574 0.03205022
-0.04429336 -0.03690746 0.023307005 0.046432216 0.01510298 0.02483334 0.042578615 -0.006130761
-0.043196745 0.010663917 -0.022505814 0.032989286 -0.02498982 0.062272612 7.002471e-05 0.050735988
-0.042369585 -0.050915256 -0.03404145 -0.008829701 0.049836103 -0.041759953 -0.022432532 0.014690033
-0.001992465 -0.027375968 0.03527521 -0.04106321 0.021781063 0.0063016973 -0.044340577 -0.0009146603
0.010346634 -0.01674108 -0.0014857409 0.048648026 -0.035358556 -0.0057255146 0.0010691169 0.0127040185
0.01724209 0.020811055 -0.04333529 -0.026060048 0.027634788 0.057995442 -0.026306808 -0.002174668
-0.028086483 -0.029742386 -0.03678083 0.03126311 0.010768737 -0.0153946085 0.060330424 0.0025130617
0.018250545 0.06759994 -0.026125547 -0.007107869 -0.03754025 0.037382662 0.0023497266 -0.04498212
0.031074435 0.030708456 0.051512204 0.021186654 -0.035207927 0.038511805 0.03912003 0.021849995
-0.032736972 0.023396082 -0.03227628 -0.013934951 0.030640572 -0.015535965 0.059074268 0.06927927
0.021687677 0.004900536 -0.018885097 0.052274395 -0.011741247 0.06459348 0.023286153 0.054240603
0.04472025 0.057211615 -0.007663074 0.0061641824 -0.037697945 0.043395486 -0.002567588 -0.03387623
-0.015856829 -0.04647623 0.05177822 -0.00757143 -0.006517841 0.012255707 0.008454353 0.038481303
-0.03245696 0.04695595 -0.026533257 0.009555767 -0.008976115 0.0115385 0.002264469 0.028437993
-0.040970143 -0.045838937 0.024907961 -0.053944517 0.03609574 -0.06808271 -0.011765114 0.021122558
0.026218405 0.017439531 0.004664027 0.06185596 -0.0367327 -0.0040011005 0.043031752 0.062096182
-0.0073161256 0.05377314 0.012057134 0.007026036 0.031684414 0.03475231 -0.048935324 0.0011398362
-0.052085914 -0.034815516 0.011796933 0.026532589 0.07702995 -0.000805208 0.06610506 0.07736435
0.009647453 0.07492221 0.017707879 0.020815978 0.038813807 0.06784835 0.046786144 0.017643044

planner.encoder.model.3.bias f4 [64]
00000000: 4bd7 babc 652a 273d 81ce 63bd 662c 8dbc
00000010: 00ab b4bc c9aa 35bd 837b 24bd f5ed c83c
00000020: bbd1 233d 87f4 1bbd 2b34 91bc c88d 163d
00000030: 25b3 0abd 76f7 323d e820 02bd e9c5 ffba
00000040: f9c1 24bd f411 34bd 53b3 053d 8e28 5a3d
00000050: ab04 733c 3154 253d ba08 48bd c5aa 4bbd
00000060: ba0a b1bc 7c29 dfbc 6c64 6cbc 76a0 243d
00000070: 7f43 7a3c 2dd9 e43c ef27 39bc b936 4ebd
00000080: 2539 46bd ee74 89bb c17c 8fbb 09af fe3c
00000090: 34ee 45bd 9f87 3cbd 6ed9 c9bc 5108 3bbd
000000a0: d5a0 013d 9818 4cbd 1883 0c3d 1957 f93b
000000b0: 8a9b 3abb 4193 0abd 628b e13c 0514 84bc
000000c0: 3444 d8bc b65e 0f3d 0a24 22bc 64e8 533d
000000d0: ac78 e93c e063 633d d9d1 65bd c262 b63c
000000e0: 0bed 70bd 2bc8 83bc 399d b23c 3b7b 323d
000000f0: d522 90bc 344c 69bd 8a70 3eba 3bb3 d2bb
-0.022807738 0.040811915 -0.05561686 -0.017233085 -0.022054195 -0.044352327 -0.040156852 0.02452753
0.039994936 -0.038074996 -0.017725071 0.036756307 -0.03386225 0.04369303 -0.031769663 -0.0019513938
-0.04022405 -0.043962434 0.03264172 0.053261332 0.014832656 0.040363494 -0.048836447 -0.049723405
-0.02161156 -0.027241461 -0.014428239 0.04019209 0.015274881 0.027935589 -0.011301025 -0.050345156
-0.04839434 -0.0041948473 -0.0043788855 0.031089323 -0.04832287 -0.046027776 -0.024639811 -0.045662228
0.031647522 -0.049828142 0.03430471 0.00760926 -0.0028474056 -0.03383184 0.027532283 -0.016122827
-0.02639971 0.035002433 -0.009896288 0.051735297 0.028499924 0.05551517 -0.05610833 0.022263888
-0.05881981 -0.016086658 0.021803485 0.043574553 -0.017594734 -0.05695744 -0.00072646944 -0.0064300573

planner.encoder.model.4.weight f4 [64]
00000000: 439e 813f 1279 803f 6eaa 7a3f b12d 813f
00000010: bd48 803f 23bf 803f e125 833f d347 803f
00000020: 2047 803f 35f7 813f 76ca 7e3f cf23 7e3f
00000030: d571 813f cbc1 7b3f 4f8a 813f eb3e 7e3f
00000040: 3f80 7d3f f13d 7b3f 2760 7c3f 3b16 7d3f
00000050: d994 803f 480d 7d3f d28e 803f 5f70 813f
00000060: 3e99 7b3f 3b95 803f 5970 7c3f 62c6 803f
00000070: d73d 823f 4331 803f 2a2b 823f cccf 803f
00000080: e591 803f 213b 7e3f 89bd 7d3f b131 803f
00000090: 7306 7e3f e7fc 813f 42b6 813f bc7a 813f
000000a0: 8bcd 833f 24aa 7b3f e856 813f e5d1 7b3f
000000b0: ef35 813f 76ac 813f 2202 7b3f 3343 7d3f
000000c0: 2c21 803f d942 7d3f f931 813f 69b6 7a3f
000000d0: 5ba9 7b3f 486e 7f3f 0ae8 7d3f cda4 7b3f
000000e0: ed86 7b3f 63f2 7c3f 3ad0 7f3f ac08 7d3f
000000f0: 5c60 7e3f 9e12 7e3f f755 803f b804 833f
1.0126423 1.0036948 0.97916305 1.0092069 1.0022198 1.005833 1.0245935 1.0021919
1.0021706 1.0153567 0.9952768 0.9927339 1.0112864 0.9834258 1.0120333 0.99314755
0.99023813 0.9814139 0.98584217 0.98862046 1.0045425 0.9884839 1.0043585 1.0112418
0.98280704 1.0045542 0.9860893 1.0060542 1.0175122 1.0015033 1.0169423 1.0063415
1.0044523 0.99308974 0.9911733 1.0015165 0.9922859 1.0155305 1.0133746 1.011558
1.0297102 0.9830649 1.0104647 0.9836715 1.0094584 1.0130756 0.9805013 0.9893066
1.0010123 0.98930126 1.0093375 0.97934586 0.9830529 0.9977765 0.9918219 0.9829834
0.98252755 0.9880735 0.99927104 0.9884136 0.9936578 0.9924716 1.0026234 1.0235815

planner.encoder.model.4.bias f4 [64]
00000000: d119 26bb 21fa 2d3c dc17 3fbc a8b4 13bc
00000010: 0113 c3bc 4f57 0e3c 838c ca3c e04a 27ba
00000020: 1cf9 7b3b 965e 2abc 4b73 1abc ee0f 0ebc
00000030: a37c 4a3c 3d87 5ebc 40fb b3bb 7a9e 70bc
00000040: 96e6 15bc 5033 393c dda1 4abc 01cf ecbc
00000050: 0a78 f8bb b8ef 35bc bf3d 0f3b d8b8 423a
00000060: 0b2f 14bc 6856 ac3b 7d06 15bd a644 1539
00000070: 4a99 403c 81d5 05bb 81b0 9f3c 3088 ca3c
00000080: f40f 7d3b 2de8 5ebc bda2 8dbb 20d0 efbc
00000090: bd2b 6dbc bb89 173c 1c4c 79bc 307f 6b3c
000000a0: 54fd c63b 009c 7fbc ce74 b73b d90c a4bc
000000b0: fbb0 fc3b 7c5c 153c 5548 30bc 4450 fcbc
000000c0: 7142 3e3c 45c1 36bc c3cf 8f3c a712 88bc
000000d0: 21f7 1dbb 96e8 74bc 6e33 4dbc 536b 83bc
000000e0: 2bd5 6cbc 04a9 d8bb 1a06 94bc c2f7 3bbc
000000f0: 231f 3b3c 5695 13bd 283d 96bb 9167 b83c
-0.0025344978 0.010618717 -0.011663403 -0.00901524 -0.023812773 0.008687808 0.024725204 -0.00063817017
0.0038448041 -0.010398528 -0.009426902 -0.00867079 0.012358817 -0.013582048 -0.005492598 -0.014686221
-0.009149214 0.011303738 -0.012367693 -0.0289073 -0.007582669 -0.011104517 0.0021856872 0.00074280566
-0.009044419 0.005259324 -0.03638314 0.00014235321 0.011755297 -0.0020421448 0.019493343 0.024723142
0.0038614245 -0.01360516 -0.0043223784 -0.029274046 -0.01447576 0.009249146 -0.0152159 0.014373586
0.0060726795 -0.015601158 0.005598641 -0.020025657 0.0077115274 0.009116288 -0.010759433 -0.030799992
0.011612521 -0.0111544775 0.017555123 -0.016610457 -0.00241036 -0.014948031 -0.012524469 -0.016042387
-0.01445512 -0.006611945 -0.018069316 -0.011472644 0.011420998 -0.03603109 -0.004584927 0.022510322

planner.encoder.model.4.running_mean f4 [64]
00000000: a969 323e d0a8 2cbd dddb 5abf c0b3 013d
00000010: 8dae 543d e13e ecbe b2c1 7abd 61e5 fa3d
00000020: 0cbe b3be 3459 e83d e857 78bf 939a ed3e
00000030: d151 f5be 06a4 5d3e cda8 613f 81ff 85be
00000040: 3769 cebe 2cdf 1dbf 1287 253f f5b1 563f
00000050: 3411 f5bd 8046 d8bd 78a5 93bd 8f78 29be
00000060: d34d 8a3f 895e 253d 8958 a13e 9a60 2c3e
00000070: 30bb 81be 326e 243f c83c c53d 5894 0ebe
00000080: 7355 91bd b88e 093d 6bca 04bf e991 463e
00000090: 2ea7 7abe 9862 0ebe 0422 043e 0cc9 b13d
000000a0: c018 ebbe dc17 1abd 20c9 4d3f ee38 b33e
000000b0: 197d 233e 336c 09be 947a b6be 8a18 e63d
000000c0: adf2 b33c 3937 953d 62be a43e 5854 913e
000000d0: e6bd acbe 7d28 253d e07f a03e f177 a93e
000000e0: 0ec9 c33e cbaf 19bf 3e19 d13e 5adb 47be
000000f0: e35e 96be c589 2ebe 24ce 533e 6936 d2be
0.17423119 -0.04215318 -0.85491735 0.031665564 0.051924277 -0.46141723 -0.06121988 0.12250782
-0.35105932 0.11345139 -0.97009134 0.46406993 -0.47913983 0.21644601 0.88148195 -0.26171497
-0.40314648 -0.6166866 0.64659226 0.8386529 -0.11966172 -0.10560322 -0.07209295 -0.16549896
1.0805 0.04037336 0.3151286 0.16833726 -0.25338125 0.64230645 0.09630734 -0.13923776
-0.07096376 0.033583373 -0.51871365 0.19391598 -0.24477836 -0.13904798 0.12903601 0.08680925
-0.4591732 -0.03762041 0.8038502 0.3500437 0.1596569 -0.13420181 -0.35640395 0.11235149
0.021966303 0.072859235 0.321765 0.28384662 -0.3373863 0.040321816 0.3134756 0.3309932
0.3823933 -0.60033864 0.4083957 -0.1951727 -0.29369268 -0.17044742 0.20684105 -0.41057137

planner.encoder.model.4.running_var f4 [64]
00000000: 7743 c23e 5667 fd3e b9ef b03f 0ae0 133f
00000010: a2ef 673e 2121 423f 5dcb 9a3e bf52 503f
00000020: b394 9a3e 08d7 053f 04f5 6a3f 1ad7 8b3e
00000030: 6081 3d3f 140e 4b3f 79d1 523f 04bc 893e
00000040: 4ac8 623e f04f 163f 20d4 8c3e cb35 e93e
00000050: f833 913e 8bb0 123f 263c e43e 1b0e 123f
00000060: e034 053f f8d8 973e babd ed3d 9c4d 363f
00000070: 129b 943e a695 383f 1575 b23e 3aa3 8b3f
00000080: a894 8d3e 6af3 423e 621d 913e 73d3 af3e
00000090: 6779 453e 293c b33e 2a7e 4c3e 2616 373f
000000a0: cbaf 8c3e 819b 503f d7b5 a73e 61f2 893e
000000b0: ed37 cd3e a89e 953e c9e8 343f 8856 b13e
000000c0: adb1 a53f 2f2f 853e c694 003f 2add fa3e
000000d0: 597f d13e 1e4f ab3e 97d6 943e d8ec b83f
000000e0: 2976 873f fad0 313f e8f0 e13e fdb2 0d3f
000000f0: e16f 373f 4ba7 0c3f 8022 a83e 00aa 1f3f
0.37942097 0.49492902 1.3823158 0.5776373 0.22650006 0.758318 0.3023328 0.8137626
0.30191574 0.52281237 0.91780114 0.27312547 0.74025536 0.79318357 0.8235088 0.26901257
0.22146717 0.58715725 0.2750559 0.45548853 0.28359962 0.57300633 0.4457714 0.57052773
0.52033806 0.29657722 0.11608453 0.7121217 0.2902456 0.72103345 0.34854952 1.0909188
0.27652478 0.19038168 0.2834273 0.3434101 0.19284593 0.35006836 0.19970003 0.7151817
0.2747787 0.8148728 0.3275592 0.26942733 0.4008173 0.29222608 0.706677 0.3463633
1.2944847 0.2601256 0.5022701 0.4899686 0.4091747 0.334588 0.2906997 1.4447279
1.0582935 0.694595 0.4412911 0.5535124 0.7165509 0.5494277 0.3283882 0.62368774

planner.encoder.model.6.weight f4 [128, 64, 3, 3]
00000000: d035 5c3b ed01 df39 e597 e83a bb77 8ebc
00000010: 429d 013c df15 0f3d cf40 d53c 20b4 99bc
00000020: 756d 1f3c f806 16bc fc57 473d b334 ec3c
00000030: 76ef f2bc 4331 a83c 118a adbc 9b60 393d
00000040: 9e6d d2bc 31a3 493d 13a3 093b 1416 0ebb
00000050: cca3 963c 605c 3e3c f715 3ebd c4da 053d
00000060: 8da4 81bc 67fe 84bc 7ebe babc 24b0 c43c
00000070: 15a0 ddbb 53dc 22bd df0b 14bc c5b6 27bd
00000080: 3756 16bd f200 7fbd d3a0 f6bc 3a08 bfbc
00000090: 21f1 a3ba 9c7e fcbb 8082 ee3c 45b6 813c
000000a0: aacb ab3c e75a 3dbd cbad 08bd ed23 053d
000000b0: eb36 773c ef9a ae3c 5ea2 4dbd feba 01bd
000000c0: 46ab 45bc 765a 873b e6a3 0d3d b9da 0d3d
000000d0: 800f 5cbc 12ce a73c 28b9 30b8 7dfc 283d
000000e0: 429d 99bb 74f6 1abc de7c a7bc 3648 413b
000000f0: 4d68 27bd 41a2 be3c 099a 00bd 0523 02bd
00000100: ac5d a8bc da54 49bd 0c5d 46bd a55f 1dbc
00000110: 4e98 04bd 2dd8 2abc f52f dd3b c266 ec3c
00000120: c1e1 00bc 90c2 fcbc 0774 ab3c 5ae6 40bd
00000130: 4121 52bc 7e85 bcbc 798a b6bc 384c a53c
00000140: 3ace 46bc 1336 14bd 35eb 1ebd 7b04 66bd
00000150: 1b21 b73c 2bb9 92bc 6c76 f3bc e067 ac3c
00000160: b98d a4bc 039b 123d 39ea cc3c cc4d f83c
00000170: 87cd 31ba 0ccf c03c 4fe3 053d 6a8a 74bc
00000180: 27e4 65bc 5411 573b 5686 9a3b 635b 7cbb
00000190: a7da e73c 403f 61bc b332 093d 4471 0a3a
000001a0: 26ef 343d 58cb 0cbd f01e 293d 9043 da3b
000001b0: 46d3 9fbc 2ddc 033d 0593 0f3b 5159 b43c
000001c0: 51b0 50bc 9f39 4b3d b499 813d dbd1 d7bb
000001d0: 2c17 b73c 75c1 db3c 8003 fa3c 96f9 953a
000001e0: 2bd9 94bc d39f 5d3c ac4a 213d 1b47 9cbb
000001f0: 533b 093d ea05 e8bb 43db 0ebd dff5 bfbc
00000200: 158c 51bc 10ef 4f3d 5066 713c 75d1 2bbc
00000210: b366 d83c 42e2 913d 6bf3 7f3d de73 46bc
00000220: 228b bc3c baec dcbc c187 163d a41d edbc
00000230: f75a f53c 512b 533c 841a 093c d572 c03c
00000240: ea62 10b9 82b4 7abd ceb8 5ebd 2761 c43c
00000250: 075d 0fbd 6240 673b f5c7 2bbd bc72 4cbc
00000260: fe8e 3fbb c8cf 0c3d 6622 fe3c db9d cdbc
00000270: 83fb 733c 5880 663d c2e5 9ebc 1ee2 f43c
00000280: 471b 23bd c519 163d efb1 a2b9 0a1c 673d
00000290: 351d abbc dd62 b53b 97bd 723c f9a3 803c
000002a0: a504 96bc 4ea8 8bbc 9474 70bc 5f8a 1c3c
000002b0: a06e adbb 1cdd f63c 8fb3 d1bc c3aa c53c
000002c0: 7a19 563d bd9d 2ebd 3eea 6c3c 0fcd 093d
000002d0: 9b91 083d 9e3d 303d 514a c1bc d73f ef3c
000002e0: df04 0d3c 4b6c b8bc f348 3fbd 6720 dfba
000002f0: a2c0 b33c 05fb f53b e18f 59bc 727b 4cbc
00000300: 4015 f83b 5706 82bc 4c50 ab3b 33fe d2bc
00000310: 3d6c b63c 03af cebc 97c3 7d3c e6ca 87bd
00000320: 1366 5a3b 6184 a3ba 354f 98bb 740c c33c
00000330: a743 0fbd cec2 88bc 7fb0 4dbc 5e82 7a3c
00000340: 87dc a73a 92fb ec3c dfbd bfba bd0e 453b
00000350: 9f54 19bd 71b8 323c 8589 bf3b fa7e e13a
00000360: 9d0c afbc b070 ffbb 8091 95ba 9192 da3c
00000370: 4130 8a3c 889e 083d f573 4cbd 0775 f23c
00000380: 175d 7bbc 1642 053d 5185 393d ef8f c83c
00000390: 6bb7 0e3d df8d 23bb 9d03 cdbc ce9c 153c
000003a0: c655 bcbc 08d7 2a3c 47d0 ffbc 69fe 2c3d
000003b0: 7b3f 543c ce5d 4ebd 089a 3bbc 9ab4 353c
000003c0: 49b6 60bd 3c10 59bd 218b 60bd ba03 c8bc
000003d0: f0b6 efbb 97a2 703b cd69 9c3d d64c 5a3a
000003e0: 9b80 833c 6fb2 9ebc 39b8 7a3d b2e7 8fba
000003f0: c0be 0b3d adb5 cabc ea59 8e3c d428 823c
0.003360141 0.0004253531 0.0017745463 -0.017391076 0.007911028 0.034932967 0.02603188 -0.018762648
0.009730686 -0.009156935 0.048667893 0.028833723 -0.0296552 0.020531302 -0.021184 0.045258146
-0.025687035 0.049227897 0.002100174 -0.002168064 0.018388651 0.011618704 -0.046407666 0.032679334
-0.015825534 -0.01623459 -0.022795912 0.024009772 -0.006763468 -0.0397609 -0.009036033 -0.040945787
-0.036703315 -0.06225676 -0.030105984 -0.023319352 -0.0012507775 -0.0077055227 0.029114962 0.015833983
0.020971138 -0.04622927 -0.033368867 0.032504965 0.015088777 0.021314112 -0.050203674 -0.03167247
-0.012064761 0.004130657 0.034580134 0.03463242 -0.01343143 0.020484004 -4.213411e-05 0.041256417
-0.004687936 -0.009458173 -0.020445284 0.0029492504 -0.040870953 0.023270728 -0.0313969 -0.03177168
-0.020552479 -0.049153186 -0.04842858 -0.009605323 -0.03237181 -0.010427517 0.0067501017 0.028857592
-0.007866324 -0.030854493 0.02092935 -0.04709468 -0.012825311 -0.023012873 -0.022282826 0.020177945
-0.012134129 -0.03618438 -0.03879853 -0.056156617 0.022354653 -0.01791056 -0.029719554 0.021045625
-0.02008711 0.035792362 0.02501403 0.030310534 -0.000678264 0.023536228 0.03268748 -0.014925579
-0.014031447 0.0032816725 0.004715721 -0.003850662 0.028302504 -0.01374799 0.033495616 0.000528116
0.044173382 -0.03437361 0.04128927 0.006660886 -0.019509923 0.032192398 0.0021907699 0.022015246
-0.01273735 0.0496155 0.06328145 -0.006586296 0.022349916 0.026825646 0.030519247 0.001144218
-0.01816996 0.013526875 0.039377853 -0.0047692186 0.03350384 -0.007080783 -0.034877073 -0.02343267
-0.012789746 0.050765097 0.014733866 -0.01048695 0.026416158 0.071232334 0.062488 -0.012112586
0.023015562 -0.026968349 0.03675056 -0.028944798 0.029950602 0.012888745 0.008368138 0.023492256
-0.00013769759 -0.061207302 -0.054375462 0.023972107 -0.035000827 0.0035286178 -0.04193874 -0.012478527
-0.0029229517 0.034377843 0.031022262 -0.025099685 0.014891508 0.056274742 -0.019396666 0.029892977
-0.039820936 0.03664567 -0.0003103162 0.056423225 -0.02088795 0.005535467 0.01481571 0.015703188
-0.018312762 -0.017048027 -0.014676232 0.009554475 -0.0052927285 0.03013473 -0.025598316 0.024129277
0.05227039 -0.0426309 0.014460145 0.033642825 0.033341985 0.043027513 -0.023595007 0.029205246
0.008607118 -0.022512576 -0.04670043 -0.0017023206 0.02194244 0.0075067305 -0.013278932 -0.0124806035
0.0075708926 -0.015872164 0.005228078 -0.025755977 0.022268409 -0.025229936 0.015488527 -0.06630497
0.0033325 -0.0012475365 -0.004648114 0.023809649 -0.034976628 -0.016694453 -0.012554287 0.015289871
0.0012806811 0.028928552 -0.001462873 0.00300686 -0.037434217 0.010908232 0.005845251 0.001720398
-0.02136832 -0.007795416 -0.001141116 0.026681216 0.016868712 0.033354312 -0.049915273 0.029596819
-0.015342019 0.032533728 0.045293156 0.024482695 0.03484289 -0.0024956388 -0.025026137 0.009131623
-0.022990119 0.010427244 -0.031227244 0.042234812 0.012954588 -0.050382428 -0.011450298 0.011090422
-0.05486134 -0.052993998 -0.054820184 -0.02441584 -0.007315509 0.0036718005 0.076373674 0.00083274895
0.016052535 -0.019372193 0.061210845 -0.0010979085 0.03411746 -0.024744833 0.017376859 0.015888609

planner.encoder.model.6.bias f4 [128]
00000000: b1a7 023d 7368 7abc 2b75 a43c 7a33 a43b
00000010: b712 943c e4ff adbc fe67 ecbc 0969 fa3c
00000020: c4e0 1bbd ebf4 103d 0ce2 803c 0ba1 1fbd
00000030: 192e 57bc 1667 20bc 05ed cbbc 5dbd 913b
00000040: e062 283c 2fa8 e1bb d3ac a13c 9f43 16bd
00000050: f9a2 113c bc9a e53b ab7a d0bc ac81 0bbd
00000060: 2825 63bc 2765 94bc f76a 12bc 1b05 c4bc
00000070: faa1 b9bc fbc0 a4bc 0ec9 d1bc 90b5 98bc
00000080: 9c01 ae3c 0d6c edbc 2b3e dfbb cfbc 8fbc
00000090: 626f 543c 7f43 ccba eed9 1b3d bf7b 9cbc
000000a0: be7e b0bc 2318 d1ba b4e5 47bc 59b6 f93c
000000b0: c197 833c 3d86 00bd 5dfb 0b3d d5e7 15bd
000000c0: 4d26 c33b e843 e6bc 689c 9e37 6f64 223d
000000d0: a1e3 23bd abc4 0dbd ca32 cf39 3dfa 673c
000000e0: dea7 09bd 176c 083c c52a e0bc d402 b93c
000000f0: ada6 99bc 80ef d5bc fb0c 11bd a996 003d
00000100: f1f7 b53c 1524 8abc e313 f8bb 6159 aebb
00000110: 73f9 063d 1b1e ea38 b1ce f83c 7c34 103d
00000120: 2342 1c3d 0562 c6bc 71da 7b37 139e 10bd
00000130: a8a7 283d 2791 00bd 1d01 dbbc 4bc7 94bc
00000140: 5b57 143d 0df1 6aba 8256 b43c 9e2e 163d
00000150: bd28 84bc 8c43 42b9 60ac a7bc 30e4 16bc
00000160: 6734 943c aa8e c43c aae5 71bb 0f32 183a
00000170: aed4 e43c 1678 673c afb8 ad3c 37cf 203d
00000180: d6d8 4f3a 087a 5abc e989 07bc f3de 193d
00000190: 2422 e1bc bba9 8cbc 3f15 e23c 9ea3 2abd
000001a0: d8b2 0fbd 146b 1dbd 6091 b83c 635a 393c
000001b0: ee59 adbc c78b 04bd d2ac ed3c 651f 15bd
000001c0: fb85 e13c bbbc cb3b adec e83a 24ff 8a3c
000001d0: 9206 19bd 4e8c 273d 6194 f43c 2d67 de3c
000001e0: 9f7c 81bc d32a 2ebc 8999 11bc 173a b13c
000001f0: 33d6 d53c eeba 0ebd 101e 01bd 678e a8bc
0.031898204 -0.015283692 0.020075401 0.0050110193 0.01807533 -0.021240182 -0.028858181 0.030567663
-0.03805615 0.035389822 0.015732788 -0.038971942 -0.013133549 -0.009790203 -0.024893293 0.0044476227
0.01027748 -0.006886504 0.01973573 -0.036685582 0.008888953 0.007006971 -0.025449118 -0.03405921
-0.013863839 -0.01811464 -0.008936635 -0.023928216 -0.022660244 -0.020111552 -0.025608566 -0.018641263
0.021241002 -0.028982187 -0.006812831 -0.017546086 0.012966009 -0.001558408 0.03804963 -0.019101975
-0.02154481 -0.0015952628 -0.012200762 0.030482458 0.016063573 -0.03137802 0.034175266 -0.036598045
0.0059554935 -0.028108552 1.89079e-05 0.039646562 -0.040012006 -0.034611385 0.00039519957 0.014158783
-0.033607356 0.008326552 -0.027364144 0.022584356 -0.018756235 -0.026115179 -0.03541277 0.03139368
0.022212954 -0.016862908 -0.00757073 -0.0053207134 0.032952737 0.00011163597 0.030371996 0.035206303
0.03814901 -0.024216661 1.5011626e-05 -0.035307 0.041175514 -0.031388428 -0.02673393 -0.018161437
0.03621612 -0.0008962311 0.022013906 0.03666555 -0.016132707 -0.00018526445 -0.020467937 -0.009209678
0.018091394 0.023993809 -0.0036910572 0.0005805799 0.027933445 0.014127752 0.021206228 0.039260115
0.00079287344 -0.013334759 -0.008272626 0.037566137 -0.0274821 -0.017170778 0.027598022 -0.041659944
-0.035082668 -0.038432196 0.022530258 0.011313054 -0.021161046 -0.032359865 0.029013071 -0.036406893
0.027529707 0.006217567 0.001777073 0.016967364 -0.03735978 0.04090529 0.029855909 0.027148807
-0.015806494 -0.010630327 -0.008886703 0.021634145 0.026103115 -0.03484624 -0.03152281 -0.020575715

planner.encoder.model.7.weight f4 [128]
00000000: 4e72 803f 96e4 823f fcbd 823f 86f9 7c3f
00000010: 2089 813f f83c 823f 772b 833f a754 7f3f
00000020: ac11 803f 6210 7c3f d040 7c3f d4d2 793f
00000030: 9ae7 803f e12e 803f 28b3 803f 0b31 7f3f
00000040: 148d 7f3f a00b 823f de32 7e3f e65c 813f
00000050: 96d8 803f c923 813f f497 843f 6343 803f
00000060: 1f0e 793f 495f 7b3f 305b 7d3f 999d 7c3f
00000070: 89ef 7b3f 03e3 823f c3ca 823f 1052 793f
00000080: 659d 7d3f e04e 7c3f 16d0 7b3f ebe9 7f3f
00000090: 11fb 813f 312c 823f c950 7d3f a017 7f3f
000000a0: 62a8 7d3f 4717 813f 250c 7d3f 9496 7e3f
000000b0: 2ab1 7f3f b7c0 7c3f 5fde 823f 03d2 803f
000000c0: bc3f 833f 7e34 813f bf08 803f f39a 813f
000000d0: 55cc 7b3f 613b 7d3f b73c 7d3f 0fba 813f
000000e0: 7843 843f a9dc 7c3f b96a 823f 1590 7a3f
000000f0: 6b58 813f c82b 803f 2c6d 813f 1b7a 823f
00000100: 5910 813f dffd 7c3f 9cc4 823f dee6 813f
00000110: 50e1 823f 2b6d 823f 3b73 7e3f 36dc 7e3f
00000120: 9cda 7e3f 7f7b 803f 08a7 813f 6177 813f
00000130: 22ca 7d3f ee6e 7d3f 0318 7f3f 1890 823f
00000140: e6ac 803f 0a57 7f3f a479 813f 24dc 7c3f
00000150: 859c 7b3f e37a 7d3f 2c51 773f fc96 7f3f
00000160: f42b 813f 99c1 803f cf76 7f3f 6569 813f
00000170: 9391 7c3f 8246 813f 155a 813f 3786 823f
00000180: a6cb 823f 71ba 7d3f 8976 803f 4c23 7d3f
00000190: 5a00 823f efdc 7a3f 73b7 7c3f ddf8 803f
000001a0: 7fe3 813f e47a 803f 5f0f 813f e1ef 813f
000001b0: 4bc1 803f 4252 813f baeb 813f e000 7f3f
000001c0: db0e 7c3f b163 7c3f 0397 7a3f ef58 803f
000001d0: e610 7d3f 4ea0 813f f0e3 803f 808e 793f
000001e0: 2629 823f 2ae6 7e3f ba6f 7d3f 2b43 7f3f
000001f0: cbbc 7d3f 5e12 803f 4722 803f 234c 833f
1.0034883 1.0226009 1.0214229 0.9881824 1.0119972 1.0174856 1.024764 0.99738544
1.0005393 0.984625 0.98536396 0.97587323 1.0070679 1.0014306 1.0054674 0.9968421
0.99824643 1.0159798 0.9929637 1.0106475 1.0066097 1.0089046 1.0358872 1.0020565
0.9728717 0.9819227 0.98967266 0.98677975 0.98412377 1.0225528 1.0218128 0.9739084
0.9906829 0.98557854 0.9836439 0.99966305 1.0154744 1.0169736 0.98951393 0.99645424
0.99085057 1.0085229 0.98846656 0.99448514 0.99879706 0.9873156 1.0224112 1.006409
1.0253825 1.0094144 1.0002669 1.0125412 0.9835866 0.9891873 0.9892077 1.0134906
1.033309 0.987742 1.0188819 0.978761 1.0105108 1.0013361 1.0111442 1.0193514
1.0083114 0.98824877 1.021625 1.014858 1.022501 1.0189565 0.9939458 0.99554765
0.9955232 1.0037688 1.0129099 1.0114557 0.99136555 0.9899739 0.99646014 1.0200224
1.0052764 0.99742186 1.0115247 0.9877341 0.98285705 0.99015635 0.96608233 0.9983976
1.0091538 1.0059081 0.9979066 1.0110289 0.9865963 1.0099642 1.0105616 1.0197209
1.0218399 0.9911261 1.0036174 0.98881984 1.0156357 0.9799337 0.9871742 1.0075947
1.0147551 1.0037503 1.0082816 1.015133 1.0058988 1.0103228 1.0150063 0.9961071
0.9846017 0.98589617 0.97886676 1.002714 0.9885391 1.0127046 1.0069561 0.9748306
1.0168808 0.9956995 0.98998606 0.99711865 0.991162 1.0005605 1.0010461 1.025761

planner.encoder.model.7.bias f4 [128]
00000000: b909 303a 2631 3d3c 5c7e 56b9 61ea 3fbc
00000010: 3cdf e43b 649e 16bc 02a1 7abc 08ac c2ba
00000020: d9fc c4ba 9b5a 34bc 947c 46bc 27b1 44bc
00000030: dda0 e43c 453e 88bc 7792 b43b 34e2 b0bc
00000040: de18 d7bb 63c0 49ba c68b 31bc 3616 1e3c
00000050: 75a9 be3b 245a 7ebc e9e7 4b3b e2bf 38bc
00000060: da31 48bc f15e 29bc 478a 2ebc ec70 3fbc
00000070: ce03 43bc 3b67 a7bc aef1 973b 7f43 9fbc
00000080: 193f 37bc f7c7 67bc 1f50 82bc ab6d f93b
00000090: fe58 723c 10aa df3b 3c28 15bc 934d 11bc
000000a0: 3059 12bc 1738 173c e029 80bc d523 8fbc
000000b0: 5b7d f53c 8738 2ebc d453 d0bc 5d13 343c
000000c0: c14b eabb 1be6 01bc f476 c0bb 0853 133c
000000d0: 62f0 80bc a9b0 53bc 2108 19bc 1974 053c
000000e0: fbcd 123c 84e3 403b 30ca 2bbc d208 b9bc
000000f0: 0cea d03b 9f4a f43b 330c e83b 4ad7 2e3c
00000100: 68b4 d23b e840 f1bb ad7d 383c 5fe4 293c
00000110: 493d a83b 94b6 bc3a 0c59 f7bb beeb 66bc
00000120: 1786 58bc 18cb 76bc fbdc 503c 9745 a33b
00000130: 79d2 1bbc f00a 43bc d18e 1bbd c66f e4bc
00000140: 5cd7 efbc f42d 013c 3f71 69bc b220 1fbc
00000150: 6552 79bc 3ebd 20bc b6fe 14bd 104e 84bc
00000160: 2f37 473c 0904 bfbb cdac 1bbb 0f84 e63b
00000170: ddde 50bc 67e8 2bbb 4242 a5ba fd0d 4f3b
00000180: 980f acbb 958a d9bb cc55 3d39 1a48 50bc
00000190: fcef 9a3c 3bea 75bc 88ae 4dbc d178 b03b
000001a0: 8c02 8f3b 4273 cd3b 3653 813a fa75 6e3b
000001b0: f54f 98bc 03a5 5b3c 4116 643c 1fc1 48bc
000001c0: 3934 35bc 4ab6 41bc 9956 d8bc 9770 4cbb
000001d0: 8691 20bc d129 253c d9dc e7bc 0d53 db3a
000001e0: 62f4 c93b 1c11 2cbb f03b 2ebc a99d 1ebc
000001f0: 3cd8 43bc 148d 3dbc 7c8b 453b 28e3 6d3b
0.0006715316 0.011547362 -0.00020455703 -0.011713595 0.0069846194 -0.009193037 -0.015297176 -0.0014852295
-0.0015028968 -0.01100793 -0.012114663 -0.012005127 0.027908737 -0.016631255 0.005510624 -0.021592237
-0.0065642437 -0.00076962094 -0.010836547 0.00964885 0.0058185407 -0.015524421 0.003111357 -0.011276217
-0.012218917 -0.010337577 -0.010653085 -0.0116846375 -0.011902763 -0.020434966 0.0046369648 -0.019441364
-0.011184477 -0.014146796 -0.015907345 0.0076119504 0.014791725 0.006825693 -0.009103831 -0.008868593
-0.008932397 0.009229681 -0.015644968 -0.01747314 0.029967 -0.010633594 -0.025430597 0.010990945
-0.007150144 -0.007928397 -0.0058735553 0.008991964 -0.015739623 -0.012920537 -0.009340317 0.008145356
0.008960242 0.0029432485 -0.010485217 -0.022587214 0.006375557 0.0074551846 0.0070815324 0.010671446
0.0064301975 -0.0073624738 0.011260432 0.010369389 0.005134259 0.0014397674 -0.007548457 -0.014094291
-0.013215563 -0.01506307 0.012747998 0.004982661 -0.00951063 -0.011904463 -0.037977997 -0.027885329
-0.029277496 0.007884491 -0.014248191 -0.009712385 -0.015217398 -0.009810744 -0.036375724 -0.016150504
0.012159153 -0.0058293384 -0.002375412 0.0070347856 -0.012748447 -0.0026231052 -0.0012608247 0.003159403
-0.0052508824 -0.0066388347 0.00018056406 -0.012712503 0.018913262 -0.015009458 -0.0125538185 0.005385496
0.0043643173 0.0062698433 0.0009866718 0.0036386237 -0.018592814 0.013406041 0.013921321 -0.012253075
-0.011059814 -0.011823246 -0.02640848 -0.0031195038 -0.0098003205 0.010080771 -0.02830355 0.0016733125
0.006163166 -0.0026255315 -0.010634407 -0.009681144 -0.01195341 -0.01156928 0.0030142954 0.0036298726

planner.encoder.model.7.running_mean f4 [128]
00000000: f3cb dc3e 8d6f f6bd 1368 56bf 7088 d93e
00000010: e711 f0be 81dd 643d 9362 03bd 7d83 1d3f
00000020: 58e1 1bbd 6164 923f 5376 a53e c10a 473f
00000030: 1803 39bf 62b8 6f3f dc8e 98be 971a 843f
00000040: e218 5a3f 524c c7bf ab84 c73e 0200 3ebf
00000050: 11a6 90be 1e47 b43e 387d 39bf a788 3b3e
00000060: 4849 08be 1362 1a3f 634e 013f 4492 7e3f
00000070: 486d 233f 5e40 f73e 84c9 2cbf 66ba a6bd
00000080: 7c8e c03e 1dac 4f3f d37c 15be 49c8 a9bd
00000090: 15e7 81be c875 8ebf dc52 f93e 5cb1 163f
000000a0: e12c 873e b083 b5be c5fd ae3e af35 89bf
000000b0: 7be8 fabc f6ae 313f 500c 3b3f 22a3 c6be
000000c0: 605a 453d f4fb bebe 97e6 ce3e 23e7 44be
000000d0: 0ac3 703f ce08 34bd ce13 783f d802 36be
000000e0: 6482 9ebf 1e9c 12be 4f30 593f 2a9f 4f3f
000000f0: 56c5 8abe 3c15 b7bf 179b e0be cb11 8cbf
00000100: 5ad9 d2be e10b 3a3f 8de8 9ebf 77d5 25bd
00000110: 4dda 2cbe 4c86 18bd 3932 ca3e be4a ad3f
00000120: 75ff 433f c96a b53e 1f95 00bf 8e28 dabd
00000130: 39b6 0d3f c086 b93e 191b ccbf d223 063f
00000140: d781 803e 6133 35bf 79cb de3e 6783 253d
00000150: 9b6f babd d5df 003f ef99 5bbe db0b 5bbf
00000160: 1076 34bd 086e 383e 001b 403e 72a7 a2bf
00000170: 1492 99be 08c0 debe 62a9 643f 6417 20bf
00000180: 31e4 d13c ec72 48bf 1079 50bf 09bf 3cbf
00000190: 659a a3be 93c6 3b3f 62e0 3b3f f48f c4be
000001a0: fdea 16bf 3a59 a03c a8aa 92be 25da 9dbf
000001b0: 45bd 0b3f 8a03 0dbe 666a f33d c0e4 033e
000001c0: 0522 b5be b9e9 213f 42d2 61be f88e 043f
000001d0: fa4c e43e 8641 c9bf de24 943e ce86 47bf
000001e0: 3bd0 e0be 6483 203f 1b76 8bbe 8c9c d2be
000001f0: d263 1ebf 68f3 933e 9185 a0bc 194a 8fbf
0.4312435 -0.120329954 -0.83752555 0.42486906 -0.46888658 0.055875305 -0.03207643 0.6152876
-0.0380567 1.1436883 0.32316837 0.77750784 -0.72270346 0.9364072 -0.29796493 1.0320615
0.8519422 -1.5570166 0.38968405 -0.7421876 -0.282517 0.35210508 -0.72456694 0.18313847
-0.13309205 0.603059 0.50510234 0.99441934 0.63838625 0.48291296 -0.6749499 -0.081410214
0.37608707 0.81122 -0.14598398 -0.082901545 -0.25371614 -1.1129694 0.4869603 0.5886438
0.26401427 -0.35452032 0.34177986 -1.0719508 -0.030628433 0.69407594 0.7306566 -0.38796335
0.04818189 -0.373016 0.404103 -0.19228797 0.94047606 -0.04395371 0.9690522 -0.17774522
-1.2383542 -0.14317366 0.8483934 0.8110224 -0.2710368 -1.4303355 -0.43868324 -1.094293
-0.4118145 0.72674376 -1.2414719 -0.04048678 -0.1688015 -0.03723745 0.39491442 1.3538435
0.7656167 0.35433033 -0.5022754 -0.106522664 0.55356175 0.3623562 -1.594577 0.5239841
0.2509906 -0.70781523 0.43514612 0.04040852 -0.09103318 0.5034154 -0.2144544 -0.85564965
-0.044057906 0.18010724 0.187603 -1.270735 -0.2999426 -0.43505883 0.8932096 -0.6253569
0.025621505 -0.78300357 -0.81434727 -0.73728997 -0.3195373 0.73349875 0.73389256 -0.38391078
-0.58952314 0.019573797 -0.28645825 -1.2332197 0.5458568 -0.13770881 0.11885528 0.1288023
-0.35377517 0.6324726 -0.22052863 0.51780653 0.44589978 -1.5723121 0.28934377 -0.7794007
-0.43908867 0.62700486 -0.27238545 -0.4113506 -0.61871064 0.28896642 -0.01959494 -1.1194488

planner.encoder.model.7.running_var f4 [128]
00000000: 6f85 923f 4b44 aa3f 161d 1a3f bd95 273f
00000010: be4e 8c3f 95b8 943e 5815 283f f5e5 9b3e
00000020: 8b17 413f a892 c03f 9005 383f dc3e 833f
00000030: 86f2 943f dac8 873f f434 323f 01bc 593f
00000040: fcab 2d3f 8e91 e83f 9b02 2a3f 19a8 583f
00000050: 7dbc 6a3f 0d89 0f3f 19e5 543f 231c 8b3e
00000060: 8947 0a3f 6448 d53f b0a6 ba3e 3e55 223f
00000070: 5349 453f 6da2 113f a92e 223f 6aaf 8e3f
00000080: 85f3 8f3e 2a52 0b3f b08a c43f e678 363f
00000090: a130 143f 8868 a73f 2f52 da3e 160b 053f
000000a0: 5eb6 cc3e d34a 6c3f 0340 553f 41a0 433f
000000b0: 42a6 9f3f b50e 6c3f 9c26 2d3f c79a 073f
000000c0: 3475 0d3f 0a69 7a3f 9b8e ad3e e477 093f
000000d0: fe89 013f 057a 223f f2f8 0f3f 61f4 503f
000000e0: 3b8b 473f 5580 173f 53d8 183f a749 5c3f
000000f0: 5c24 303f 9d62 3b40 001c 273f 86b5 873f
00000100: 31a8 833f 4dbd 693f 7183 b33f 0e57 3b3f
00000110: d7cf ca3e 0be2 e13e edc8 d73e 4dd2 c43f
00000120: c1d4 2f3f 57c2 403f 60cc 3a3f 220b 383f
00000130: 6d98 ae3e 29cc 023f 63a3 0a40 e2f8 0c3f
00000140: c4e0 083f ee4f 643f fb8a 563f d1aa 933f
00000150: 747f 3c3f 877b 213f db68 523f 52e8 123f
00000160: a5a4 223f bb6e 063f ee82 c43f 077f 993f
00000170: ea46 3f3f 2307 bd3e 82b5 0f3f d7c3 913f
00000180: ead7 623f 316c 493f 56f9 8a3f da32 be3f
00000190: 853f fd3e 8f86 5d3f 73f7 4a3f a8cc 5b3f
000001a0: 3329 243f 89e0 fe3e 3fd2 2a3f 6725 bf3f
000001b0: 5064 813f 8746 643f 7a3e 3d3f d44d 1c3f
000001c0: 2798 483f 8f8a f03e 4ba5 463f 3ebf 943f
000001d0: 3b9b 1e3f aad3 1d40 5147 ef3e d8f1 3f3f
000001e0: a59f be3f 1a71 0c3f aa4b cf3e 1d7d 0d3f
000001f0: f2ab e43e fb71 2c3f 4282 8f3f 3978 d23e
1.1446971 1.3302091 0.6020063 0.6546286 1.096153 0.29047075 0.6565757 0.3044888
0.7542655 1.5044756 0.7188349 1.0253558 1.1636512 1.060817 0.6961205 0.85052496
0.6784055 1.816942 0.66410226 0.84631497 0.9169386 0.560685 0.83162075 0.27169904
0.54015404 1.6662717 0.36455297 0.6341132 0.7706501 0.5688847 0.6335245 1.1147282
0.28115478 0.5442225 1.5354824 0.71278226 0.578867 1.3078775 0.42640826 0.5197004
0.39982885 0.9230167 0.833008 0.76416403 1.2472613 0.9220994 0.6763704 0.52970546
0.5525696 0.97816527 0.33897862 0.53698564 0.50601184 0.6346744 0.56239235 0.8162289
0.77946824 0.59180194 0.59705085 0.86049885 0.6880548 2.9278939 0.652771 1.0602272
1.0285703 0.91304475 1.4024488 0.7317971 0.39611694 0.4411777 0.42145482 1.5376679
0.6868401 0.7529654 0.729681 0.7189199 0.34100667 0.51092774 2.1662223 0.55067265
0.53467965 0.89184463 0.8380582 1.1536504 0.7363198 0.6307911 0.82191247 0.5738574
0.6353248 0.5251271 1.5352457 1.1991891 0.7471758 0.36919507 0.56136334 1.138789
0.8861071 0.7868071 1.0857341 1.4859269 0.49462524 0.86533445 0.7928383 0.85859156
0.64125365 0.49780682 0.6672706 1.4933289 1.0108738 0.89170116 0.73923457 0.61056256
0.78357166 0.46980712 0.7759597 1.1620862 0.6195561 2.466044 0.46734098 0.749784
1.489247 0.5486008 0.40487415 0.5526903 0.44662434 0.6736142 1.1211627 0.41107348
