model/lightning_logs/version_2/checkpoints/epoch=19-step=340.ckpt (torch, 781842 bytes, 34 tensors)

planner.astar.neighbor_filter f4 [1, 1, 3, 3]
00000000: 0000 803f 0000 803f 0000 803f 0000 803f
00000010: 0000 0000 0000 803f 0000 803f 0000 803f
00000020: 0000 803f
1.0 1.0 1.0 1.0 0.0 1.0 1.0 1.0
1.0

planner.encoder.model.0.weight f4 [32, 4, 3, 3]
00000000: 691d 0dbe 0878 bdbc 395e 8fbd d05b 1ebd
00000010: 3cb1 1bbe 41f0 763d 2965 06be 87fb 56bb
00000020: 7d16 8a3d 8d24 b0bc 03ff f63d 8f2c 523d
00000030: c3ba ee3d 549b f83d c9b2 66bd e387 d43d
00000040: 491d 24bd f2fc b83d fcf2 7fbd 1f91 c13d
00000050: 4d01 683d eb11 66bd 5cb1 a5bd 11cb 443d
00000060: 7d27 323e c1ad b63d b0be bb38 f391 2cbd
00000070: 8cb3 d73c aadd 0abe 68f6 89bd 9e96 4ebe
00000080: 5f81 f4b9 bfa0 1abe 765c 5cbd c637 bc3d
00000090: cbd2 ea3d b74a 96bc aaa5 073e 80f9 0fbe
000000a0: 244f dabc 1efd 4dbe 6654 ad3b 56ba 1b3d
000000b0: e360 e0bd 020c 953d 0da9 87bc a10a 24be
000000c0: 0adc 013e d485 d63d 4745 443d 5ba8 f53d
000000d0: 4f39 453d c1d9 2d3d 3e20 123e 3c73 b5bc
000000e0: 6bc4 16be 3d93 adbd f142 a5bc af88 58bd
000000f0: 7940 48bc e778 b13d 1cfb 853c 5fdd c6bd
00000100: ec09 c7bd 7a18 0fbe a5b8 163a 1524 2abe
00000110: 00e8 42be c897 e6bc 9d4a f1b9 858e 5f3c
00000120: cf2f 18be 8ded 283e c7c0 b13d a230 92bd
00000130: d3a4 bcbd 37a2 40bb 9a37 1b3d 9998 1ebe
00000140: db01 d5bd a77f 983d d9ec cdbd f0b2 eabc
00000150: cf59 f7bd 4b82 273e 9350 9e3d da03 41be
00000160: 3ba4 edbd 7546 cf3c a707 913d 11fe cc3d
00000170: 750f c0bd 1c29 b6bc e220 093e 3c8b adbd
00000180: e973 98bc 89ad c23d 4b7e c73d e011 ef3b
00000190: 0f22 9c3d fb1f e73d 4af8 9d3a 631b d83c
000001a0: 252a 493e 6e9e 373e c563 fa3d f72f a7bc
000001b0: 6996 07be adb7 14be 5578 cd3c 32bc 07bd
000001c0: db1b 20bc f0d4 163b a168 3f3e 1f5e 393e
000001d0: 31d7 f4ba 4d35 13bd 7cb3 d13d 96cf 453c
000001e0: 5a50 10be 2228 9b3d 4350 343e 11ee fcbd
000001f0: db40 03bd fec9 083d 3759 02be 3045 08be
00000200: c405 0b3e 4775 11bd 3e0b ec3d 3c68 c73c
00000210: b5be 693d d1ec debd 1814 3bbd e5d5 b93d
00000220: 900b 0c3d b398 c3bd 9c7e 0abe 1c89 713c
00000230: 12c3 71be b755 dfbc 8b0a d9bd 24ab cc3b
00000240: ccf2 b33d 0951 0abe 28ff 16bd 4880 2f3e
00000250: 660e 663d 79af b6bd e5fb a1bc 954d 063e
00000260: 69d9 3c3d 06ca eb3d 9ded e1bd adbf f83c
00000270: 09b2 c23c f925 013c 2016 e33d 61ed b03d
00000280: b730 bd3d 70c2 0c3d 06ea 853d 2df6 11bd
00000290: a20d 2dbe 74f1 19be 8f93 fcbd dbbd 19be
000002a0: 9dde 943d 6569 0a3d 60ab a5bd 4c76 0ebe
000002b0: 9c18 2d3e 49f5 b83d 6174 8abc ee62 cf3d
000002c0: b0a6 10be bdb7 01be 4db8 adbd 5a9c 043d
000002d0: 7c3b 19be fea4 dd3d 5c10 3cbc 6176 573d
000002e0: a181 16be 4bec 79bd ebb0 8ebc 4f8f e3bd
000002f0: c1b7 e53d c6c1 8abd 6913 5b3d 741e d3bd
00000300: 029f 87bc f51b 8bbd 9add 783d 1d2f f83d
00000310: ace5 6e3c fa26 75bc c94d 04bc be38 0c3e
00000320: 9f09 a8bc 3e66 053e d80e b1bd 0eea 163e
00000330: ab9d 493e 0870 f63d 92ac 213e 6f58 873c
00000340: f578 d3bd 6644 29bb cb11 42bd ddca d1bd
00000350: 6fe0 b23c 6355 ac3c a844 28be 4c0d bdbd
00000360: 9b01 97bd d1f0 623d 351b 44ba 0e70 5b3d
00000370: c777 57bc 9683 bdbd 180a 7a3c 37f9 e53d
00000380: a6d1 ecbd bd94 2d3e 1cba 933d f009 423e
00000390: 1473 0fbe af58 0fbe 9232 853d be03 17be
000003a0: 27a3 13be 35fa 823d d5eb e23d dad1 e9bd
000003b0: 5b27 1c3e 9b1d 66bc 7a99 193e 3158 a3bd
000003c0: 0690 14be 5188 acbd 0d4f 0dbd 1ba7 57be
000003d0: 12ae 83bd e51b 26be 6540 0ebe d52d 98bd
000003e0: 0dc9 4bbd e2a5 01be 33ee 083e 588b 22bd
000003f0: 25e8 e53d df04 243e 6940 54bd eb4e 61bb
-0.1378075 -0.023128524 -0.070003934 -0.038661778 -0.15204328 0.060287718 -0.13124527 -0.003280373
0.067425705 -0.021501804 0.120603584 0.051312026 0.11656716 0.121390015 -0.056322847 0.10377481
-0.04006699 0.090326205 -0.062487587 0.09451508 0.056641866 -0.05616943 -0.08090469 0.04804522
0.17397876 0.0891986 8.952373e-05 -0.042131376 0.026330732 -0.1356112 -0.067364514 -0.20174643
-0.00046635696 -0.15100382 -0.053799115 0.091903254 0.11465987 -0.018346174 0.1324679 -0.1406002
-0.026649065 -0.20116088 0.005289602 0.0380195 -0.1095598 0.07277681 -0.016560102 -0.1601968
0.12681594 0.104747444 0.04791763 0.11995002 0.048150357 0.042443994 0.14270112 -0.022149675
-0.14723365 -0.08475349 -0.020173522 -0.052864727 -0.012222403 0.086656384 0.01635509 -0.09710192
-0.09718689 -0.13974181 0.000574956 -0.16615327 -0.19033813 -0.028148547 -0.00046022693 0.013644819
-0.14861988 0.16496868 0.086793475 -0.07138182 -0.09211125 -0.0029393563 0.037894823 -0.15487899
-0.104007445 0.07446223 -0.10054941 -0.028649777 -0.120776765 0.16358297 0.07730212 -0.18849126
-0.1160359 0.025302151 0.07081538 0.10009397 -0.09377948 -0.0222364 0.1339145 -0.084738225
-0.018609958 0.095057555 0.09740885 0.007295832 0.07623684 0.11285397 0.0012052145 0.026380247
0.19644983 0.1793153 0.12226061 -0.020408614 -0.1324097 -0.14523192 0.025081793 -0.03313846
-0.009772266 0.0023015104 0.18692257 0.1810231 -0.0018679855 -0.035939503 0.10239312 0.012073418
-0.14093152 0.07576014 0.17608742 -0.12350095 -0.032044273 0.03339576 -0.12729345 -0.13307643
0.13576418 -0.035512235 0.11525582 0.024341695 0.057066638 -0.10885013 -0.04567346 0.09074
0.034190714 -0.095506094 -0.1352486 0.014742162 -0.2360957 -0.027262552 -0.10597714 0.0062459875
0.08786544 -0.13507475 -0.03686443 0.17138779 0.056166075 -0.089201875 -0.019773433 0.13115533
0.046105776 0.11513142 -0.11031649 0.030364836 0.023766534 0.007882589 0.110882044 0.086390264
0.09237807 0.034365118 0.06538777 -0.035635162 -0.16899732 -0.15033513 -0.12332832 -0.1501383
0.072690226 0.03379192 -0.08089328 -0.13912314 0.16903919 0.090311594 -0.016901197 0.10126291
-0.14126086 -0.12667747 -0.08482418 0.03237567 -0.14964098 0.108224854 -0.01147851 0.05260313
-0.14697887 -0.061016362 -0.017418345 -0.11111318 0.11216689 -0.067752406 0.053485308 -0.10308543
-0.016555313 -0.06792442 0.06075821 0.12118361 0.014581125 -0.014962906 -0.008075186 0.1369352
-0.0205124 0.13027284 -0.08645409 0.14737722 0.19689052 0.12033087 0.15788487 0.01652166
-0.10325805 -0.0025828122 -0.04738025 -0.10243771 0.021835534 0.02103681 -0.1643244 -0.09231052
-0.07373353 0.05540544 -0.0007480861 0.05357366 -0.013151116 -0.09253614 0.015261196 0.112291746
-0.11563425 0.1695127 0.07213232 0.18949103 -0.14008743 -0.13998674 0.06503786 -0.14747521
-0.14417706 0.063953795 0.11080138 -0.11416979 0.15249388 -0.014045144 0.14999953 -0.079758056
-0.14508066 -0.08424438 -0.034499217 -0.2105984 -0.06429686 -0.16221578 -0.13891752 -0.07430617
-0.049752284 -0.12660936 0.13372116 -0.03968367 0.11225919 0.16017483 -0.05181924 -0.0034379314

planner.encoder.model.0.bias f4 [32]
00000000: c6e2 173e 9bbd ae3d 2338 983c 3a25 d0bd
00000010: 0288 0e3e 0889 1c3e 6b05 29bd bd88 c5bd
00000020: 2435 94bd 42a0 df3d 4761 13be b67f 9abd
00000030: afc8 90bb 8aba dd3d eefb b7bc e259 fbbd
00000040: 3201 e7bd c9a6 5d3d b2d4 c2ba e932 29bd
00000050: e996 d63d 0bdf 813d 2635 393c cea9 48bd
00000060: 7261 e0bd b55a 28be ff4f a43d e5e8 183b
00000070: 78fb 0c3e 4e93 74bd 83ae 24be 3124 bbbd
0.14832601 0.08532258 0.018581456 -0.101633504 0.1391907 0.15286648 -0.041264933 -0.096452214
-0.07236698 0.109192386 -0.14392577 -0.0754389 -0.0044184546 0.10826595 -0.022458997 -0.12273003
-0.11279525 0.054114137 -0.0014864414 -0.041308317 0.104780026 0.0634137 0.0113041755 -0.048990063
-0.10956086 -0.16440852 0.080230705 0.0023332175 0.13767803 -0.059710793 -0.16082196 -0.09137762

planner.encoder.model.1.weight f4 [32]
00000000: 0fb1 813f 2cc3 813f 63ed 843f 9c7b 823f
00000010: 184e 823f bbf6 7b3f 79f6 7a3f cb96 803f
00000020: d7f3 803f 8892 763f 2505 813f f326 763f
00000030: 5813 813f dc01 773f 4fc5 6c3f ef9b 863f
00000040: ef99 813f 4a7f 7a3f 8722 7a3f 4de7 813f
00000050: a4fa 7f3f d1eb 7b3f 12d9 723f 7bd1 783f
00000060: d5e7 793f c921 843f b487 833f 7c61 7f3f
00000070: 3c9c 893f a6b3 7f3f 8285 833f 4930 793f
1.0132159 1.0137687 1.0384945 1.0193973 1.0180082 0.98423356 0.9803234 1.0046018
1.0074414 0.9631734 1.0079695 0.9615318 1.0084028 0.9648721 0.9248857 1.0516337
1.0125102 0.9785048 0.97708935 1.0148712 0.9999182 0.984067 0.94862473 0.9719464
0.9761937 1.032281 1.0275788 0.99758124 1.0750804 0.99883497 1.0275118 0.973393

planner.encoder.model.1.bias f4 [32]
00000000: 9f9d 473d 3454 dabd d471 0bbc 98e9 24bd
00000010: 7358 03bd 1811 0fbd b4ff 5bbd d1ae b93c
00000020: 188a 003e b4bb ffbc ad49 8f3d 4237 bdbd
00000030: 6564 66bd 810a 99bd 57ea 57bd f1ab 09bc
00000040: ae43 88bc 7515 6a3c be97 f8bc 4878 913c
00000050: de4d 763c 366d b1bc e8c4 94bd 1b2c 66bd
00000060: 9811 78bc ad47 313d 9df9 edbc 11fa b03a
00000070: 288c 27bd 3fb7 d8bc 6db5 31bc a876 3f3d
0.048734304 -0.10660592 -0.008511025 -0.040261835 -0.032066774 -0.03492841 -0.053710654 0.022666367
0.12552679 -0.031217434 0.069964744 -0.09239055 -0.056248087 -0.074727066 -0.05271372 -0.00840281
-0.016633835 0.014287342 -0.030345794 0.01775755 0.015033213 -0.021658521 -0.072641194 -0.056194406
-0.015140913 0.043281246 -0.029049689 0.001350226 -0.040905148 -0.026454566 -0.010846478 0.04674402

planner.encoder.model.1.running_mean f4 [32]
00000000: 3cbb ff41 98c6 ec40 7337 e1c1 92db 1d41
00000010: 992b 0141 91be 7a42 4533 d0c0 a300 4941
00000020: 3001 3242 721b c442 d740 3642 7783 8bc2
00000030: 70f8 44c2 db89 97c2 bcf3 d642 077d d740
00000040: fae1 b241 7d04 5741 5c2f 1d41 f685 e3c1
00000050: d413 2441 c8a9 bec1 57b4 4dc2 20df 1a41
00000060: 4a8f 6342 a5e3 b3c1 b99e 0f41 974f fa40
00000070: be35 73c1 bfff 4341 aef2 d9bf c315 c0c1
31.966423 7.3992424 -28.152075 9.866106 8.073144 62.6861 -6.5062585 12.562655
44.50116 98.053604 45.56332 -69.75677 -49.242615 -75.76925 107.47604 6.734012
22.36034 13.438596 9.824062 -28.44041 10.254841 -23.832901 -51.426113 9.679474
56.88993 -22.486155 8.976251 7.8222156 -15.200621 12.249938 -1.7027185 -24.010626

planner.encoder.model.1.running_var f4 [32]
00000000: 6f30 6243 00ea 0a43 d885 6243 4be4 2543
00000010: 81cb 5643 2713 5d44 4874 7743 4f7d 1743
00000020: 58f5 be43 ee4c db44 9789 d143 ac67 7644
00000030: 882b 0144 1abf 9244 8806 0445 7c23 f642
00000040: 24b5 7343 7a0f 1343 cbef c542 59ab 3a43
00000050: d8ad 7d42 4936 5e43 9ed8 1a44 3a63 b142
00000060: 3004 4644 0cd0 fa42 8a03 1d43 54be 9f43
00000070: 8247 bd42 36fa 1243 22c3 fb42 a58d 2643
226.1892 138.91406 226.52283 165.89177 214.79494 884.29926 247.45422 151.48949
381.91675 1754.404 419.07492 985.6199 516.6802 1173.9719 2112.4082 123.069305
243.70758 147.06046 98.968346 186.66933 63.41977 222.21205 619.38464 88.6938
792.0654 125.40634 157.01382 319.48694 94.63966 146.97739 125.88112 166.5533

planner.encoder.model.3.weight f4 [64, 32, 3, 3]
00000000: 62f2 a9bc 1580 153c 163b 1dbd 579b 1f3d
00000010: 3e60 6e3d c5ce 103c dde3 54bd 9ad5 cc3c
00000020: dd2a 8abc 377a 1e3d 9e52 eb3b 6a9f adbc
00000030: a0d4 3abd 1690 5a3c 010b abbb cef4 aa3d
00000040: eaf7 9a3c e282 553d 70b5 393d 8d1f 733d
00000050: 8b69 143d 53e2 4b3d b7ef 3b3d 1b65 863d
00000060: b660 49bd 756c bc3c 9814 9cbc 5146 13bd
00000070: 4908 793c 98e4 5f3d f3fa 6d3d f2a4 d83b
00000080: df6a 0c3d f157 e73b 4693 9c3c 801c 80ba
00000090: 4f14 a83c d37a 013d ea07 b13c 5835 d93b
000000a0: a09b 823d b4af 033d 8fdf 293d 4cd7 b0bc
000000b0: f3fa 1f3d e39a 78bd 1be3 6f3b e020 1dbd
000000c0: 713c 103d dfea d43c 2a4e 8fbd 0197 973b
000000d0: 0127 2ebd 8254 cabd b804 cfbc 7c6b 423b
000000e0: 32c2 ea3c 0fad 7c3b 61de 393d 78d6 53bd
000000f0: f0e3 b4bc 88ac 5bbd 29ef 323a 2429 8abd
00000100: 48bb 803b 7960 f63b 7804 7cbd 328f 8a3c
00000110: 0016 a2bd 5692 92bd 6e7c 31bd e9e5 62bc
00000120: 0377 873c 10e6 90bd 4153 2dbc 4445 5a3c
00000130: aeaf 19bd 5802 95bd d27a 9abb b7ba 0dbd
00000140: f337 44bc 32b9 9dbd 9a25 09be d7cf a1bd
00000150: 2921 80bd 959d 94bd 1a90 f1bc f5ee c8bb
00000160: 9909 8dbd 0648 ffbc a36f e9bc 3739 0a3d
00000170: 9297 083d 8ebb 1f3d b98e 483d 80fd 23bd
00000180: fe39 55bd 878a 073d 65f0 0fbb 39e5 013d
00000190: 1f42 c2bc 7667 2fbd 0f8a 59bc 36b3 453d
000001a0: 4a43 febc 475b 91bc 2fdf 123d 1d97 8e3d
000001b0: e149 9e3c 1949 d33c 11b0 5c3d 32db 23bb
000001c0: 3921 2dbd 2517 b53c 7601 88bc 9367 143d
000001d0: 845f 41bc 8174 b53d 7be3 a33c f636 933d
000001e0: eb6c 383b 6c47 92bc 7728 d63b ddf9 333c
000001f0: 20bc 863d d26f bdbc cb9b 8ebd 1478 c3bc
00000200: a2b2 29bd 91a1 64bd fe1a 3e3c 4830 80bd
00000210: 5581 fe3b a8cd 43bb 8d03 52bd 4219 e73a
00000220: 2066 153c 4bc7 52bc d7bf 90bc 1406 063d
00000230: 7031 b5bc e008 393b 6fd0 ca3b a7b0 053d
00000240: a53f b23c b952 0d3d e6d1 24bc 7119 d6bc
00000250: 6569 1b3d 69ed b13d 3d39 0fbd c250 52bb
00000260: ab99 05bc d82e 1bbd f9c3 32bd 1698 063d
00000270: 1f32 00bc e3d1 03bd 0f29 303d 31b5 88bb
00000280: 7feb 493c 08d7 993d bcd6 a7bd 4693 6dbd
00000290: 10da c1bd 52f5 013c 7ac5 ebbc 8c9c 8abd
000002a0: f376 28bd 9a44 09bd 3d54 b93c b28a fa3c
000002b0: 840c d4bc 8f9e 5a3d 3af0 2c3d 3939 f43c
000002c0: 9a00 2abc bc80 d43c 366a e9bc dc7f 06b8
000002d0: 9f11 013d e91d 8dbc 435a 873d 644a 823d
000002e0: 4ce5 833c 2b59 f53b 96d5 91bc d7f8 5b3d
000002f0: eafb 1ebb 8d69 623d c071 323c 0c4f 643d
00000300: 91f9 0c3d b932 333d 234f b9bb fe3e 24bb
00000310: d392 4abd fcde 403d e3c5 883c 1d5d c7bc
00000320: 6fea 31ba 6026 b4bc 87b8 873d 9d5f 8d3c
00000330: 0b3c 153c 235d bd3c 589f dc3c da8f 6a3d
00000340: fdcd c4bc eb50 863d 772e b4bc 068d 053c
00000350: b5a5 e73a e2da 803c f895 4d3b 5f76 263d
00000360: fe08 94bd 234b 95bd 8126 36bc 3faa 85bd
00000370: 9a9e f43c d090 a9bd 3f98 0fbd ae21 e1ba
00000380: 4b29 9a3a 607b cb3b 5c78 92bb f61f 423d
00000390: 8856 0bbd d91b 513b 9e14 353d d8db 873d
000003a0: d4ad cbb8 a043 523d 598d 9d3c 664f 2b3c
000003b0: b25c 733d ea6b 3f3d 2c29 33bd 997b bd3c
000003c0: f5f6 2cbd 7b3d 0ebd 776b c03c 6de9 26bc
000003d0: add2 423d 45bf 92bc 84a0 073d 15fd 593d
000003e0: 14ae e1ba 29cf 5c3c d3aa 15bc 5166 b83c
000003f0: 100f 863d d9e6 b43d e3a2 d33d 5422 a73c
-0.02074546 0.009124775 -0.038386427 0.038966503 0.058197252 0.00883836 -0.05197512 0.025004197
-0.016866142 0.038690772 0.0071814796 -0.021194179 -0.04561293 0.013340017 -0.0052198176 0.08347474
0.018917043 0.052126773 0.045339048 0.05935626 0.036233466 0.049776386 0.045882907 0.06562253
-0.049164496 0.023000935 -0.019052789 -0.03595573 0.015199729 0.054661363 0.058100652 0.00661146
0.034281608 0.007060044 0.019113194 -0.0009774119 0.020517496 0.031611275 0.021610219 0.0066286735
0.06377339 0.032149985 0.041472968 -0.021587037 0.039057683 -0.060694586 0.0036603871 -0.03836143
0.03521389 0.025990902 -0.069973305 0.0046261554 -0.042517666 -0.098794 -0.025270805 0.0029666116
0.028657053 0.00385553 0.045378093 -0.051718205 -0.022081345 -0.053631335 0.0006825799 -0.06746128
0.0039285757 0.0075188247 -0.0615277 0.016913984 -0.079143524 -0.071568176 -0.043331556 -0.01384876
0.016536241 -0.07075131 -0.010578931 0.013322178 -0.037521057 -0.07275838 -0.0047143484 -0.034601893
-0.01197623 -0.07701339 -0.1339325 -0.079009704 -0.06256325 -0.07256619 -0.029487658 -0.0061320015
-0.06886596 -0.031162273 -0.028495615 0.03374597 0.033347674 0.038997225 0.048964236 -0.04003668
-0.05205726 0.033091094 -0.0021963355 0.031712744 -0.02371317 -0.042823277 -0.013277545 0.048266612
-0.031037945 -0.01774372 0.035857376 0.06962416 0.019322338 0.025791692 0.053878848 -0.0025002477
-0.04226801 0.022105763 -0.01660226 0.03623159 -0.011802558 0.08860112 0.020005932 0.07188217
0.0028141092 -0.017856322 0.0065355855 0.010984865 0.06578851 -0.02312461 -0.06963309 -0.023860969
-0.041430123 -0.055818144 0.011603115 -0.06259209 0.0077668824 -0.002987722 -0.051272918 0.0017631429
0.009118587 -0.012864898 -0.017669601 0.03272064 -0.0221183 0.002823405 0.006189398 0.032639172
0.021758864 0.03450272 -0.010059809 -0.026135178 0.03794231 0.086878605 -0.034966696 -0.0032091592
-0.008154313 -0.03788647 -0.043643925 0.032859884 -0.00782445 -0.032182585 0.043007907 -0.0041719903
0.012324213 0.07511717 -0.08195254 -0.05800178 -0.0946542 0.007932024 -0.028780688 -0.0676814
-0.041129064 -0.03351269 0.022623176 0.030583713 -0.025884874 0.05337387 0.042221285 0.029812442
-0.01037612 0.025940292 -0.028493028 -3.2067168e-05 0.031510945 -0.017226176 0.06609013 0.06361845
0.016100548 0.0074874363 -0.017802041 0.05370411 -0.002425904 0.055276442 0.010891378 0.055739447
0.034417693 0.043749545 -0.005655186 -0.002506196 -0.04945643 0.047087654 0.016695922 -0.024336392
-0.00067869475 -0.021990955 0.06626993 0.017257506 0.009108554 0.0231157 0.02693145 0.057266094
-0.024024004 0.06558403 -0.021994812 0.008151298 0.0017673286 0.015729371 0.0031369906 0.04064023
-0.072282776 -0.07289722 -0.0111175785 -0.065266125 0.029860783 -0.08279574 -0.035057303 -0.0017176175
0.0011761574 0.006209776 -0.0044699144 0.04739376 -0.03401807 0.0031907468 0.044209115 0.06633729
-9.712172e-05 0.051334023 0.019232439 0.010455942 0.059414573 0.046733774 -0.043740436 0.023130225
-0.042227704 -0.0347266 0.023488743 -0.010187489 0.047564197 -0.01791347 0.033112064 0.053219873
-0.0017218017 0.013477125 -0.009134966 0.022509726 0.06545842 0.08833093 0.103338026 0.020402111

planner.encoder.model.3.bias f4 [64]
00000000: 1bcc babc 7023 273d e5b4 63bd 061b 8dbc
00000010: f21b b5bc cca1 35bd 9343 24bd f9e4 c83c
00000020: 4abc 233d 2cf1 1bbd 7638 91bc 2587 163d
00000030: d3a5 0abd 6c0c 333d 8227 02bd 5280 ffba
00000040: a8b5 24bd d617 34bd 7fb0 053d b722 5a3d
00000050: 660c 733c 7145 253d 6df9 47bd 72b1 4bbd
00000060: 6d00 b1bc ba17 dfbc 7760 6cbc b9ab 243d
00000070: f407 793c e3ee e43c 1d4f 39bc b03d 4ebd
00000080: a64c 46bd 9609 89bb 77e0 8fbb e2be fe3c
00000090: 0dd6 45bd 6480 3cbd 41d7 c9bc 3c01 3bbd
000000a0: 9d8b 013d 9137 4cbd 228e 0c3d 0723 fa3b
000000b0: 0ffc 39bb 6dc2 0abd 4881 e13c 43fb 83bc
000000c0: 1636 d8bc e669 0f3d 0ae1 22bc 20dd 533d
000000d0: 9786 e93c d46c 633d 92ea 65bd ff5b b63c
000000e0: 4d16 71bd 2acb 83bc e79f b23c 116d 323d
000000f0: b62a 90bc 757c 69bd 91d5 37ba 878f d3bb
-0.022802403 0.04080528 -0.055592436 -0.0172248 -0.022108052 -0.044343755 -0.040103506 0.024523245
0.03997449 -0.038071796 -0.017727118 0.036749978 -0.03384955 0.04371302 -0.03177596 -0.0019493198
-0.040212303 -0.043968044 0.032639023 0.053255763 0.014834499 0.040349428 -0.048821855 -0.049729772
-0.021606648 -0.027232993 -0.014427296 0.04020283 0.01519965 0.027945941 -0.011310366 -0.0503518
-0.04841294 -0.004182051 -0.004390772 0.03109688 -0.048299838 -0.04602088 -0.024638774 -0.045655474
0.031627286 -0.04985768 0.034315236 0.00763357 -0.0028378998 -0.033876825 0.027527466 -0.016111022
-0.026392978 0.035013102 -0.009941349 0.051724553 0.02850656 0.05552371 -0.056131907 0.022260664
-0.05885916 -0.016088087 0.021804763 0.043561045 -0.017598491 -0.057003457 -0.000701272 -0.006456319

planner.encoder.model.4.weight f4 [64]
00000000: e6fe 7d3f 74ab 7e3f 674a 843f 6f6a 7c3f
00000010: fbbf 7e3f 26fe 803f 65d5 873f c91f 7a3f
00000020: 493b 823f 2fbe 813f c16a 7b3f 02c7 813f
00000030: dd58 843f a870 7f3f bd4d 813f f88f 7c3f
00000040: fb53 783f 9df3 7c3f b6b9 833f adbf 843f
00000050: afb3 823f 0572 773f baa2 7e3f 86c4 7c3f
00000060: 02da 733f 6e35 7d3f 7b5b 753f 3522 793f
00000070: 3701 8a3f 4b7e 7c3f 180f 803f d1da 833f
00000080: a375 7c3f be7e 813f a2be 7f3f 7a54 763f
00000090: 8392 823f c238 833f afe3 7f3f 93a7 7d3f
000000a0: 887a 843f ec3f 823f 0664 813f 627a 7b3f
000000b0: 642c 783f 7bff 833f d2b4 793f e1ff 783f
000000c0: b8cd 803f fe67 793f 6718 823f 25c2 763f
000000d0: 9f91 7c3f 978d 7c3f 0277 7a3f d1b2 813f
000000e0: 5816 793f 2047 803f 0f51 7b3f 23fe 7d3f
000000f0: ad7f 753f 658f 803f 77e0 813f ff25 813f
0.9921707 0.99480367 1.0335206 0.98599905 0.9951169 1.007756 1.0611998 0.9770475
1.0174342 1.0136164 0.9820977 1.0138857 1.0339619 0.99781275 1.0101849 0.9865718
0.97003144 0.98809224 1.029105 1.0370995 1.0211085 0.96658355 0.9946705 0.9873737
0.9525453 0.9890965 0.95842713 0.9731782 1.0781621 0.9863021 1.0004606 1.0301152
0.98617 1.0116804 0.9990026 0.9622265 1.0200962 1.0251696 0.9995679 0.9908382
1.0349894 1.0175757 1.010865 0.98233616 0.96942735 1.0312341 0.97541535 0.9726544
1.006278 0.97424304 1.0163697 0.9638999 0.986597 0.9865355 0.9783784 1.0132695
0.9729972 1.0021706 0.9817056 0.99215907 0.9589794 1.004376 1.0146626 1.008972

planner.encoder.model.4.bias f4 [64]
00000000: 9402 4dbb 51f9 a5bc 3bfd 65bd 1009 0cbd
00000010: 12f6 b3bd 159b 7bbc 06dd 0a3d 60e4 12bd
00000020: 0043 8ebd 3d15 32bd d643 c2bc 1532 a5bc
00000030: ff7d bd3b 937f 39bd f2c8 363b 4aca 03bd
00000040: 13f3 0cbd dd8a 3bbc 949c 3cbd 3082 f0bc
00000050: 4851 db3b 5118 82bd 81f5 01bd c15f d1bc
00000060: cbb1 6cbc 2704 983c 942b 19bd 0b81 95bd
00000070: 2e0f 35bb d3fe 66bc 1da1 1e3d 1603 f13b
00000080: c0c0 40bd 9fda f9bc 5025 bdbc 4c9f 59bd
00000090: 90d5 5bbd 8aa0 a4bc a26e 59bd 4be6 90bb
000000a0: 5919 07bc 7fa0 c8bb 4e06 38bd 85c8 9dbd
000000b0: 9545 0ebd 0305 a1bb 178e 10bd f516 53bc
000000c0: 7d2f 20bd c13d 37bd a598 0abc 6248 26bd
000000d0: 31d3 11bd 53e9 c8bc b998 d4bc 6992 61bd
000000e0: 6dbc aabc ee12 25bd 70bb 91bd b79b babc
000000f0: 7980 81bc da9b 96bb 7bce 86bc e99a a23c
-0.0031282054 -0.020260485 -0.056149703 -0.03418833 -0.087871686 -0.015356799 0.03390219 -0.035862327
-0.06946373 -0.043477286 -0.023713987 -0.020165483 0.005782842 -0.04528768 0.0027890769 -0.03217534
-0.0344115 -0.011446682 -0.046047762 -0.029358953 0.006693039 -0.06352294 -0.03172827 -0.025558354
-0.014446686 0.018556667 -0.037395075 -0.073000036 -0.0027627456 -0.014098841 0.03872787 0.007355104
-0.04705882 -0.030499754 -0.023089081 -0.053130433 -0.053670466 -0.020096082 -0.053084023 -0.0044219843
-0.008245789 -0.0061226483 -0.044927888 -0.07704262 -0.034734327 -0.0049139275 -0.035291757 -0.012883891
-0.03910779 -0.044736627 -0.008459245 -0.040596373 -0.0356018 -0.02452532 -0.02595173 -0.05507127
-0.020841802 -0.040301256 -0.07115829 -0.022779329 -0.01580833 -0.0045962157 -0.01645588 0.019849258

planner.encoder.model.4.running_mean f4 [64]
00000000: a3e0 be3b 9694 b5be 6813 88be a8c2 26be
00000010: c26a f6be 6e11 83bf d325 82be f108 8e3d
00000020: d2e6 b7bf 036a 383f 4667 0ebf 2043 5c3f
00000030: 5055 2cbf c815 55be ac3c 9f3f 3882 f6be
00000040: 17c4 c0be a1aa 8bbf d3f0 2a3f 642a 693f
00000050: 32ab 0bbf 2ba4 f0be 1ef0 ba3e 18f3 2e3f
00000060: fdbe ca3f 5cf6 043f d958 e93d 9107 e3be
00000070: feae 1abf e13d 0a3f bcbd 3bbe 4998 633d
00000080: f28f 9f3e a168 efbe 42c9 ff3c e6d8 cf3e
00000090: 1531 a0bf 1cff e6bd 8ed0 963f f80a a23e
000000a0: 09cb 62bf 9a5b 8a3f edab 7b3f 4caa ff3e
000000b0: 33a9 1cbe 2dbd 37bf 5432 2d3f 8ede 413e
000000c0: 9b97 d23e 0984 7bbe 36fe 833f b23b 44be
000000d0: 9534 11bf 846f d2bd 4f07 fabe f710 a73f
000000e0: a11a a73f 24e2 0bbf 9d29 453f 8f64 e1be
000000f0: c9b8 70bf c865 71bf a789 b6be 6fdf 9bbf
0.0058251186 -0.35464925 -0.26577306 -0.16285193 -0.48128325 -1.0239694 -0.25419483 0.06935299
-1.4367316 0.7203676 -0.5562633 0.86039925 -0.67317677 -0.2080909 1.244039 -0.48146224
-0.37649605 -1.0911447 0.6677372 0.9108031 -0.545581 -0.4700025 0.3651132 0.6833968
1.5839535 0.51938415 0.113938995 -0.4434171 -0.60423267 0.5400067 -0.18334097 0.055565152
0.3116451 -0.46759513 0.031223897 0.40595168 -1.2514979 -0.11279127 1.1782396 0.31648993
-0.8859106 1.0809205 0.9830921 0.49934614 -0.1529892 -0.71773034 0.6765492 0.18932554
0.4113129 -0.24562086 1.0311954 -0.19163397 -0.5672086 -0.10275176 -0.488337 1.3052052
1.3055001 -0.5464194 0.7701662 -0.44022033 -0.9403196 -0.9429593 -0.35651895 -1.2177562

planner.encoder.model.4.running_var f4 [64]
00000000: c001 1e40 a9ee 043f 0886 b73e 8913 fc3e
00000010: 5ed7 293f 73dc 5d3f ebb3 c03e 9aa4 2f3f
00000020: 17af 5b3f 1be4 683f c6c9 8c3f b5d7 143f
00000030: e562 1b3f d4d1 aa3e f961 733f 54f7 743e
00000040: c5f0 1f3f 5022 7e3f 9d1e 9a3e 5291 3b3f
00000050: 8dc6 173f ff8e 303f 1dac b73e d595 8e3f
00000060: 6b8b 803f 5f88 213f 2799 b23e 7521 9e3e
00000070: 4986 df3e 2376 c93e f64d 113f a84e 8c3e
00000080: a8d2 473f 65c2 4a3f d34f 933e 4656 c03e
00000090: 194a 333f 4702 bf3e 9ac2 6e3f ca07 5b3f
000000a0: 2555 f73e d096 413f 0846 0b3f 6f83 843e
000000b0: 9297 563f fcf7 e33e 9702 773f 8275 d13f
000000c0: b02c 3d3f ef3d 283f 1a07 423f 8804 423f
000000d0: 8391 8e3f 3309 363f 227a 3e3f d452 8d3f
000000e0: 1730 823f 7437 003f 336f a93f e284 e83e
000000f0: bcb3 993f 2370 0d3f d30c 823e d0f4 4d3f
2.4688568 0.51926666 0.35844445 0.49233654 0.6634425 0.86664504 0.37637267 0.6861054
0.8581404 0.9097306 1.0999076 0.5814164 0.60697776 0.3336321 0.9507137 0.23922473
0.6247676 0.99271107 0.3010148 0.73268616 0.5928734 0.68968195 0.358735 1.1139475
1.0042547 0.6309871 0.3488247 0.308849 0.4365714 0.39347944 0.56759584 0.2740376
0.7805581 0.7920287 0.2877184 0.3756582 0.7003494 0.37306425 0.9326569 0.8555876
0.48307148 0.75620747 0.54403734 0.25881526 0.8382503 0.44525135 0.96488327 1.6363986
0.7389631 0.65719503 0.75792086 0.75788164 1.1138157 0.71107787 0.7440511 1.1040902
1.0170926 0.50084615 1.323706 0.45413882 1.2007976 0.5524923 0.2540041 0.8045168

planner.encoder.model.6.weight f4 [128, 64, 3, 3]
00000000: 5e98 efbc 82af d7bc cf23 cfbc 6793 48bd
00000010: dcef 59bc da7a 3e3c bde2 263c d14b ecbc
00000020: a0e2 27bb dc8b e5bc 9038 b53c ce33 2d3b
00000030: d5b7 3abd 5d92 7e3b 5edf 06bd c6f6 9a3c
00000040: b41f 31bd 56f2 0b3d b012 043c 6b85 5dbb
00000050: 9f8c 9c3c 4ad4 9a3c 8e60 34bd d044 313d
00000060: 7983 cfbc 7e12 eebc 82c0 f4bc ff41 8d3c
00000070: ebb5 48bc 230c 50bd f2f5 633c f091 51bd
00000080: 95aa 42bd 8388 8ebd 68f9 26bd 01d6 f7bc
00000090: 5378 873c 61c0 733c 061a 8b3d 65b6 c8bb
000000a0: 9640 903b 566f 02bd 0c66 36bd 5f93 383c
000000b0: 0248 c33c 9d2a 8f3c f151 66bd f5f7 34bd
000000c0: ab81 bebb 5dc7 1b3c 50fd 233d b86d 5f3d
000000d0: 63fc 033c ae41 533d f77d 6e3c a9d2 4f3d
000000e0: 819e 8f3c 2716 1bbc a3cc cdbc 44ec 6f3c
000000f0: 29cf 9abd bcc1 70bc 5173 64bd 2241 d6bb
00000100: 0227 253c e3eb 1bbc 09fa abbc 1239 f23b
00000110: 405a 3abd e0ad c1bc ec89 5abc 98e4 df3b
00000120: 51ba bbbb af92 fbbc 09cf 593c e47f 12bd
00000130: f458 0e3c 4495 ebbc 06ba 6b3c 67a8 2f3d
00000140: 3e8e 98ba d1e5 77bd aa4c 6fbd 03f9 b3bd
00000150: 0d01 3dbb 1b05 35bd fbda a0bd 1edd d438
00000160: af08 2bbd 2ffa 283c 6442 b13b 9a32 de3b
00000170: 9da8 9fbc 1786 a23c f0ba f33c 2f73 99bc
00000180: d24f c3bb 172d 973c 63c4 2f3c 9f0e 5cbc
00000190: 2ed0 6d3c 619e 2fbd a483 813c d537 e0bc
000001a0: 9443 cbbb 5404 e7bc 15c7 063d ef77 b8bc
000001b0: 6c91 c0bc 3f62 c43c e01f 07bc 3c71 483d
000001c0: 69d5 913b 100e 8f3d 6105 a23d 7066 06bb
000001d0: a7f6 1e3d 80cb b43c 0d96 c23c 59fb 5a3a
000001e0: 4adb 26bd 9b39 29bc fd14 bd3c 5d99 dbbc
000001f0: 1571 953c 6863 15bc 4af5 45bd 4609 13bd
00000200: b3da 90bc e16c 363d 9d6e c23b 1a0f 16bc
00000210: 262c b93c 8ad6 453d d6e4 7b3d 71d7 10bc
00000220: 9bb2 de3c ed8c d4bc c8bb fb3c 7e66 f0bc
00000230: 1f65 e83c 7270 0c3c 473e cc3a b828 273c
00000240: 0814 323c 4d25 85bd d238 15bd 9646 e43c
00000250: 717e f2bc 755a b33b 6987 e5bc c5fe 873a
00000260: 2a17 9c3b 85a0 133d b363 db3c 2265 2ebd
00000270: 97e3 d13c 5c83 853d 08a9 81bc 2e8b 213d
00000280: 577a efbc fc74 313d 7f11 86bb a5de 693d
00000290: a39c 79bc e451 92bc f07e 0cbb c269 dd3b
000002a0: 1846 efbc b119 b3bc 5f1a 3dbc 5fb2 7e3b
000002b0: 9e72 41bc 881f fb3c 9b32 86bc 46a8 ee3c
000002c0: 6565 8f3d a1a2 61bd b43d 37bb 27b7 d83c
000002d0: 5188 1e3d 7723 453d 5c13 c4bc 4134 bf3c
000002e0: 5f5f 843b a24a 08bd 7624 3dbd 7c25 2fbb
000002f0: 5065 113c 9f32 ad3c 556d 9ebb 7b10 e23c
00000300: fad3 a03c 6f45 71bc 7082 a43b 1647 51bd
00000310: 0088 633b 875b 51bd 1b0e 2b3d a55e 54bd
00000320: 3af8 a73c 9ffc 123b 0265 1abb 788e f73c
00000330: ec05 97bd 4df5 81bd 38c1 78bd f859 2dbc
00000340: 14cc 4cbc bcd3 723c 0c7c efbc 680c 6bbc
00000350: aeca 3abd 0de6 f2bb 46d6 6dbc a6c7 8bbb
00000360: 4cb9 31bd 1ad8 debc 851a bdbc ff4c 913b
00000370: 1b59 c2bb 47fa 9b3c b588 66bd 76f4 c33c
00000380: a16e 81bb 3019 7e3c 22ba f73c eb95 6a3c
00000390: 16e3 063d 7df7 aebb b203 cdbc 664c a43b
000003a0: 7a67 e7bc e0e3 c63b 5c07 8cbd 98e1 753c
000003b0: de99 8ebc d366 afbd fcd6 0fbd a526 5ebc
000003c0: d7d0 b8bd 5e92 99bd 7376 8fbd 4af3 5bbc
000003d0: 23b6 58bb d3c7 413c c64d 9d3d 35b8 6cb9
000003e0: c6f9 b73c 3233 0ebc 3576 833d 8df1 9b3c
000003f0: 7c1b 603c c2e4 1dbd 9634 43bc 510d edbc
-0.029247459 -0.026328806 -0.02528563 -0.0489687 -0.013301816 0.01162597 0.010185895 -0.028844746
-0.0025617257 -0.028020792 0.022121698 0.0026428583 -0.045585472 0.0038844564 -0.032927863 0.018916499
-0.043243125 0.034166656 0.008061096 -0.0033801447 0.019110022 0.018900055 -0.044037394 0.043278515
-0.025331246 -0.029061552 -0.029876951 0.017243383 -0.012250404 -0.050792824 0.013913618 -0.051164567
-0.04752596 -0.06959631 -0.040765196 -0.030253412 0.016536867 0.01487741 0.06792073 -0.0061252587
0.0044022305 -0.03184446 -0.044530913 0.011265605 0.023838047 0.017476374 -0.05623049 -0.044181783
-0.0058137975 0.009507981 0.0400365 0.054547995 0.008055779 0.05157631 0.0145564 0.05073801
0.017531635 -0.009465731 -0.025121992 0.014643732 -0.07559044 -0.014694627 -0.055774037 -0.006538526
0.010080101 -0.009516689 -0.02099325 0.007392057 -0.045496225 -0.02364248 -0.013338547 0.0068326704
-0.0057289978 -0.030709593 0.01329399 -0.035766497 0.0086882 -0.028757699 0.014387613 0.04288521
-0.0011639071 -0.060521904 -0.058422722 -0.087877296 -0.0028839738 -0.044194322 -0.07854267 0.00010150134
-0.04175633 0.010313555 0.0054095257 0.0067809345 -0.01948958 0.01983933 0.029752225 -0.018731682
-0.005960443 0.018454118 0.010727975 -0.01343122 0.014514966 -0.04287565 0.015809841 -0.027370373
-0.0062031243 -0.028200306 0.032904703 -0.022518126 -0.023506843 0.023972629 -0.008247346 0.048936114
0.0044504893 0.06985104 0.07911182 -0.0020507835 0.038809445 0.022069693 0.02375319 0.0008353494
-0.040736474 -0.010328676 0.023081297 -0.026806528 0.018242398 -0.009117939 -0.04832963 -0.035897516
-0.017682409 0.04453743 0.0059335963 -0.009158874 0.02260406 0.048300304 0.06149753 -0.008840428
0.027184775 -0.025946105 0.03072919 -0.029345747 0.02836853 0.008571731 0.0015582525 0.010202579
0.010869034 -0.06501255 -0.03643114 0.02786569 -0.029601308 0.00547343 -0.02801867 0.001037561
0.0047635036 0.036041755 0.026780939 -0.042576917 0.025621219 0.065191954 -0.01582767 0.039439373
-0.02923314 0.043324456 -0.004091441 0.057097096 -0.015235099 -0.017861314 -0.0021437965 0.006756992
-0.029208228 -0.021862837 -0.011541932 0.0038863642 -0.011807112 0.030654684 -0.016381552 0.029132973
0.07001761 -0.055086736 -0.0027960362 0.026454521 0.03870422 0.048129525 -0.023935013 0.023340346
0.0040396894 -0.0332743 -0.04617735 -0.0026725223 0.008874252 0.021142302 -0.0048348107 0.02759575
0.019632328 -0.014726027 0.005020432 -0.051093183 0.0034718513 -0.051112678 0.0417615 -0.051848073
0.020504106 0.0022428406 -0.002355874 0.030219302 -0.073741764 -0.063456155 -0.060731143 -0.010580532
-0.012499828 0.014820989 -0.029233955 -0.01434622 -0.045603447 -0.007412678 -0.014516419 -0.0042657433
-0.043389603 -0.027202655 -0.023083935 0.0044342275 -0.0059310324 0.01904024 -0.056282718 0.023920279
-0.0039499556 0.015508935 0.030240122 0.01431797 0.03293141 -0.0053395615 -0.025026176 0.00501399
-0.028247584 0.0060696453 -0.06837341 0.015007399 -0.017407354 -0.08564534 -0.035117134 -0.013559018
-0.09024208 -0.074986205 -0.07005014 -0.013424704 -0.0033067546 0.011827427 0.0768085 -0.00022575336
0.022457968 -0.008679198 0.064190306 0.019036079 0.013678428 -0.03854824 -0.011914393 -0.028937014

planner.encoder.model.6.bias f4 [128]
00000000: 6cab 023d 892f 7abc 7160 a43c c639 a43b
00000010: 9a2f 943c 20f7 adbc e673 ecbc ef77 fa3c
00000020: e4e7 1bbd 87ff 103d bbd0 803c 0d96 1fbd
00000030: 2d43 57bc 826a 20bc 5bf5 cbbc f103 923b
00000040: 6559 283c a311 e1bb 3baa a13c 253d 16bd
00000050: 92a8 113c 2eb2 e53b 0d72 d0bc 287c 0bbd
00000060: b324 63bc b468 94bc db49 12bc 2312 c4bc
00000070: 79b4 b9bc 79c8 a4bc dcdb d1bc 0eac 98bc
00000080: f419 ae3c 397b edbc 6a35 dfbb 88bd 8fbc
00000090: 6987 543c 3861 cdba a4e2 1b3d 6a90 9cbc
000000a0: b57f b0bc 1e3a d1ba 29f9 47bc ceb0 f93c
000000b0: fb87 833c 5b8d 00bd 33fa 0b3d 55d6 15bd
000000c0: 9d26 c33b 374e e6bc a00f ac37 7962 223d
000000d0: 2dea 23bd 40c1 0dbd 40b3 ce39 12f3 673c
000000e0: 268f 09bd 9e5d 083c 9e34 e0bc d002 b93c
000000f0: 4fb6 99bc 2df2 d5bc 9e0c 11bd 3c96 003d
00000100: c9f5 b53c f21f 8abc 294e f8bb c36e aebb
00000110: 12ef 063d d8fb d538 64c1 f83c 4538 103d
00000120: d24b 1c3d 1650 c6bc 8262 d037 339d 10bd
00000130: 099f 283d 8e90 00bd dc07 dbbc b7c6 94bc
00000140: 0b57 143d 4dcf 69ba 8a50 b43c ae2f 163d
00000150: 762f 84bc ac4a 44b9 d0ae a7bc dfc1 16bc
00000160: 6c44 943c 3c8f c43c d55f 72bb b4b6 1b3a
00000170: 36db e43c 9569 673c 0cbc ad3c b5c5 203d
00000180: 4245 513a 4650 5abc 1594 07bc 15ea 193d
00000190: 7017 e1bc 00b1 8cbc 8e22 e23c 31a1 2abd
000001a0: aeaf 0fbd 9879 1dbd 6c96 b83c 005b 393c
000001b0: 3d51 adbc 477e 04bd aba0 ed3c 2220 15bd
000001c0: 557e e13c d4e9 cb3b f8e3 e93a dffe 8a3c
000001d0: ee00 19bd 8198 273d b09d f43c aa3f de3c
000001e0: 4886 81bc cd3c 2ebc 4e8e 11bc a93f b13c
000001f0: c5ce d53c f0bb 0ebd 4c20 01bd 8e9a a8bc
0.031901762 -0.015270122 0.020065518 0.00501177 0.018089104 -0.021236002 -0.028863858 0.030574767
-0.038062945 0.03539994 0.01572453 -0.03896146 -0.013138575 -0.009791018 -0.024897268 0.0044560363
0.01027522 -0.0068685575 0.019734493 -0.036679406 0.008890288 0.007009766 -0.025445009 -0.03405395
-0.01386373 -0.018116333 -0.008928741 -0.02393443 -0.022669064 -0.020115124 -0.025617532 -0.01863673
0.02125261 -0.028989421 -0.0068117874 -0.01754643 0.012971737 -0.0015669232 0.03805794 -0.01911183
-0.02154527 -0.0015962755 -0.0122054005 0.030479815 0.016056051 -0.031384807 0.034174155 -0.036581356
0.005955531 -0.028113468 2.0511274e-05 0.039644692 -0.04001825 -0.034608126 0.00039424933 0.014157074
-0.033583783 0.008323101 -0.02736884 0.022584349 -0.01876369 -0.026116455 -0.035412423 0.031393275
0.022211926 -0.016860936 -0.007577677 -0.0053232624 0.03294284 0.00010203541 0.030365653 0.035209913
0.038158245 -0.02420811 2.4841404e-05 -0.035306167 0.041167293 -0.031387858 -0.026737146 -0.01816116
0.036215823 -0.0008919135 0.02201106 0.036666565 -0.016135912 -0.00018719834 -0.0204691 -0.009201496
0.018099032 0.02399408 -0.003698339 0.00059400056 0.02793656 0.014124294 0.021207832 0.039251048
0.00079830375 -0.013324803 -0.008275052 0.037576754 -0.027476996 -0.017174244 0.027604368 -0.04165763
-0.03507965 -0.03844604 0.022532664 0.0113132 -0.021156901 -0.03234699 0.029007277 -0.036407597
0.02752606 0.006222943 0.0017844429 0.016967235 -0.037354402 0.040916923 0.029860348 0.027129967
-0.0158111 -0.010634613 -0.008884026 0.0216368 0.026099572 -0.0348472 -0.03152494 -0.02058151

planner.encoder.model.7.weight f4 [128]
00000000: 8e41 7e3f 85f9 823f 91e7 873f bd24 733f
00000010: 41b2 813f 185b 7a3f a4be 763f d4d9 723f
00000020: 2d30 7a3f e31f 753f a845 813f 9785 733f
00000030: 5531 7d3f 5b83 803f 4aca 7f3f 8b6c 873f
00000040: e278 723f 0a34 8a3f c118 783f a61d 813f
00000050: 3168 833f 5638 803f e605 833f 696d 7a3f
00000060: 010c 773f 15ae 7c3f 53fb 7e3f 7831 753f
00000070: b208 7a3f d767 823f 565a 813f 650d 6f3f
00000080: 4eb2 7d3f 3c1f 7a3f f968 723f ddcd 843f
00000090: 364f 813f a50d 823f 50e5 7b3f 2e9b 7b3f
000000a0: 7326 7d3f ed73 813f 3244 7f3f 259c 7f3f
000000b0: 40a1 7f3f 5d78 6b3f b038 793f b37f 853f
000000c0: 6a8c 813f 1104 823f 5030 7b3f 0a6b 823f
000000d0: 944e 833f b791 803f e74a 783f a1b7 823f
000000e0: f77e 873f 3689 823f 15b0 8f3f 322e 7e3f
000000f0: c6b3 7f3f e763 7c3f f63f 803f df4c 823f
00000100: 2659 813f d840 733f f8f5 7c3f db3a 813f
00000110: a83a 853f eefc 8e3f 5a22 813f 4499 7c3f
00000120: 2c8e 793f 068b 773f a5cd 833f a26d 7f3f
00000130: ff1f 803f 7631 7a3f 5235 7a3f 0f09 853f
00000140: 614a 853f 7c3b 763f 9b0a 863f 97fe 7b3f
00000150: 6dcb 723f 4441 7f3f 665a 7a3f 465e 7e3f
00000160: 9f34 823f e079 843f 0ceb 813f ddf7 813f
00000170: 62df 7a3f 3745 853f b0bb 7d3f f298 833f
00000180: 25d1 843f 5d8c 7a3f 1a3e 7f3f c04a 7d3f
00000190: 0337 863f 2f37 673f 7d9e 783f c5f9 813f
000001a0: 13ce 7e3f 8385 843f 0502 813f 5b26 823f
000001b0: c4c3 753f 0f53 843f bf2f 843f 48eb 7c3f
000001c0: 12b6 783f 1144 7b3f 8b15 723f c4d9 7d3f
000001d0: a00d 7b3f 7159 7e3f b2ac 743f 6066 843f
000001e0: b361 7d3f 3555 723f 0d5a 7d3f a60a 833f
000001f0: 5e74 7c3f 1119 833f d5f5 833f 899a 803f
0.9931878 1.0232397 1.0617543 0.94977933 1.0132524 0.9779525 0.96384645 0.9486363
0.9772976 0.9575178 1.0099382 0.95125717 0.989034 1.0040087 0.99918044 1.058
0.947157 1.0797131 0.9691277 1.0087173 1.0266172 1.0017192 1.0236175 0.97823197
0.9650269 0.9870313 0.9960224 0.9577861 0.9766952 1.018794 1.0105693 0.93379813
0.99100196 0.9770391 0.94691426 1.0375324 1.0102298 1.0160414 0.9839678 0.9828366
0.98886794 1.0113503 0.9971343 0.9984763 0.9985542 0.91980535 0.97352123 1.0429596
1.0120976 1.0157491 0.98120594 1.0188916 1.0258355 1.0044469 0.9698929 1.0212289
1.0585622 1.0198123 1.1225611 0.9928924 0.9988369 0.9858994 1.0019519 1.0179709
1.0105331 0.9502082 0.9881282 1.0096086 1.0408525 1.1170938 1.0088608 0.98671365
0.9748256 0.9669651 1.0297133 0.9977666 1.0009764 0.9773172 0.9773761 1.039339
1.0413324 0.96184516 1.0471987 0.9843535 0.94841653 0.9970896 0.9779419 0.993626
1.0172309 1.0349693 1.0149856 1.0153767 0.97997105 1.0411748 0.99114513 1.028105
1.0376326 0.9787043 0.99704134 0.98942184 1.0485538 0.9031858 0.97116834 1.0154349
0.99533194 1.0353245 1.0078741 1.0167955 0.9600184 1.0337847 1.0327071 0.9879651
0.9715282 0.98150736 0.9456412 0.9916041 0.98067665 0.99355227 0.9557601 1.0343742
0.989772 0.94661266 0.9896553 1.0237625 0.9861506 1.0242025 1.0309397 1.004716

planner.encoder.model.7.bias f4 [128]
00000000: 11a3 edbc 195c 57bc bf34 06bd 8d1a 1fbd
00000010: bbf1 59bc 88d2 30bd d739 79bd ecd7 39bd
00000020: 3055 7ebc 30d1 13bd 808a 6fbc 120c ccbc
00000030: c174 8ebc b90d 2439 9a4c 88bb e006 8f3c
00000040: 5973 4bbd 94d6 ccbc cf4c 66bd 3470 f13b
00000050: dda1 edbc 97ab 89bc c192 983b 17be 77bd
00000060: 9c65 8fbc 8c10 c8bc ced0 febc b8de 09bd
00000070: edf7 84bc 0343 84bd 4d66 5e3c 9216 b1bd
00000080: e480 a6bc 3c7e 1dbd f5cd 39bd 3817 883c
00000090: 10ff 14bd 6414 c9bc 3f83 0abd 6231 b1bc
000000a0: c11e 4dbd a5a6 83bc af0c cabc d61d 07bd
000000b0: 7e2d 08bc 3858 75bd eefe 8bbd faa2 b4bd
000000c0: f3df 2fba 47f5 1cbd e192 59bd af46 22bb
000000d0: 7531 d6bc c535 38bd 8691 01bd 1d03 63bc
000000e0: 2936 d539 228b 57bc e0db 393c 2f4c 0cbd
000000f0: 7528 bcbc 20d4 b7bc c6d6 48bb 6b7e a1bc
00000100: cf42 6dbc 6d73 17bd e8ad 1d3d 6fc4 213d
00000110: 5a82 7cbd 2cf2 d53c 76b2 8fbc 7928 8b3b
00000120: dc84 7cbd da4b 31bd 740e e4bb aca3 4ebc
00000130: d205 c03a 0ee3 0dbd daa1 d1bc 122a a13c
00000140: 818f fe3b 52d8 edbb 80a2 9e3a da03 77bd
00000150: e2db 5fbd ac6e ddbc 7798 81bd eb16 47bd
00000160: c63b 8abb 3ccd 45bd 0f0e d3bc 11cb cebc
00000170: 8b0e 21bd 7a17 823c 49bc b73a 5baa 7ebd
00000180: cf0c dbbc 5e45 3fbd 14d0 33bd 2af9 5bbc
00000190: 630b 7dbc c62f 65bd db83 65bc 40b1 9bbc
000001a0: a368 29bd 945e f2bc f7d8 23bd 03b7 91bc
000001b0: 30e7 36bd 62e7 003c b17e 49bc c46e d7bc
000001c0: 97a4 74bd 5f2b 28bd 0c5b 96bd 02a6 6c3c
000001d0: aefa c8bc da38 a1bc 291f 56bd 2f8f 5fbc
000001e0: 5974 f2bb 4129 babc ac04 f8bc d8b7 1cbd
000001f0: f2b4 75bd d2fd c0bc a9ae 79bc 91ab 08bd
-0.02900842 -0.013144516 -0.032765146 -0.03884368 -0.013302262 -0.04316953 -0.060846176 -0.045371935
-0.01552324 -0.03608817 -0.014620423 -0.0249081 -0.017389657 0.00015645371 -0.0041595222 0.017459333
-0.04967055 -0.025004663 -0.056225594 0.007368112 -0.029007846 -0.016805453 0.0046561663 -0.06048402
-0.017504506 -0.024421953 -0.031105425 -0.033659667 -0.016231501 -0.06458094 0.013574195 -0.08646883
-0.020325132 -0.038450465 -0.04536243 0.016612634 -0.03637606 -0.024545856 -0.033816572 -0.021629993
-0.050078157 -0.016070673 -0.024664251 -0.03298744 -0.008311627 -0.059898585 -0.06835733 -0.08820148
-0.0006709091 -0.038319852 -0.05311859 -0.002476137 -0.02614663 -0.044973154 -0.031632923 -0.013855723
0.00040666878 -0.01315573 0.011343926 -0.03425234 -0.02296851 -0.022440016 -0.0030645593 -0.019713601
-0.01448126 -0.036975313 0.038495928 0.039493974 -0.06164775 0.026116453 -0.017541151 0.004246768
-0.061650142 -0.04328523 -0.0069597308 -0.012612265 0.0014650172 -0.034640364 -0.025589872 0.019673381
0.007768572 -0.0072584534 0.0012102872 -0.060306408 -0.054653056 -0.027030312 -0.063279085 -0.04860584
-0.0042185513 -0.04829143 -0.02576354 -0.025243314 -0.03932051 0.015880335 0.0014017905 -0.062174182
-0.026739506 -0.046697013 -0.04389961 -0.013426105 -0.015444609 -0.055953763 -0.014008488 -0.019005418
-0.041359555 -0.029586114 -0.040001836 -0.017787462 -0.04465407 0.007867666 -0.012298272 -0.026297934
-0.059727278 -0.041056987 -0.073415846 0.014443876 -0.024533596 -0.01968043 -0.05227581 -0.0136449775
-0.0073991236 -0.02272475 -0.030275665 -0.038261265 -0.059987016 -0.023558531 -0.015239396 -0.033366743

planner.encoder.model.7.running_mean f4 [128]
00000000: f12f 4abf 914d b7bf e6c3 a8bf 420f 903f
00000010: 8919 80bf 9c7a 3abe 9d60 dcbe f5b4 ad3d
00000020: 736d 48bf bfff ae3f 31bb dcbe 07ad 8c3f
00000030: 5abf fbbf e179 913c 4f61 52bf b5f0 603f
00000040: bfeb bc3f 0215 56c0 0dbe 15be 6efa 833f
00000050: d878 dabe 2d66 083e 88ed 04c0 74d3 4f3f
00000060: 55c7 36bf 97d4 9f3f bb8b e0be 7508 573e
00000070: 32e8 a13e 02bd 3ebe c657 bcbf d5ff 2cbf
00000080: f257 843e bebc 9f3e 0db6 04c0 15e9 9ebe
00000090: df97 c3bf 08f4 10c0 9645 693f 8f86 d63f
000000a0: af3e 783f 3ed6 d7bf 9e5e 0ebf be0b bebf
000000b0: 1a3e 78be 5702 213f 7b2c 81be ff62 db3d
000000c0: 48f4 d93d 57c2 0ebf 21f7 36bf 7ce0 e1be
000000d0: 290b 4e3f 5e27 97be 8f0d 8b3f d914 0c3e
000000e0: 0fa5 4ec0 c1f5 4c3e 0187 863e a3d6 98bf
000000f0: 4904 66bf 0b05 21c0 2a47 313f 76b8 0dc0
00000100: 83f3 5fbf 891a 8c3f defb 98bf 23d3 7fbf
00000110: fe04 793f 3ff1 61bf 79b1 d13e b805 7e3f
00000120: 249d 9eba 8696 2fbf 1283 a2bf 7f2b acbf
00000130: 4a7f c93f 3c6a 6a3f 96c1 03c0 4e51 cd3e
00000140: df8c f5be 07f0 0ec0 1b33 14bf 3146 423f
00000150: 2c54 2f3f f978 ab3e d55d 3dbf 10c0 e7bf
00000160: 19b6 62bf 28e6 13bf 702e 00bf 4bb5 0ac0
00000170: e359 0abf 0cee 8cbf ff9f 953f 6ef2 fdbf
00000180: 5b4e dbbd 9393 53bf 8990 36c0 bcf2 eabf
00000190: 1229 93bf 8409 2a3e 6e8d 143f fde8 a3bf
000001a0: 3bc5 f4bf 2016 b0bd 2536 8dbf 9345 0dc0
000001b0: 0852 d63c aff1 8ebf 3055 afbf 0b2f 77bf
000001c0: 8aa3 41bf d63c dc3e 4e35 8bbf 4e76 473f
000001d0: 796b 7a3f 6ec0 1cc0 4f2e 5e3f f0eb c5bf
000001e0: 031a e7bf f024 393f 72b6 a1be 414c 57bf
000001f0: d863 c4bf 0275 85bf 92d6 52c0 8748 33c0
-0.789794 -1.4320546 -1.3184783 1.1254656 -1.0007793 -0.18210834 -0.4304246 0.084817804
-0.78292006 1.3671798 -0.43111566 1.0990304 -1.9667771 0.017758312 -0.8217973 0.8786729
1.4759444 -3.3450322 -0.1462328 1.03108 -0.4267032 0.13320227 -2.0769978 0.81182027
-0.71397907 1.2486752 -0.43856606 0.2099932 0.31622463 -0.18626788 -1.4714286 -0.6757787
0.25848347 0.31198686 -2.0736115 -0.31037202 -1.5280722 -2.2648945 0.91121805 1.6759814
0.9697065 -1.6862257 -0.55613124 -1.4847333 -0.2424244 0.62894195 -0.25229248 0.107122414
0.10642296 -0.5576529 -0.7147084 -0.4411658 0.8048578 -0.29522222 1.0863513 0.13679828
-3.2288244 0.20015623 0.26274875 -1.1940502 -0.8985029 -2.5159328 0.6924921 -2.2143836
-0.87480944 1.0945598 -1.1951864 -0.99931544 0.9727324 -0.8825874 0.40955713 0.99227476
-0.0012101275 -0.68589056 -1.269625 -1.3450774 1.574197 0.9156835 -2.0586905 0.40101093
-0.4795904 -2.2334 -0.5789048 0.75888354 0.6848781 0.33490732 -0.739713 -1.8105488
-0.8855911 -0.57773066 -0.5007086 -2.1673152 -0.54043406 -1.1010146 1.1689452 -1.9839609
-0.107083045 -0.82647055 -2.8525717 -1.8355327 -1.1496909 0.16605192 0.58028305 -1.2805477
-1.912269 -0.0859797 -1.1032149 -2.2073715 0.026162162 -1.1167506 -1.3697872 -0.96556157
-0.75640166 0.43015164 -1.0875642 0.77914894 0.9782024 -2.449245 0.8678941 -1.5462627
-1.8054813 0.7232199 -0.31584507 -0.8410073 -1.534297 -1.0426333 -3.2943463 -2.8013017

planner.encoder.model.7.running_var f4 [128]
00000000: 51d9 7140 8a1c 0740 ab7b 623f 3212 9b3f
00000010: 93da f63f 26a9 c73f b840 ef3f 1e29 613f
00000020: 775c bd3f 933d f53f 815a 603f 9f9f bf3f
00000030: 92f2 9a3f 6a41 923f 138d 863f 37b4 b73f
00000040: 0ce5 3140 e891 d43f 501a ea3e 090e 6a40
00000050: 3ea5 e93f 80d7 da3f 71e4 d03f 5c1d 1c3f
00000060: 9d49 a43e 895d f43f d5b3 c43e fe86 ee3f
00000070: d5d9 953f a793 213f 6550 fc3f fa59 a93f
00000080: a8c2 333f 0721 f93f 5331 8e40 b903 913f
00000090: 57dd d73f 1479 e63f ef87 c33f ae07 f63f
000000a0: 4dc0 0940 a480 e23f d67a 2540 9dee bb3f
000000b0: 201f b93e 170f a93f 3ff0 d53f 79d0 633f
000000c0: 74d6 1f3f 5398 ff3f 3faf 3940 5436 3e3f
000000d0: 3bd6 aa3f ada5 3f40 78c7 ac3f d7bc 773f
000000e0: e25f b83f e10a 683f ca5c 223f e59c f23f
000000f0: 7592 ad3f b7ae 4440 a606 9740 de1e 0e40
00000100: b8a1 f23f bfac db3f 7aff f63f fd81 d540
00000110: 38eb 233f 9be7 1b3f d8e9 553f f56b 4b40
00000120: 44ac 643f 850c fe3f a582 9b3f f87b 813f
00000130: 0d1a 0640 2888 443f 33fb 0c40 1fc1 503f
00000140: f604 873f a793 d23f bf5d 4d3f 34e2 613f
00000150: 82c9 973f 5d5a 173f 569c c23f 2a6c 5b3f
00000160: fb4c fd3f c296 1c3f 4e80 2d40 3aa5 0840
00000170: de70 623f 8d3b 813f ea9b 2f40 8648 9c3f
00000180: b245 2640 d0e5 b33f fd08 c03f 3e8d 213f
00000190: 45f2 9b3f 2263 433f c756 723f 0cbc 6d3f
000001a0: 22d1 d33f 05cd dd3f 6169 9f3f e735 5840
000001b0: 2d8d 733f 67b6 1240 2c64 0240 66d0 bd3f
000001c0: 3cca ed3e c77a 533f 134f c33f f630 4d40
000001d0: 4c94 2c40 d583 ca3f 8ca2 7b3f 4548 743f
000001e0: 200a 3340 d665 433f 7ee1 eb3e 9f43 2c3f
000001f0: e50a e23f 8ff7 1140 c82b d53f 52ba b73f
3.778889 2.111117 0.8846995 1.2114928 1.9285454 1.5598495 1.8691626 0.87953365
1.4793843 1.9159416 0.876381 1.4970587 1.2105277 1.1426213 1.0511802 1.4351872
2.779605 1.6607027 0.457232 3.6571066 1.8253553 1.7097015 1.6319715 0.609823
0.32087412 1.9091045 0.3841845 1.8634946 1.1707102 0.63115925 1.9712034 1.3230584
0.70218897 1.9463204 4.443521 1.1329261 1.6864423 1.80057 1.5275859 1.9221094
2.152362 1.7695508 2.5856223 1.4682194 0.3615656 1.320773 1.6713942 0.8898998
0.62436604 1.9968361 2.9013212 0.7430165 1.3346628 2.994487 1.3498373 0.9677252
1.4404261 0.906416 0.63422835 1.895413 1.356032 3.0731637 4.7195616 2.220634
1.8955603 1.7162093 1.9296715 6.6721177 0.6403079 0.60900277 0.8355994 3.1784642
0.89325356 1.9847571 1.2149245 1.0115957 2.09534 0.7677026 2.202832 0.8154468
1.0548389 1.645131 0.8022117 0.88235784 1.185837 0.5912226 1.520396 0.8571192
1.9789118 0.6116754 2.710956 2.1350846 0.8845347 1.0096298 2.7438912 1.2209632
2.5980039 1.4054508 1.5002743 0.63106143 1.218331 0.7632314 0.9466366 0.9286506
1.6548197 1.7328192 1.2454034 3.37829 0.9513729 2.292383 2.037364 1.4829223
0.46443355 0.8260922 1.5258507 3.2061133 2.6965513 1.5821482 0.982949 0.95422775
2.797493 0.76327264 0.46070474 0.6729068 1.7659575 2.2807348 1.6653986 1.4353735
