model/lightning_logs/version_3/checkpoints/epoch=8-step=999.ckpt (torch, 394952 bytes, 21 tensors)

planner.astar.neighbor_filter f4 [1, 1, 3, 3]
0	0x3f800000	1.0
1	0x3f800000	1.0
2	0x3f800000	1.0
3	0x3f800000	1.0
4	0x00000000	0.0
5	0x3f800000	1.0
6	0x3f800000	1.0
7	0x3f800000	1.0
8	0x3f800000	1.0

planner.encoder.model.0.weight f4 [32, 4, 3, 3]
0	0xbe19dead	-0.1502635
1	0xbc949f42	-0.018142346
2	0xbd879c44	-0.06621602
3	0xbcdeac52	-0.027181778
4	0xbe36bd44	-0.17845637
5	0x3d0f3fed	0.034973074
6	0xbe160805	-0.14651497
7	0xbd73d7ac	-0.059531853
8	0x3c891c4e	0.01673713
9	0xbd00bb1b	-0.031428438
10	0x3df1488c	0.11781415
11	0x3d0ea498	0.034824938
12	0x3e070bf2	0.1318815
13	0x3dbe2ede	0.09286283
14	0xbdc781c7	-0.0974155
15	0x3dad563d	0.08463714
16	0xbdd3a532	-0.10334243
17	0x3cae5ecb	0.021285435
18	0xbe076861	-0.13223411
19	0x3d9eaa4b	0.077473246
20	0x3d41a342	0.047274835
21	0xbd731fc6	-0.059356473
22	0xbdc11a83	-0.09428885
23	0x3d0caac6	0.03434255
24	0x3e2534b1	0.16133381
25	0x3d6ca039	0.057769988
26	0xbd02e76a	-0.031958975
27	0xbd55d661	-0.0522064
28	0x3db85932	0.09001388
29	0x3c990f97	0.018684192
30	0x3ca76a46	0.020436417
31	0xbe14b91f	-0.14523743
32	0x3d9a4a2c	0.075336784
33	0xbcfa6596	-0.030566018
34	0xbcd9e15a	-0.026596714
35	0x3bd725b5	0.0065657743
36	0x3de14da5	0.11001138
37	0xbcfb05fb	-0.0306425
38	0x3e142b8e	0.1446974
39	0xbe23647a	-0.15956298
40	0xbd30ad67	-0.04313412
41	0xbe2c45d2	-0.1682351
42	0xbcc6354a	-0.024195332
43	0x3c6f06f4	0.01458906
44	0xbdaf029d	-0.0854542
45	0x3da57fdb	0.08081027
46	0xbc98154b	-0.01856484
47	0xbe0e7fc5	-0.13915928
48	0x3e04fedd	0.12987848
49	0x3dddcc04	0.108299285
50	0x3dcd6f98	0.100310504
51	0x3e07bbaf	0.1325519
52	0x3d40ecc6	0.047100805
53	0x3dbbaec5	0.09164194
54	0x3dddbeb7	0.108273916
55	0xbd844c68	-0.06459886
56	0xbe2a748e	-0.16646025
57	0xbdd219ff	-0.102588646
58	0xbd2fad54	-0.042889908
59	0xbd0dbb40	-0.034602404
60	0xbd1656cd	-0.036703873
61	0x3d287d49	0.041135106
62	0x3cb5217f	0.022110699
63	0xbe26ea25	-0.16300257
64	0xbd926547	-0.07148223
65	0xbd4cf982	-0.050042637
66	0x3d46ca4f	0.04853278
67	0xbdea4c47	-0.1144033
68	0xbe01b644	-0.12667185
69	0xbdcd1511	-0.10013784
70	0xbdf6de8c	-0.12054166
71	0xbd83593e	-0.06413506
72	0xbe18b95c	-0.14914459
73	0x3e3eb599	0.18623962
74	0x3da58bae	0.080832824
75	0xbca8db66	-0.02061243
76	0xbd063706	-0.03276732
77	0x3c9ec90e	0.01938298
78	0x3e0adb31	0.13560177
79	0xbd981f45	-0.07427839
80	0xbd876eb9	-0.066129155
81	0x3d6769c9	0.05649737
82	0xbda0e3d4	-0.07855955
83	0xbce28053	-0.02764908
84	0xbdd2b5ff	-0.10288619
85	0x3e58b22e	0.2116172
86	0x3dc3aca1	0.09554411
87	0xbe112fe8	-0.14178431
88	0xbd73fa80	-0.059565067
89	0x3d48a5cf	0.048986252
90	0xbd9855ea	-0.07438262
91	0x3d3a1578	0.04543063
92	0xbe34487f	-0.1760578
93	0xbde7d450	-0.11319792
94	0x3df24602	0.11829759
95	0xbe0a09f7	-0.13480364
96	0xbd5aa9a9	-0.053384457
97	0x3ddc1f3e	0.107481465
98	0x3d9ecd3d	0.0775399
99	0x3dbaa97f	0.0911436
100	0x3e20f571	0.15718628
101	0x3e6bfc00	0.23045349
102	0xbd52407f	-0.05133104
103	0xbdbc649d	-0.09198878
104	0x3e3e3ea0	0.18578577
105	0xbceb0dca	-0.028693099
106	0xbe0db096	-0.13836893
107	0xbe083dba	-0.13304797
108	0xbdf30bb8	-0.118674695
109	0xbe13b93c	-0.1442613
110	0x3b9df418	0.004820358
111	0xbbb1c346	-0.0054248897
112	0xbbecc069	-0.0072250855
113	0x3a9d792d	0.0012014263
114	0x3e314b6a	0.17313924
115	0x3e5901fb	0.21192162
116	0x3c353a0b	0.011061202
117	0xbd634817	-0.055488672
118	0x3db4db05	0.08830837
119	0xbc5f797d	-0.013639805
120	0xbe0d713a	-0.13812724
121	0x3d91a978	0.07112402
122	0x3e337c0f	0.17527793
123	0xbe1988c9	-0.14993586
124	0xbc814694	-0.015780725
125	0x3d3f8711	0.04675967
126	0xbe371c0b	-0.17881791
127	0xbe1770ba	-0.14789096
128	0x3df6f050	0.12057555
129	0xbdbc93d0	-0.092078805
130	0x3dc8b551	0.09800208
131	0x3ccc87a6	0.024967026
132	0xbc500b42	-0.012697997
133	0xbdfdf252	-0.123997346
134	0xbd104120	-0.035218358
135	0x3e5d3b7f	0.21604727
136	0x3e52f8a6	0.20602664
137	0x3e0e6a32	0.13907698
138	0x3c62d4ba	0.013844663
139	0x3e301604	0.17195898
140	0x3befdbec	0.007319918
141	0x3d4dad3d	0.05021404
142	0xbd2465cf	-0.040136155
143	0x3df7b484	0.120949775
144	0x3d8bf519	0.06833858
145	0xbe0e3d94	-0.13890678
146	0xbbc45cc8	-0.0059925057
147	0x3e09088c	0.13382167
148	0x3d55b338	0.05217287
149	0xbd3b5809	-0.045738254
150	0xbd09e8f2	-0.03366942
151	0x3e172324	0.14759499
152	0x3da18f38	0.07888645
153	0x3de979af	0.114001624
154	0xbdc2c2e6	-0.0950983
155	0x3da04e86	0.07827477
156	0x3ca238fa	0.01980256
157	0x3d15971b	0.03652106
158	0x3e3b06ba	0.18264285
159	0x3dfccfa0	0.12344289
160	0x3e207d9f	0.1567292
161	0x3dd8fc18	0.10594958
162	0x3d95cc1d	0.07314322
163	0xbcf3f750	-0.029781014
164	0xbe146b8a	-0.14494148
165	0xbe108825	-0.14114435
166	0xbdd2ef3b	-0.10299536
167	0xbdd2e54b	-0.102976404
168	0x3dd4794c	0.10374698
169	0x3d907c31	0.07054938
170	0xbd3273e0	-0.04356754
171	0xbe012c61	-0.12614585
172	0x3e26b032	0.1627815
173	0x3e147135	0.1449631
174	0xbdf99b80	-0.121878624
175	0x3c86b408	0.016443267
176	0xbe3d50c5	-0.18487842
177	0xbe8e8f59	-0.2784374
178	0xbe6857d5	-0.22689755
179	0xbd80169f	-0.06254315
180	0xbe27330a	-0.16328064
181	0x3dfeaad1	0.124349244
182	0x3bfb0b5f	0.0076612676
183	0x3d3d2376	0.046176396
184	0xbe0168ff	-0.12637709
185	0xbd1b6392	-0.037936755
186	0xbd50d199	-0.050981138
187	0xbe141eb1	-0.14464833
188	0x3dabb200	0.0838356
189	0xbdb30370	-0.0874089
190	0x3d2db5eb	0.04240982
191	0xbdefba01	-0.11705399
192	0xbd3ff86a	-0.046867765
193	0xbd984870	-0.07435691
194	0x3d4d7749	0.050162587
195	0x3d39f917	0.045403566
196	0xbd6b25a9	-0.057408962
197	0xbdbd4b0b	-0.09242829
198	0xbcbeccf3	-0.023291087
199	0x3e14b9db	0.14524023
200	0xbcd6fd3f	-0.026243804
201	0x3e0f2566	0.1397911
202	0xbd82769a	-0.06370278
203	0x3e197fb7	0.14990126
204	0x3e29a32f	0.16566156
205	0x3dc34c6c	0.09536061
206	0x3da5f332	0.081030264
207	0xbcc555e6	-0.024088811
208	0xbe14c33b	-0.145276
209	0xbcc9c626	-0.024630617
210	0x3e9956cc	0.29949033
211	0x3dc3c889	0.095597334
212	0x3e0c5e44	0.13707834
213	0x3e777f0b	0.24169557
214	0xbe79f3f3	-0.24409465
215	0xbeb39f7d	-0.35082617
216	0xbdb0c829	-0.086319275
217	0x3d48c612	0.04901702
218	0xbbf03554	-0.007330576
219	0x3db10c9d	0.08644984
220	0x3cb97d12	0.022642646
221	0xbd905690	-0.070477605
222	0x3d4215ed	0.04738419
223	0x3e1c6fff	0.15277098
224	0xbe142119	-0.14465751
225	0x3e1ae03f	0.15124606
226	0x3d8bb1e5	0.0682104
227	0x3e437b4e	0.19090006
228	0xbdf6e928	-0.1205619
229	0xbdde4cd9	-0.10854501
230	0x3db6e7db	0.08930942
231	0xbe2ec20a	-0.17066208
232	0xbe06f063	-0.13177638
233	0x3d0a46ad	0.033758808
234	0x3d8eaab0	0.0696615
235	0xbe09854c	-0.13429755
236	0x3e0c7391	0.1371596
237	0xbca97d03	-0.020689493
238	0x3e293465	0.16523893
239	0xbd96fbc8	-0.07372242
240	0xbe85c1e6	-0.26124495
241	0xbe09eb20	-0.134686
242	0xbd94602c	-0.07244906
243	0xbe0ad6a6	-0.13558444
244	0x3c89245b	0.016740968
245	0xbd7b8211	-0.061403338
246	0xbd61da9e	-0.05514013
247	0x3b4518f7	0.0030074695
248	0x3c714b32	0.014727401
249	0xbe218b49	-0.1577579
250	0x3e025558	0.12727869
251	0xbd56642a	-0.052341618
252	0x3dc82e9f	0.09774517
253	0x3dfbf6e9	0.12302954
254	0xbcf4f1ec	-0.029900514
255	0xbada1685	-0.0016638791

planner.encoder.model.0.bias f4 [32]
0	0x3e17e2d1	0.14832617
1	0x3daebc9b	0.085320674
2	0x3c983a9d	0.018582636
3	0xbdd023b6	-0.10163061
4	0x3e0e8802	0.1391907
5	0x3e1c8896	0.15286478
6	0xbd29060d	-0.041265536
7	0xbdc58873	-0.09645166
8	0xbd9435d9	-0.07236833
9	0x3ddfa0df	0.109193556
10	0xbe136134	-0.14392549
11	0xbd9a7fb3	-0.07543888
12	0xbb90bf44	-0.004417332
13	0x3dddba61	0.108265646
14	0xbcb7fb78	-0.022458777
15	0xbdfb5728	-0.12272483
16	0xbde700c0	-0.1127944
17	0x3d5da704	0.054114357
18	0xbac2ef72	-0.0014872386
19	0xbd2932c7	-0.04130819
20	0x3dd690aa	0.10476811
21	0x3d81df21	0.063413866
22	0x3c393482	0.011304023
23	0xbd48ab55	-0.04899152
24	0xbde061af	-0.10956132
25	0xbe2859ad	-0.16440459
26	0x3da44f87	0.08022981
27	0x3b18c1e2	0.0023308923
28	0x3e0cfb2b	0.13767688
29	0xbd74968c	-0.059713885
30	0xbe24ae00	-0.16082
31	0xbdbb24c0	-0.09137869

planner.encoder.model.1.weight f4 [32]
0	0x3f76a6a0	0.96348
1	0x3f602374	0.875541
2	0x3f81483b	1.0100168
3	0x3f7fac0f	0.99871916
4	0x3f75168c	0.9573753
5	0x3f81bbc4	1.0135427
6	0x3f76f90d	0.9647377
7	0x3f8f25c2	1.1183398
8	0x3f81c80f	1.0139178
9	0x3f8219b2	1.0164092
10	0x3f87d505	1.0611883
11	0x3f7cdf93	0.9877865
12	0x3f7d23f4	0.98882985
13	0x3f80cf81	1.0063325
14	0x3f6448f1	0.891738
15	0x3f840af4	1.0315843
16	0x3f6d7cf4	0.9276879
17	0x3f885816	1.0651882
18	0x3f861128	1.0473986
19	0x3f865aa7	1.0496415
20	0x3f76d626	0.96420515
21	0x3f770360	0.96489525
22	0x3f766874	0.9625313
23	0x3f80631a	1.0030243
24	0x3f688803	0.9083254
25	0x3f7f8e16	0.9982618
26	0x3f7ed5e2	0.9954511
27	0x3f791f2e	0.973132
28	0x3f7d6b3e	0.98991764
29	0x3f83fa82	1.0310824
30	0x3f840770	1.031477
31	0x3f81e8dc	1.0149188

planner.encoder.model.1.bias f4 [32]
0	0xbd46ea34	-0.048563197
1	0xbdba699f	-0.09102177
2	0xbd67439d	-0.056460965
3	0x3aa182bf	0.001232229
4	0xbd755c82	-0.059902675
5	0xbc2722c4	-0.01020116
6	0xbdcc67b9	-0.09980721
7	0x3ca390fa	0.019966591
8	0xbc4a6b62	-0.012354704
9	0x3d0738db	0.033013206
10	0x3d07bb21	0.033137444
11	0xbcf68fce	-0.030097868
12	0xbd628f28	-0.055312306
13	0xbda0746c	-0.07834706
14	0xbe0a7f0a	-0.13525024
15	0xbd4f62b2	-0.050631233
16	0xbd7c2062	-0.06155432
17	0x3c8f00c6	0.017456423
18	0xbd2cc15d	-0.042176593
19	0xbd4f2de8	-0.05058089
20	0xbd85dd7b	-0.06536385
21	0xbdd0eb87	-0.10201173
22	0xbda3c257	-0.07996052
23	0xbce1e47b	-0.027574768
24	0xbdea4295	-0.11438481
25	0xbd879ab5	-0.06621305
26	0xbd48a310	-0.048983634
27	0xbd5abe02	-0.05340386
28	0xbb26cdfa	-0.0025452361
29	0xbd0b7873	-0.034050416
30	0xbd86300c	-0.06552133
31	0xbcb4ecbe	-0.022085544

planner.encoder.model.1.running_mean f4 [32]
0	0xc20fcd8f	-35.95074
1	0xc08907cb	-4.2822013
2	0xc13244fd	-11.141843
3	0xc1985efc	-19.04638
4	0x42a4697f	82.20605
5	0xc0a10abc	-5.0325603
6	0xc20d3674	-35.303177
7	0x40bb0f62	5.845628
8	0x42056e5a	33.357765
9	0x41c4295c	24.520195
10	0xc1b2e4aa	-22.361652
11	0x4246d0c9	49.70389
12	0xc1845b24	-16.544502
13	0xc1d1b7c2	-26.214725
14	0x420b928c	34.893112
15	0xc137806d	-11.468854
16	0x41381fe3	11.507785
17	0x40386800	2.8813477
18	0xc0f65d6e	-7.698905
19	0xc0774ff9	-3.8642561
20	0xc228fbb9	-42.245823
21	0xc1c9c54b	-25.221334
22	0xc25d6777	-55.35104
23	0x4183a6ec	16.456505
24	0x43191b62	153.10696
25	0x3f2a9e77	0.6664805
26	0xc1007b23	-8.030063
27	0x42418f57	48.38998
28	0x423c4b42	47.073494
29	0xc1098de4	-8.597141
30	0xc1066a0b	-8.400889
31	0x3fa9db4c	1.3270049

planner.encoder.model.1.running_var f4 [32]
0	0x43442803	196.1563
1	0x42a92616	84.57439
2	0x42c542f3	98.63076
3	0x43a3a5db	327.29575
4	0x447a0420	1000.06445
5	0x429ccadd	78.39622
6	0x43ee36a8	476.427
7	0x42eb1354	117.53775
8	0x43508c27	208.54747
9	0x42b78733	91.76406
10	0x4306a3c6	134.63974
11	0x4401e6a8	519.604
12	0x42dc0a9b	110.02071
13	0x43ac5c3d	344.7206
14	0x43407267	192.44688
15	0x431e2d5c	158.17719
16	0x43566636	214.39926
17	0x42e555c0	114.66748
18	0x430c33e4	140.2027
19	0x426ccf88	59.202667
20	0x439cf3a5	313.90347
21	0x4390243a	288.28302
22	0x44209a08	642.40674
23	0x4317460d	151.27364
24	0x455c7f84	3527.9697
25	0x41f15bdd	30.169855
26	0x433ba576	187.64633
27	0x440aea64	555.66235
28	0x43a73f4a	334.49445
29	0x43008855	128.53255
30	0x430a1175	138.06819
31	0x424c16ed	51.02239

planner.encoder.model.3.weight f4 [64, 32, 3, 3]
0	0xbd2ff941	-0.042962316
1	0xbbe3dfa6	-0.006954151
2	0xbd19b60d	-0.037527133
3	0x3cd0d59e	0.025492486
4	0x3d62919c	0.055314645
5	0x3cd070d8	0.025444433
6	0xbd93f93b	-0.07225271
7	0x3ca4b621	0.020106377
8	0xbc3f8f58	-0.011691891
9	0xbcb6dac7	-0.022321118
10	0xbd43c91b	-0.04779921
11	0xbd77458c	-0.06036906
12	0xbd7ff653	-0.062490772
13	0x3c6e264d	0.014535499
14	0xbbd69225	-0.0065481835
15	0x3c203b4c	0.0097797625
16	0xbd310795	-0.04322012
17	0xbcd0cc92	-0.025488172
18	0x3d13e072	0.03610272
19	0x3d35821e	0.044313543
20	0x3cf2449e	0.029573735
21	0x3d6176b8	0.05504486
22	0x3d2a414a	0.04156617
23	0x3d9283f2	0.07154073
24	0xbd07f3c3	-0.033191454
25	0x3cbc4b7c	0.022985213
26	0xbbbfeb7f	-0.0058569307
27	0xbd13944a	-0.03603009
28	0x3c9e9bda	0.019361425
29	0x3d0a3308	0.033740073
30	0x3d65377b	0.055961113
31	0x3c33d3c3	0.010975781
32	0x3c7f03ea	0.015564898
33	0x3c95c104	0.018280514
34	0x3cd67c36	0.026182275
35	0xbaa916c7	-0.0012900465
36	0xbd9d301e	-0.07675193
37	0xbd9bdb32	-0.076101676
38	0xbdc6dd1b	-0.09710141
39	0xbd2aaf03	-0.04167081
40	0x3d0d2648	0.034460336
41	0xb9eebd56	-0.00045535964
42	0xbcb82b07	-0.022481455
43	0xbd4005b9	-0.046880458
44	0xbb349eea	-0.002756054
45	0xbdb156d3	-0.086591385
46	0xbc52cb06	-0.012865787
47	0xbd1e7360	-0.03868425
48	0x3c690dfe	0.014224527
49	0x3c463b19	0.012099051
50	0xbd74efa0	-0.059798837
51	0x3cfbc72b	0.03073462
52	0xbc3a6387	-0.011376268
53	0xbd5e4978	-0.054269284
54	0xbd25daef	-0.040491994
55	0xbb90a317	-0.004413973
56	0x3c9e6dfc	0.019339554
57	0xbb9d4f25	-0.0048006945
58	0x3d3de1fa	0.046358086
59	0xbd578348	-0.052615434
60	0x3b17a297	0.0023137683
61	0xbc90bfcc	-0.01766958
62	0x3d1bb6f6	0.038016282
63	0xbdd43b48	-0.103628695
64	0xbcf2b8bf	-0.02962911
65	0xbd0d3a9d	-0.034479726
66	0xbd837fd0	-0.06420863
67	0x3ce68366	0.028138828
68	0xbdbca961	-0.09211994
69	0xbd798fa2	-0.060927995
70	0xbcca8a73	-0.02472422
71	0xbcc1e9a8	-0.023670986
72	0x3cc5b762	0.024135295
73	0xbd89511a	-0.06704922
74	0x3c612f5f	0.013744204
75	0xbc02f234	-0.007992316
76	0xbd857510	-0.065164685
77	0xbd81e3a6	-0.063422486
78	0xbd167454	-0.036732033
79	0xbd82d373	-0.06387987
80	0x3cdf3130	0.027245134
81	0xbb6abedf	-0.0035819334
82	0xbd9673f5	-0.07346336
83	0xbd1f4aed	-0.038889814
84	0xbd0da07d	-0.03457688
85	0xbd65b504	-0.056080833
86	0xbd0b1d42	-0.03396345
87	0x3cb785a8	0.0224026
88	0xbd66a3b6	-0.05630847
89	0xbd130c86	-0.035900615
90	0xbd2fa4a1	-0.04288161
91	0x3d54a414	0.05191429
92	0x3dc36498	0.09540671
93	0x3d23f5bd	0.040029276
94	0x3d96d556	0.07364909
95	0x3cc56e64	0.02410049
96	0xbd67c024	-0.056579724
97	0x3d322a36	0.043497287
98	0x3d2ed11c	0.04267989
99	0xbcd186f8	-0.025577053
100	0xbd52f35b	-0.051501613
101	0xbd24f024	-0.04026808
102	0xbd67d814	-0.056602553
103	0x3cc117a5	0.023570845
104	0xbd14e1fa	-0.03634832
105	0xbd882a74	-0.06648722
106	0x3b2a6e9d	0.0026005872
107	0x3d24eea1	0.040266637
108	0x3c4d759b	0.012540246
109	0x3ca78b8a	0.02045228
110	0x3d68582b	0.05672471
111	0xbc029738	-0.007970624
112	0xbd591b18	-0.053004354
113	0x3c11849f	0.008881717
114	0xbc0a421e	-0.008438615
115	0x3d203b21	0.03911889
116	0xbcb176b5	-0.02166305
117	0x3d6dea20	0.058084607
118	0x3ab5642c	0.0013839058
119	0x3d95aaea	0.0730799
120	0xbcf5114d	-0.029915476
121	0xbd280715	-0.04102238
122	0xbc4dd2e4	-0.012562487
123	0xbcac8fb5	-0.021064619
124	0x3d2101fa	0.039308526
125	0xbd42e29a	-0.047579385
126	0xbd837885	-0.06419472
127	0xb7e6ffae	-2.7537197e-05
128	0xbc7ccbe6	-0.015429473
129	0xbda722c2	-0.081609264
130	0xbba83413	-0.005133161
131	0xbdba8fd7	-0.091094665
132	0xbbaf0967	-0.005341697
133	0xbc9015eb	-0.017588576
134	0xbdb54024	-0.088501245
135	0x3acc4e92	0.0015587381
136	0x3c0c40cc	0.008560371
137	0xbb97e0dd	-0.00463496
138	0xbb3fd69e	-0.002927221
139	0x3d2d6a7b	0.042337876
140	0xbbbaad3c	-0.0056969207
141	0xba6bd06d	-0.00089955964
142	0x3a98495b	0.0011618541
143	0x3c77daf0	0.015127882
144	0xbc7ecffd	-0.015552518
145	0x3b82a176	0.003986533
146	0xbd47aae9	-0.048746977
147	0xbd127794	-0.03575857
148	0x3c391442	0.011296334
149	0x3d7a34c4	0.061085477
150	0xbcf1380a	-0.029445667
151	0xbc598e26	-0.01327852
152	0xbc5c2f0c	-0.013438951
153	0xbd7e2591	-0.062047545
154	0xbd7bd5a4	-0.06148304
155	0x3ccfc736	0.025363546
156	0xbc92fe70	-0.01794359
157	0xbd168caf	-0.03675526
158	0x3d800750	0.06251395
159	0xbd181823	-0.037132394
160	0x3ba8078b	0.0051278523
161	0x3d304fab	0.043044727
162	0xbde5fccb	-0.11229857
163	0xbdb759fb	-0.08952709
164	0xbdbeaf1e	-0.09310745
165	0xbc8526d5	-0.016253868
166	0xbd149a9c	-0.03628026
167	0xbd9cbff2	-0.07653798
168	0x3c1d5357	0.009602389
169	0x3d24c2ce	0.040224843
170	0x3db66595	0.08906094
171	0x3cbdd8a3	0.02317459
172	0x3baa7e00	0.0052030087
173	0x3df05e55	0.117367424
174	0x3d0cd58f	0.034383353
175	0x3d084be7	0.03327551
176	0xbbea659a	-0.007153225
177	0x3d91d5bd	0.071208455
178	0x3cc5ae8e	0.024131086
179	0x3d6d2c8c	0.05790381
180	0x3cd245c3	0.02566803
181	0x3c1a4e85	0.009418135
182	0x3d986489	0.074410506
183	0x3d5a7067	0.05332985
184	0x3c75b0dc	0.01499578
185	0x3906b0af	0.00012845056
186	0xbc83825b	-0.01605337
187	0x3d848fbc	0.06472728
188	0xbaa817f6	-0.0012824524
189	0x3d05c6f2	0.032660432
190	0x3c07756b	0.008267741
191	0x3d3a0289	0.045412574
192	0x3c1dea47	0.009638376
193	0x3c854443	0.016267901
194	0xbc9c5e17	-0.019087834
195	0xbd09683f	-0.033546682
196	0xbda9dcc6	-0.08294062
197	0x3cecd550	0.02891031
198	0xbb8c0de1	-0.0042741154
199	0xbce51527	-0.027964188
200	0xba0df133	-0.00054146646
201	0xbd5c11a4	-0.05372776
202	0x3d584488	0.05279973
203	0xbb3d61ad	-0.002889733
204	0xbcbaf64f	-0.022822527
205	0x3bac5293	0.005258867
206	0xbb26d41a	-0.0025456012
207	0x3bbd5147	0.0057775113
208	0xbd51f7db	-0.051261764
209	0x3d42235b	0.047397
210	0xbd2b8d13	-0.041882586
211	0xb98846b1	-0.0002599261
212	0xb99fc675	-0.00030474705
213	0x3b079ec2	0.0020693992
214	0xbaba42d8	-0.0014210595
215	0x3d1ccd38	0.03828165
216	0xbdbdff87	-0.092772536
217	0xbdb1da8a	-0.08684261
218	0xbc946270	-0.018113345
219	0xbde9e8a6	-0.11421327
220	0xbc3f766d	-0.01168595
221	0xbdeb8ff0	-0.11502063
222	0xbdaa1f14	-0.08306709
223	0xbd1966a7	-0.037451413
224	0xbd1b207a	-0.03787277
225	0xbd36bbd2	-0.044612713
226	0xbcaff670	-0.021479815
227	0x3cf1fca6	0.029539417
228	0xbdb461bf	-0.08807706
229	0xbd3573d0	-0.0442999
230	0x3cfa367c	0.030543558
231	0x3d209a39	0.03920958
232	0x3bcb9cae	0.006213746
233	0x3da353d3	0.079749726
234	0xbad25c51	-0.0016049241
235	0xbbcd56fb	-0.0062664724
236	0x3d8d71cc	0.06906471
237	0x3d0922a8	0.033480316
238	0xbd5c4d12	-0.053784437
239	0x3beed44d	0.007288492
240	0xbd3af3e2	-0.04564274
241	0xbd19c9c2	-0.037545927
242	0x3cd61da0	0.026137173
243	0x3c9c2341	0.01905978
244	0x3da0d9fb	0.078540765
245	0x3b0d5f99	0.0021571873
246	0x3c86b7e0	0.0164451
247	0x3d4a18dc	0.049340114
248	0xbbfe62eb	-0.007763257
249	0x3c92d1cd	0.017922306
250	0xbb5f8ee0	-0.003411226
251	0x3c5944d2	0.013261037
252	0xbc78560a	-0.015157232
253	0x3b45ad70	0.0030163191
254	0xbb8ce21b	-0.004299415
255	0xbd776949	-0.060403142

planner.encoder.model.3.bias f4 [64]
0	0xbcbae519	-0.02281432
1	0x3d2725cc	0.04080753
2	0xbd63d59c	-0.055623636
3	0xbc8d3247	-0.017235888
4	0xbcb48e48	-0.022040501
5	0xbd35b731	-0.044364158
6	0xbd248967	-0.0401701
7	0x3cc8e4db	0.02452319
8	0x3d23cd1d	0.039990533
9	0xbd1c07b9	-0.038093302
10	0xbc911a45	-0.017712722
11	0x3d1694b2	0.0367629
12	0xbd0aa8df	-0.033852454
13	0x3d3318f4	0.04372497
14	0xbd0220cb	-0.031769555
15	0xbafde299	-0.00193699
16	0xbd24a93c	-0.040200457
17	0xbd341ae5	-0.04397096
18	0x3d05ade1	0.032636527
19	0x3d5a3af6	0.053278886
20	0x3c7294c3	0.014805975
21	0x3d2569b3	0.040384006
22	0xbd481676	-0.048849545
23	0xbd4bb10a	-0.049729384
24	0xbcb10bd4	-0.021612085
25	0xbcdf3bb7	-0.027250154
26	0xbc6c2a9f	-0.014414459
27	0x3d248b8a	0.040172137
28	0x3c7a21eb	0.015266876
29	0x3ce4b67b	0.027919045
30	0xbc39139d	-0.01129618
31	0xbd4e40c5	-0.050354738
32	0xbd464b24	-0.048411503
33	0xbb8901ba	-0.004181114
34	0xbb8f0f44	-0.0043658335
35	0x3cfec81a	0.031101275
36	0xbd45e79c	-0.048316583
37	0xbd3c83f7	-0.04602429
38	0xbcc99406	-0.024606716
39	0xbd3af2ac	-0.045641586
40	0x3d0197e5	0.031639
41	0xbd4c09de	-0.049814098
42	0x3d0c8225	0.034303803
43	0x3bf982c8	0.0076144673
44	0xbb3abed2	-0.0028495085
45	0xbd0a839a	-0.03381691
46	0x3ce18214	0.027527846
47	0xbc840f4f	-0.016120581
48	0xbcd80510	-0.026369601
49	0x3d0f5544	0.034993425
50	0xbc2207a8	-0.009889521
51	0x3d53dc28	0.05172363
52	0x3ce92b2e	0.028462972
53	0x3d636490	0.055515826
54	0xbd65c5e8	-0.05609694
55	0x3cb6646c	0.022264682
56	0xbd70e6ab	-0.058813732
57	0xbc83772c	-0.016048037
58	0x3cb29916	0.021801513
59	0x3d3274d2	0.04356844
60	0xbc90350a	-0.017603416
61	0xbd693b00	-0.056941032
62	0xba3b5093	-0.00071454904
63	0xbbd2de9d	-0.006435229

planner.encoder.model.4.weight f4 [64]
0	0x3f7e3343	0.9929697
1	0x3f85af17	1.0444058
2	0x3f80aac6	1.0052116
3	0x3f7953e4	0.9739363
4	0x3f7ad5f2	0.97982705
5	0x3f7752dc	0.9661081
6	0x3f81a18d	1.0127426
7	0x3f7aab45	0.97917587
8	0x3f70afdd	0.94018346
9	0x3f847763	1.0348934
10	0x3f7af52d	0.9803036
11	0x3f8873ee	1.0660379
12	0x3f81d1a5	1.0142103
13	0x3f83b4da	1.0289567
14	0x3f700f69	0.93773514
15	0x3f806379	1.0030357
16	0x3f7e7221	0.99392897
17	0x3f73e124	0.9526541
18	0x3f7a34f7	0.9773707
19	0x3f7c4dcf	0.98556226
20	0x3f84b0f0	1.0366497
21	0x3f80bf65	1.0058409
22	0x3f8fb6fd	1.1227719
23	0x3f770c71	0.9650336
24	0x3f668e30	0.9006071
25	0x3f78a8a9	0.97132355
26	0x3f7f7d39	0.9980045
27	0x3f78ab93	0.971368
28	0x3f85d278	1.0454855
29	0x3f7a157e	0.97689044
30	0x3f87dbf2	1.0613997
31	0x3f779d34	0.9672425
32	0x3f6b08ad	0.91810113
33	0x3f82aa3c	1.0208201
34	0x3f7ee1c7	0.9956326
35	0x3f8bc3f5	1.0919176
36	0x3f6eecd5	0.93330127
37	0x3f7c9ed5	0.9867986
38	0x3f82d417	1.0220975
39	0x3f817ee2	1.0116847
40	0x3f7e9a00	0.99453735
41	0x3f7de227	0.99173206
42	0x3f81e98c	1.0149398
43	0x3f74079d	0.95324117
44	0x3f775a6c	0.9662235
45	0x3f83ef0f	1.030733
46	0x3f8288da	1.0198014
47	0x3f7d5551	0.9895831
48	0x3f80c2ef	1.0059489
49	0x3f811b5a	1.0086472
50	0x3f813da4	1.0096936
51	0x3f797b15	0.97453433
52	0x3f825f73	1.0185379
53	0x3f7be4b0	0.98395824
54	0x3f74e353	0.9565937
55	0x3f78dc1f	0.9721088
56	0x3f6a32da	0.91483843
57	0x3f83d5bf	1.0299605
58	0x3f794602	0.9737245
59	0x3f806c5a	1.0033066
60	0x3f7b790a	0.98231566
61	0x3f893370	1.0718822
62	0x3f82d758	1.0221968
63	0x3f8033bb	1.0015787

planner.encoder.model.4.bias f4 [64]
0	0xbcc905e1	-0.024538936
1	0xbe233558	-0.15938318
2	0xbd12a6e0	-0.035803676
3	0xbd19cef1	-0.03755087
4	0xbdc07264	-0.09396818
5	0xbd13b6da	-0.036063053
6	0xbc481fb0	-0.012214586
7	0xbcf44628	-0.02981861
8	0xbd7018d1	-0.058617417
9	0xbc335215	-0.010944863
10	0xbdb17e07	-0.08666616
11	0x3d0a7704	0.03380491
12	0xbc2560d2	-0.010093885
13	0xbd9ef550	-0.077616334
14	0xbdc52476	-0.09626095
15	0xbd35be3d	-0.04437088
16	0xbd8f4fc4	-0.06997636
17	0xbe1bd34f	-0.15217327
18	0xbd5f72fe	-0.054553024
19	0xbd926722	-0.07148577
20	0xbd1e497a	-0.03864429
21	0xbda00fdb	-0.07815524
22	0xbd1aa17b	-0.037751656
23	0xbd059a05	-0.032617588
24	0xbdf2a904	-0.118486434
25	0xbcfa2be1	-0.030538501
26	0xbdc5550a	-0.096353605
27	0xbd8b5b21	-0.06804491
28	0xbdf7447b	-0.120736085
29	0xbd710186	-0.058839343
30	0xbe5f47d8	-0.2180475
31	0xbd59abc9	-0.053142343
32	0xbd387c6f	-0.045040544
33	0xbd05fb2e	-0.032710247
34	0xbd4d6e0e	-0.050153784
35	0xbb80a2e4	-0.003925668
36	0xbdcbe49f	-0.099557154
37	0xbbfb4cb4	-0.007669056
38	0xbd9d11c8	-0.07669407
39	0xbd43faf2	-0.047846742
40	0xbd62271f	-0.05521309
41	0xbc93f74c	-0.018062256
42	0x3bacaefa	0.0052698823
43	0xbccea5a9	-0.025225477
44	0xbd3bed0f	-0.045880374
45	0xbdc3c3dd	-0.09558842
46	0xbc1a1d4b	-0.009406398
47	0xbdf4f74b	-0.1196123
48	0xbd22cf50	-0.03974849
49	0xbd22bbb4	-0.03972979
50	0xbd5c1dd1	-0.053739373
51	0xbda2c033	-0.07946815
52	0xbc8c87bd	-0.017154569
53	0xbdf823cb	-0.12116202
54	0xbd890150	-0.066897035
55	0xbd64907f	-0.055801865
56	0xbdbce3e3	-0.092231534
57	0xbb6d14ee	-0.0036175805
58	0xbd540b9f	-0.051768895
59	0xbc4ec94c	-0.012621235
60	0xbdc5c06f	-0.096558444
61	0x3d3660d5	0.04452594
62	0xbd010f07	-0.03150847
63	0x3bc1f691	0.0059192856

planner.encoder.model.4.running_mean f4 [64]
0	0xbf640b56	-0.890798
1	0x3cceaca9	0.025228815
2	0x3c661e42	0.0140453
3	0xbf1222d7	-0.5708441
4	0x3b296bd4	0.0025851624
5	0xbf1cb722	-0.6121694
6	0x3e87ab6f	0.2649798
7	0xbf83c8a9	-1.0295612
8	0xbea02ed5	-0.3128573
9	0xbf4b2845	-0.7935832
10	0x3f6428db	0.8912484
11	0xbf407c2a	-0.7518946
12	0xbe2a1e6b	-0.16613166
13	0xbef9d3fc	-0.48794544
14	0xbf0480c7	-0.51759
15	0x3f5998f3	0.84999007
16	0xbf811c88	-1.0086832
17	0x3ee935c6	0.45548838
18	0xbf39ba19	-0.7254959
19	0x3f8c8346	1.0977561
20	0xbf0b9162	-0.5451871
21	0xbeff38f1	-0.4984813
22	0xbe41a1b2	-0.18909338
23	0xbf574a74	-0.8409798
24	0xbe39cb4c	-0.18143958
25	0xbef99d88	-0.48753
26	0x3ec062ae	0.37575287
27	0xbeb9224a	-0.36158973
28	0xbe45eca0	-0.19328547
29	0x3eb13dc1	0.34617427
30	0x3e92dd2d	0.2868437
31	0xbede3248	-0.43397737
32	0xbf5fa9d3	-0.87368506
33	0xbf4ec5a9	-0.80770355
34	0x3f11d66e	0.5696782
35	0xbe4df0c2	-0.20111373
36	0xbe3e4b6b	-0.18583457
37	0xbf5cdc30	-0.8627348
38	0xbe2c960e	-0.16854116
39	0x3e9d7421	0.30752662
40	0x3f847b3b	1.0350107
41	0xbef1a806	-0.47198504
42	0xbfbb3d10	-1.462801
43	0x3f122ac1	0.5709649
44	0x3ed9e8d2	0.4256044
45	0x3f4cc979	0.7999492
46	0xbf955d2a	-1.1669056
47	0x3f03dd80	0.5150986
48	0x3feb393d	1.8376843
49	0xbe368790	-0.1782515
50	0x3fa44e30	1.2836361
51	0x3f8b04c9	1.0860835
52	0xbeab3c8d	-0.33444634
53	0x3edc9e14	0.43089354
54	0x3efd4dc1	0.49473384
55	0x3eb6e292	0.35719734
56	0xbf9721dc	-1.1807208
57	0xbf902bc3	-1.1263355
58	0xbe959174	-0.29212534
59	0x3df76cfb	0.12081333
60	0x3eb5fc09	0.3554385
61	0xbfd0b03d	-1.6303784
62	0xbfc05bd7	-1.5028027
63	0xbe1a9237	-0.15094839

planner.encoder.model.4.running_var f4 [64]
0	0x3faa21a6	1.3291519
1	0x3ebb4983	0.36579522
2	0x3e9ce7f4	0.30645716
3	0x3f65029b	0.894571
4	0x3f31f769	0.6951814
5	0x3fd29a97	1.6453427
6	0x3f9d8b3f	1.230812
7	0x3fbf5918	1.4949064
8	0x3eaff83f	0.34369084
9	0x3f6ab704	0.9168551
10	0x3f591e75	0.848121
11	0x3f4fb0c1	0.8112908
12	0x3eb6cf9e	0.35705274
13	0x3eab8ae9	0.33504418
14	0x3ec72b67	0.389003
15	0x3f5a030f	0.8516092
16	0x3f3512c9	0.7073179
17	0x3f0b6d17	0.5446333
18	0x3f34f9cd	0.70693666
19	0x3f37257b	0.71541566
20	0x3e939374	0.28823435
21	0x3f4011c7	0.75027126
22	0x3f4d5321	0.8020497
23	0x3f53856b	0.82625455
24	0x3eba6eb2	0.3641258
25	0x3f409a06	0.7523502
26	0x3ef7921a	0.48353654
27	0x3f3ec645	0.74521285
28	0x3f403fa1	0.7509709
29	0x3f2c3805	0.6727298
30	0x3f28afac	0.65893054
31	0x3fa2f775	1.2731768
32	0x3f241512	0.6409465
33	0x3f27deb1	0.65574175
34	0x3f0188f7	0.50599617
35	0x3e68fce2	0.22752717
36	0x3eb0c3e0	0.3452444
37	0x3f828a09	1.0198375
38	0x3edc626c	0.4304384
39	0x3ec35971	0.38154176
40	0x3fb4e284	1.4131627
41	0x3e7c08f0	0.24612784
42	0x3fe9af3f	1.8256606
43	0x3eac8153	0.33692417
44	0x3f64d1a0	0.8938236
45	0x3f55965c	0.83432555
46	0x3fa41f65	1.2822081
47	0x3f2052dd	0.6262644
48	0x3f9d22bf	1.2276229
49	0x3f995c1e	1.1981237
50	0x3f917060	1.1362419
51	0x3f439076	0.76392305
52	0x3f0ed941	0.55800253
53	0x3f8ee826	1.1164596
54	0x3f43dee2	0.7651197
55	0x3f3ba302	0.73295605
56	0x3efa7620	0.48918247
57	0x3f29c39c	0.663141
58	0x3f172f1d	0.59056264
59	0x3ecba936	0.39777535
60	0x3ef66646	0.48124903
61	0x3f8bf628	1.0934496
62	0x3f34c6b7	0.70615715
63	0x3f753824	0.9578879

planner.encoder.model.6.weight f4 [128, 64, 3, 3]
0	0xbc908784	-0.017642744
1	0xbcb618b2	-0.022228573
2	0xbc9f829b	-0.019471457
3	0xbcf1806e	-0.029480185
4	0x3b4d79eb	0.0031353186
5	0x3d10861d	0.03528415
6	0x3cce90eb	0.025215587
7	0xbbff4caa	-0.0077911215
8	0x3cfc1982	0.030773882
9	0xbd40a5a1	-0.047032956
10	0x3c2eb476	0.010663142
11	0xbb7f0a46	-0.0038916036
12	0xbe0f89dc	-0.14017433
13	0xbd9e4ba3	-0.0772927
14	0xbddbc319	-0.10730571
15	0xbd58cf94	-0.052932337
16	0xbdd2833d	-0.10278938
17	0xbcb7e1b3	-0.022446489
18	0x3cf77f44	0.030212052
19	0x3ccb6971	0.024830552
20	0x3d3c6524	0.045994893
21	0x3ced01f7	0.028931601
22	0xbcf5327f	-0.029931305
23	0x3d31afe3	0.04338063
24	0x3c1d919e	0.009617237
25	0x3c24ace4	0.010050986
26	0xbba23179	-0.0049497453
27	0x3c0d7ba5	0.008635436
28	0xbbaf0207	-0.005340818
29	0xbcba37d7	-0.022731705
30	0xbc766dbc	-0.015040811
31	0xbd0a413f	-0.03375363
32	0xbd13f3ff	-0.036121365
33	0xbd7d9c66	-0.06191673
34	0xbc94981d	-0.01813894
35	0xbbb360d3	-0.005474189
36	0x3cce14e7	0.025156451
37	0x3ca4fd0d	0.020140195
38	0x3d8527f6	0.065017626
39	0x3cbb663a	0.022875894
40	0x3cc670dd	0.02422374
41	0xbd1ece32	-0.038770862
42	0xbce9be6c	-0.028533183
43	0x3c7f86f4	0.01559614
44	0xbafe147f	-0.001938477
45	0xbc204278	-0.009781472
46	0xbd83a49e	-0.064278826
47	0xbd33cee2	-0.04389847
48	0xbcd1a3a0	-0.025590718
49	0x3bd76595	0.006573389
50	0x3d1f9d4d	0.038968373
51	0x3ce40718	0.027835414
52	0xbbd4a38b	-0.0064892224
53	0x3c93f50c	0.018061183
54	0xbce6e2ca	-0.028184313
55	0x3bced955	0.006312529
56	0xbd1fc739	-0.039008353
57	0xbc655668	-0.013997652
58	0xbd700004	-0.058593765
59	0xbd07ef13	-0.033186983
60	0xbca8456f	-0.020540921
61	0x3d0cc6af	0.034369167
62	0xbcc756b9	-0.024333345
63	0xbd243a3f	-0.04009461
64	0xbc234173	-0.009964335
65	0xbc950e76	-0.018195372
66	0xbd2d69a3	-0.04233707
67	0x3bf09cdb	0.0073429174
68	0xbceca603	-0.028887754
69	0xbd051471	-0.032490198
70	0xbbcbbd8b	-0.0062176636
71	0x3ca5afa8	0.020225361
72	0x3b3d3984	0.0028873393
73	0xbc8594d8	-0.016306326
74	0x3d4fa6e5	0.050696272
75	0xbd07b729	-0.03313366
76	0x3c5b6024	0.013389621
77	0xbc890e93	-0.016730582
78	0xbd667e02	-0.056272514
79	0xbc0bde7d	-0.008536932
80	0xbd1664e0	-0.036717296
81	0xbd18637c	-0.03720425
82	0xbcde8749	-0.027164118
83	0xbcd682d9	-0.02618544
84	0x3cbcb048	0.023033276
85	0xbc4435e4	-0.011975739
86	0xbccf40b9	-0.025299417
87	0xbb019bed	-0.0019776777
88	0xbd16e8ad	-0.03684299
89	0x3c26bb9b	0.010176565
90	0x3da25be2	0.079276815
91	0x3d93b18a	0.07211597
92	0x3d1cb47d	0.038258065
93	0x3d6618b2	0.056175895
94	0x3d767135	0.060166556
95	0x3bc578bc	0.0060263555
96	0x3d2c95bf	0.042134997
97	0x3d8368c3	0.06416466
98	0x3d35c82f	0.044380363
99	0xbc9815ab	-0.01856502
100	0x3cfdad21	0.030966343
101	0xbc931681	-0.017955067
102	0x3ce5c661	0.028048696
103	0x3c296cbc	0.010340866
104	0x3cbc8d76	0.023016673
105	0xbd975c34	-0.07390633
106	0x3cbb4917	0.022862
107	0x3c2e71c0	0.010647237
108	0xbd15a0d7	-0.036530342
109	0x3cdc73ed	0.026910746
110	0xbc9e76b1	-0.019343706
111	0xbbea4340	-0.00714913
112	0xbd374172	-0.044740148
113	0x3cb498ea	0.022045571
114	0x3d098095	0.03356989
115	0xbc0d982a	-0.008642236
116	0xbcb94ce3	-0.02261967
117	0x3cc27ded	0.023741687
118	0x3c96f815	0.018428842
119	0xbd0443db	-0.032291275
120	0xbc28a107	-0.010292298
121	0xbc923f73	-0.01785252
122	0xbcbf3c0f	-0.023344068
123	0xbc6e4bae	-0.014544411
124	0x3bfbfa58	0.0076897554
125	0xbd6bbae3	-0.057551276
126	0xbcb0cd91	-0.021582397
127	0xbc22d452	-0.009938316
128	0xbc2b56f1	-0.01045774
129	0x3c416509	0.011803874
130	0xbcf6ad8c	-0.03011205
131	0xbd6890ed	-0.056778837
132	0xbc9ed552	-0.019388828
133	0x3c7fb448	0.015606947
134	0x3c99a303	0.018754488
135	0xbd44d131	-0.048051063
136	0xba314d47	-0.00067635294
137	0xbd22d623	-0.039754998
138	0xbcff7208	-0.031182304
139	0xbda50ccb	-0.08059081
140	0xb95b6e1e	-0.0002092649
141	0xbdc27f9f	-0.09496998
142	0xbda1126a	-0.0786484
143	0xbd360b69	-0.044444475
144	0x3cf837c8	0.030300036
145	0xbc9128ad	-0.017719591
146	0xbcadb815	-0.021205941
147	0x3d54b809	0.051933322
148	0xbb7be039	-0.0038433208
149	0x3c8f6b3b	0.017507186
150	0xbc516ffa	-0.012783045
151	0x3bf58028	0.007492084
152	0xbbc01d5b	-0.0058628744
153	0x3d7afe6e	0.0612778
154	0x3d5dfec4	0.05419804
155	0xbd1d251c	-0.03836547
156	0x3b4bd4cd	0.003110218
157	0x3cde9c3b	0.027174106
158	0xbd62e353	-0.055392575
159	0x3ca9b03c	0.020713918
160	0xbd0bd37e	-0.03413724
161	0x3b51adee	0.003199454
162	0xbca974d2	-0.020685587
163	0x3d020bca	0.031749524
164	0xbbcd10f5	-0.006258125
165	0xbbaa3163	-0.0051938756
166	0x3ba210ed	0.0049458654
167	0x3c9adfd8	0.018905565
168	0xbd599fcf	-0.05313092
169	0xbd464dc2	-0.048414
170	0xbd01bf6d	-0.0316767
171	0x3d8e860e	0.06959163
172	0x3d28f082	0.04124499
173	0x3d1f34ef	0.03886884
174	0x3ccc4ace	0.024938013
175	0x3d812ab5	0.06306974
176	0x3dc6c738	0.09705967
177	0x3bb19de0	0.0054204315
178	0x3d535917	0.051598635
179	0x3dad27ab	0.08454832
180	0x3cb141e9	0.021637874
181	0x3c64d435	0.01396661
182	0xbd8645b0	-0.065562606
183	0x3d73b84c	0.05950193
184	0xb81ef753	-3.7900474e-05
185	0xbd66238c	-0.056186244
186	0xbcac2cdc	-0.021017484
187	0xbc9e2996	-0.01930694
188	0xbcb95b4e	-0.022626545
189	0x3c473c81	0.012160421
190	0xbccd4cf5	-0.02506111
191	0x3c38a788	0.011270411
192	0x3b9bca29	0.004754324
193	0xbd0c9297	-0.034319486
194	0xba9682f8	-0.0011483124
195	0xbcc10abf	-0.023564694
196	0x3cbdcf58	0.023170158
197	0xbccf4062	-0.025299255
198	0xbd0977b9	-0.033561442
199	0xbd7d48af	-0.061836895
200	0x3d863727	0.06553488
201	0xbda596ad	-0.0808538
202	0xbd470b5d	-0.04859482
203	0x3cb06a42	0.021535043
204	0xbde4345d	-0.111428
205	0xbd34d600	-0.0441494
206	0x3c80f2ee	0.015740838
207	0x3a8b1fcb	0.0010614333
208	0xbbb2dc3b	-0.0054583824
209	0x3d097c80	0.033565998
210	0xbbc53341	-0.006018073
211	0xbc23318d	-0.009960544
212	0xbcbe4365	-0.023225496
213	0x3cfe6848	0.031055585
214	0xba80f7d4	-0.0009839484
215	0x3cae27a9	0.021259146
216	0x3c91e814	0.017810859
217	0x3b2b9289	0.002617987
218	0x39400d60	0.0001831553
219	0x3d3727df	0.04471576
220	0x3c2db443	0.01060206
221	0x3bd26315	0.006420503
222	0xbcbc9710	-0.023021251
223	0x3cc95c39	0.024580108
224	0xbd32f63e	-0.043691866
225	0x3cdfe059	0.027328657
226	0x3d2bc715	0.041937906
227	0x3cd1f461	0.025629224
228	0x3c9c79a9	0.01910098
229	0xbc88dd32	-0.016707037
230	0xbd21b7b5	-0.039481837
231	0x3ac99b9d	0.0015381459
232	0xbcecfed3	-0.028930103
233	0xbbddc006	-0.0067672757
234	0x3aa27b11	0.0012396296
235	0x3d9c3be3	0.0762861
236	0x3d9c7460	0.07639384
237	0xbc8a9873	-0.016918397
238	0x3cd75add	0.026288444
239	0x3daf2bb6	0.08553259
240	0xbcb42f3d	-0.021995181
241	0xbb9a082f	-0.0047006826
242	0x3cc2eb77	0.023793919
243	0xbd53a3f7	-0.05167004
244	0xbd1e4812	-0.03864295
245	0xbb287eb5	-0.002571029
246	0x3cf94ba1	0.03043157
247	0xbcab150c	-0.02088406
248	0x3c24ebb7	0.010065964
249	0xbd20d56e	-0.039266042
250	0x3d37cbb8	0.044872016
251	0xba99f337	-0.0011745457
252	0xbc00284d	-0.007822108
253	0xbd6bdbab	-0.05758254
254	0xbcace659	-0.021105932
255	0xbd12b332	-0.035815425

planner.encoder.model.6.bias f4 [128]
0	0x3d02a66d	0.031896997
1	0xbc7a5d68	-0.015281059
2	0x3ca47d36	0.020079236
3	0x3ba3fe9c	0.005004717
4	0x3c941138	0.018074617
5	0xbcadf632	-0.02123556
6	0xbcec6d45	-0.028860698
7	0x3cfa7162	0.030571643
8	0xbd1be830	-0.038063228
9	0x3d10fe6e	0.035398893
10	0x3c80d641	0.015727164
11	0xbd1fa037	-0.038971152
12	0xbc5733ae	-0.01313488
13	0xbc205148	-0.009785004
14	0xbccbfab0	-0.02489981
15	0x3b91d077	0.0044499
16	0x3c287215	0.0102811055
17	0xbbe1dbba	-0.0068926485
18	0x3ca1b45d	0.019739324
19	0xbd1641e7	-0.036683943
20	0x3c11a7d7	0.008890114
21	0x3be59fb3	0.007007563
22	0xbcd08581	-0.025454285
23	0xbd0b829a	-0.0340601
24	0xbc62f437	-0.013852171
25	0xbc947426	-0.01812179
26	0xbc127af6	-0.008940449
27	0xbcc4079c	-0.02392941
28	0xbcb9a1fe	-0.022660252
29	0xbca4ba79	-0.020108448
30	0xbcd1ca53	-0.025609171
31	0xbc98b0e3	-0.018639034
32	0x3cadfc8c	0.021238588
33	0xbced7373	-0.028985715
34	0xbbdf5219	-0.0068152067
35	0xbc8fb5df	-0.017542778
36	0x3c547cd0	0.012969211
37	0xbacc4c5b	-0.001558672
38	0x3d1bd6cf	0.038046654
39	0xbc9c7e2b	-0.01910313
40	0xbcb07c3b	-0.021543613
41	0xbad0f06d	-0.0015940793
42	0xbc47e8f0	-0.012201533
43	0x3cf9b378	0.030481085
44	0x3c839792	0.016063485
45	0xbd007e6b	-0.03137056
46	0x3d0bfc88	0.03417638
47	0xbd15e2a7	-0.036593106
48	0x3bc35fef	0.005962364
49	0xbce63a0e	-0.028103855
50	0x3794d143	1.774042e-05
51	0x3d225bca	0.039638318
52	0xbd23eff2	-0.04002375
53	0xbd0dcc68	-0.034618765
54	0x39d0767c	0.0003976113
55	0x3c67c223	0.014145407
56	0xbd09b94c	-0.03362398
57	0x3c0838ad	0.008314294
58	0xbce01f66	-0.027358722
59	0x3cb8f947	0.022579802
60	0xbc99b39d	-0.018762404
61	0xbcd5dbeb	-0.026105842
62	0xbd110cb4	-0.035412505
63	0x3d009670	0.03139347
64	0x3cb5f652	0.022212181
65	0xbc8a2df0	-0.016867608
66	0xbbf8199f	-0.0075714136
67	0xbbae94ad	-0.005327782
68	0x3d06fa58	0.03295359
69	0x38ee6809	0.000113681024
70	0x3cf8c220	0.030366004
71	0x3d103ac4	0.035212293
72	0x3d1c4539	0.038151953
73	0xbcc6535b	-0.024209669
74	0x37404b59	1.1461635e-05
75	0xbd10a4ee	-0.03531354
76	0x3d28a547	0.041173246
77	0xbd00896b	-0.031381052
78	0xbcdb066e	-0.026736464
79	0xbc94cd0f	-0.018164186
80	0x3d145750	0.03621608
81	0xba6a1975	-0.0008930185
82	0x3cb462cb	0.022019764
83	0x3d16319e	0.036668412
84	0xbc842b5e	-0.01613396
85	0xb94a403e	-0.00019288153
86	0xbca7a38b	-0.020463726
87	0xbc16bffb	-0.009201045
88	0x3c943abb	0.018094411
89	0x3cc49cbe	0.024000522
90	0xbb720afa	-0.0036932812
91	0x3a19b487	0.00058633875
92	0x3ce4d9a5	0.027935812
93	0x3c678420	0.014130622
94	0x3cadac9b	0.021200469
95	0x3d20d185	0.039262313
96	0x3a5165e8	0.00079879025
97	0xbc5a6177	-0.0133289015
98	0xbc07a5b8	-0.0082792565
99	0x3d19db1f	0.037562486
100	0xbce12527	-0.027483536
101	0xbc8ca7af	-0.017169802
102	0x3ce21b1c	0.027600817
103	0xbd2aa2c4	-0.04165913
104	0xbd0faedf	-0.03507888
105	0xbd1d70af	-0.03843754
106	0x3cb890fa	0.022530068
107	0x3c3966ce	0.011316014
108	0xbcad526b	-0.021157464
109	0xbd048949	-0.032357488
110	0x3cedb042	0.02901471
111	0xbd151bba	-0.036403395
112	0x3ce18853	0.027530825
113	0x3bcbe830	0.0062227473
114	0x3ae79aa5	0.0017669989
115	0x3c8b049d	0.016969973
116	0xbd190a07	-0.03736308
117	0x3d278c50	0.040905297
118	0x3cf4a5d8	0.029864237
119	0x3cde57b8	0.027141437
120	0xbc8178cd	-0.015804673
121	0xbc2e4391	-0.010636226
122	0xbc11b8b0	-0.008894131
123	0x3cb12e36	0.02162848
124	0x3cd5d9ee	0.026104894
125	0xbd0eb799	-0.03484306
126	0xbd011dab	-0.031522434
127	0xbca88de7	-0.020575477

planner.encoder.model.7.weight f4 [128]
0	0x3f83a818	1.0285673
1	0x3f87c63d	1.0607373
2	0x3f846de7	1.034604
3	0x3f6f5106	0.93483007
4	0x3f82b64d	1.0211884
5	0x3f84eda8	1.0385027
6	0x3f6f6493	0.9351284
7	0x3f82f79b	1.0231813
8	0x3f7fcfc6	0.9992641
9	0x3f7d698d	0.9898918
10	0x3f7cf38e	0.98809135
11	0x3f816767	1.0109681
12	0x3f86c477	1.0528706
13	0x3f7d2317	0.9888167
14	0x3f809bdc	1.0047565
15	0x3f73a002	0.9516603
16	0x3f805f23	1.0029033
17	0x3f84e8eb	1.0383581
18	0x3f7c3a8e	0.9852685
19	0x3f826335	1.0186526
20	0x3f86b3a8	1.0523577
21	0x3f805652	1.0026343
22	0x3f83c30b	1.0293897
23	0x3f78d05e	0.97192943
24	0x3f7853eb	0.9700305
25	0x3f80d416	1.0064723
26	0x3f76119e	0.9612063
27	0x3f788e55	0.9709218
28	0x3f830766	1.0236633
29	0x3f774ef7	0.96604866
30	0x3f7d56aa	0.98960364
31	0x3f73d05a	0.95239794
32	0x3f7704dc	0.9649179
33	0x3f83f4da	1.0309098
34	0x3f809915	1.0046717
35	0x3f7debab	0.99187726
36	0x3f8043dc	1.0020709
37	0x3f77f6c9	0.9686094
38	0x3f7ceaff	0.98796076
39	0x3f78d00b	0.9719245
40	0x3f79e3c6	0.9761318
41	0x3f810e66	1.0082519
42	0x3f85c3a1	1.0450326
43	0x3f8208c5	1.0158926
44	0x3f852fee	1.0405252
45	0x3f8101ef	1.0078715
46	0x3f764815	0.9620374
47	0x3f7f6182	0.9975816
48	0x3f827c1a	1.0194123
49	0x3f7df52a	0.99202216
50	0x3f80b43e	1.0055006
51	0x3f8479e6	1.03497
52	0x3f80b987	1.0056618
53	0x3f734751	0.95030695
54	0x3f7b81f9	0.982452
55	0x3f80e804	1.0070806
56	0x3f74a616	0.9556593
57	0x3f75c82e	0.96008575
58	0x3f7e6de1	0.9938641
59	0x3f83ab69	1.0286685
60	0x3f8071fe	1.0034788
61	0x3f832e50	1.0248508
62	0x3f841389	1.0318462
63	0x3f7cea60	0.9879513
64	0x3f825abd	1.0183941
65	0x3f7dd136	0.99147356
66	0x3f82bf93	1.0214714
67	0x3f8022cc	1.0010619
68	0x3f790406	0.97271764
69	0x3f7cb1c2	0.98708737
70	0x3f858df0	1.0433941
71	0x3f870fe0	1.055172
72	0x3f74398b	0.95400304
73	0x3f7d429b	0.98929757
74	0x3f7ad4d9	0.9798103
75	0x3f819716	1.0124233
76	0x3f758115	0.9590009
77	0x3f82614a	1.018594
78	0x3f79de34	0.9760468
79	0x3f82fc24	1.0233197
80	0x3f827b18	1.0193815
81	0x3f75b311	0.9597636
82	0x3f846202	1.034241
83	0x3f834a8f	1.0257128
84	0x3f778507	0.9668736
85	0x3f75eddd	0.96066076
86	0x3f711773	0.94176406
87	0x3f6f058c	0.9336784
88	0x3f73d7e0	0.95251274
89	0x3f7a0f3a	0.97679484
90	0x3f81843c	1.011848
91	0x3f8437d9	1.0329543
92	0x3f811fa2	1.0087779
93	0x3f828ff1	1.0200177
94	0x3f7544fb	0.9580838
95	0x3f8496d6	1.0358531
96	0x3f7817db	0.969114
97	0x3f78057e	0.9688338
98	0x3f83a420	1.0284462
99	0x3f851952	1.0398352
100	0x3f83d9c8	1.0300837
101	0x3f822f79	1.0170738
102	0x3f7204c5	0.9453853
103	0x3f7a1df8	0.9770198
104	0x3f78da46	0.9720806
105	0x3f7db280	0.99100494
106	0x3f895721	1.0729715
107	0x3f7ab204	0.9792788
108	0x3f7d42cf	0.98930067
109	0x3f80e3c0	1.0069504
110	0x3f80d96d	1.0066353
111	0x3f812927	1.0090684
112	0x3f7cc13d	0.9873236
113	0x3f7826a0	0.9693394
114	0x3f826329	1.0186511
115	0x3f8058c8	1.0027094
116	0x3f692a7f	0.9108047
117	0x3f8158b9	1.0105201
118	0x3f84ab15	1.036471
119	0x3f778a37	0.96695274
120	0x3f789e3a	0.97116435
121	0x3f7c0f28	0.98460627
122	0x3f819c5f	1.0125846
123	0x3f72f20a	0.9490057
124	0x3f69b24c	0.91287684
125	0x3f7d413c	0.98927665
126	0x3f80fdb0	1.0077419
127	0x3f82c5aa	1.0216572

planner.encoder.model.7.bias f4 [128]
0	0xbd663d9e	-0.056211106
1	0xbdbc5ae2	-0.09197022
2	0xbd2c19dd	-0.042016853
3	0xbdc98097	-0.0983898
4	0xbd9d7c29	-0.07689697
5	0x3b30d7da	0.0026984126
6	0xbd85661d	-0.06513617
7	0xbd9d9d9a	-0.07696076
8	0xbd9ab1f7	-0.07553475
9	0xbd75c116	-0.059998594
10	0xbd9e1bfe	-0.07720183
11	0xbdf94f20	-0.12173295
12	0xbaea61fc	-0.0017881985
13	0xbe00fb3b	-0.12595837
14	0xbdc6baee	-0.09703623
15	0xbd32fa17	-0.043695536
16	0xbdc7340c	-0.09726724
17	0xbd64d489	-0.05586675
18	0xbce1a88b	-0.027546188
19	0xbdfaabf2	-0.12239827
20	0xbdb73292	-0.089451924
21	0xbccefc69	-0.025266843
22	0xbd99d13b	-0.07510611
23	0xbd792d39	-0.060834143
24	0xbdb4da9b	-0.08830758
25	0xbc90a117	-0.017654939
26	0xbdb8af3c	-0.09017798
27	0xbcc20269	-0.02368279
28	0xbd0c7751	-0.034293476
29	0xbd61fe93	-0.05517442
30	0xbd2a0d9d	-0.04151689
31	0xbe036f20	-0.1283536
32	0xbdc17ef8	-0.094480455
33	0xbd6a5dc6	-0.057218336
34	0xbdaef3eb	-0.085426174
35	0xbdc97d64	-0.098383695
36	0xbd385bd8	-0.045009464
37	0xbcffb2fe	-0.03121328
38	0xbdac3168	-0.08407861
39	0xbdc663f6	-0.09687035
40	0xbdb8665a	-0.09003897
41	0xbdd63caf	-0.10460793
42	0xbd97bffb	-0.07409664
43	0xbd980384	-0.074225456
44	0xbd75caa4	-0.060007706
45	0xbdb2555e	-0.08707689
46	0xbd71309e	-0.058884256
47	0xbd6c2392	-0.05765111
48	0xbd9b7eff	-0.07592582
49	0xbdd2ddac	-0.10296187
50	0xbd077a59	-0.033075664
51	0xbdc564bd	-0.09638355
52	0xbd08be31	-0.033384506
53	0xbdb5dfe4	-0.088805944
54	0xbdc12340	-0.094305515
55	0xbb8f32c2	-0.0043700645
56	0xbc905ac6	-0.01762141
57	0xbda7b65b	-0.081890784
58	0xbd5baf3d	-0.053633917
59	0xbe1e8b7c	-0.15482897
60	0xbcea755e	-0.028620418
61	0xbd88e26e	-0.06683813
62	0xbd51173e	-0.051047556
63	0xbd3bc793	-0.045844626
64	0xbd348738	-0.044074267
65	0xbcd5a72a	-0.026080687
66	0xbda77d36	-0.08178179
67	0xbd0b90af	-0.034073528
68	0xbd1cbe6b	-0.038267534
69	0xbd381bb3	-0.04494829
70	0xbd3ff837	-0.046867575
71	0xbde5f890	-0.1122905
72	0xbd58ec52	-0.052959748
73	0xbda31f7f	-0.07964992
74	0xbda34cf5	-0.07973663
75	0xbdf66f7e	-0.12032984
76	0xbd35da72	-0.04439778
77	0xbc7e83a1	-0.015534312
78	0xbd467720	-0.04845345
79	0xbd9065d5	-0.07050673
80	0xbd7d0281	-0.061769966
81	0xbd86348c	-0.06552991
82	0xbd45c26e	-0.048281126
83	0x3c69af7e	0.014263032
84	0xbdb851e0	-0.089999914
85	0xbe0416df	-0.1289935
86	0xbd27e9aa	-0.040994324
87	0xbd2c63cc	-0.04208736
88	0xbd46030f	-0.04834276
89	0xbd7e631c	-0.062106237
90	0xbd9e0bd4	-0.077171
91	0xbdd6fd07	-0.1049748
92	0xbda4f4d0	-0.08054507
93	0xbcfa5a97	-0.030560775
94	0xbdbf8b89	-0.09352786
95	0xbdea5564	-0.11442068
96	0xbcacde6f	-0.021102158
97	0xbd85924f	-0.06522047
98	0xbd678179	-0.05651996
99	0xbdcc6395	-0.09979931
100	0xbcb55f1c	-0.022140078
101	0xbdde1142	-0.108431354
102	0xbd5e3ef3	-0.05425925
103	0xbd5c6d22	-0.053815015
104	0xbd83447f	-0.06409549
105	0xbd3d935b	-0.046283107
106	0xbdcabf66	-0.098997876
107	0xbd5ad0be	-0.05342173
108	0xbd007372	-0.031360097
109	0xbd6f1314	-0.058367804
110	0xbe14c680	-0.14528847
111	0xbdca92ab	-0.09891256
112	0xbdb276cc	-0.08714065
113	0xbc980bc4	-0.018560298
114	0xbdad16e3	-0.08451631
115	0xbd5505e8	-0.052007586
116	0xbd89ff25	-0.06738118
117	0xbdaa67db	-0.0832059
118	0xbdd5b65d	-0.10435174
119	0xbc97bf66	-0.018523883
120	0xbd05d1ce	-0.03267079
121	0xbc5e9321	-0.013584883
122	0xbc3f8e78	-0.011691682
123	0xbdf8acc0	-0.121423244
124	0xbdab3975	-0.083605684
125	0xbdd04c79	-0.10170836
126	0xbd4e24d0	-0.050328076
127	0xbdf8fa8b	-0.12157162

planner.encoder.model.7.running_mean f4 [128]
0	0xbfc39c70	-1.5282116
1	0xbfad3187	-1.353074
2	0xc01eaa10	-2.4791298
3	0xbf728de3	-0.9474775
4	0xbde94c5b	-0.11391517
5	0xbea838e5	-0.32855907
6	0xbf1799a0	-0.5921879
7	0xbea195d0	-0.3155961
8	0xbea3eda9	-0.32017258
9	0xbef6f77b	-0.48235688
10	0xbe8f1a67	-0.2794983
11	0x3e921186	0.28528994
12	0xbfbb7544	-1.4645162
13	0x3f11ac17	0.56903213
14	0x3f0fd02b	0.56177014
15	0x3e7b39a1	0.24533702
16	0x3d8cdfaf	0.06878602
17	0xc0267301	-2.6007693
18	0x3f8f67ad	1.1203514
19	0xbf9751b1	-1.1821805
20	0x3e1110de	0.1416659
21	0xb8c7a9e8	-9.520707e-05
22	0xbf36b3f4	-0.71368337
23	0x3e1ea565	0.1549278
24	0xbfe06df9	-1.7533561
25	0xbe76cd5d	-0.24101777
26	0xbfbcca35	-1.4749209
27	0xbf4f15c9	-0.80892617
28	0x3fbe53e2	1.4869349
29	0x3e9d45f1	0.30717424
30	0xbeba85ac	-0.3643011
31	0xbebf13cf	-0.373198
32	0x3fc9b2c3	1.5757679
33	0xbf0844ef	-0.53230184
34	0xc04cdc2d	-3.2009385
35	0x3ec0008b	0.37500414
36	0xbf660711	-0.8985453
37	0xbfac4e29	-1.3461353
38	0xc014d1de	-2.3253093
39	0xc009b6b6	-2.1517768
40	0x3ebb3876	0.36566514
41	0xbef47758	-0.47747302
42	0x3f1d44d6	0.6143316
43	0xbff6200d	-1.9228531
44	0xbeaa9a99	-0.33321074
45	0x3dd0b3d3	0.10190549
46	0xbe279d18	-0.1636852
47	0xc0341f60	-2.814415
48	0xbfc3228f	-1.5244921
49	0xbf33b7ac	-0.70202136
50	0xbfcc509c	-1.59621
51	0xbf56ef02	-0.83958447
52	0xbefa7110	-0.48914385
53	0xbecb9c23	-0.3976756
54	0xbdaf2d1a	-0.08553524
55	0xbfe56cf6	-1.7923877
56	0xbfb13800	-1.3845215
57	0x3f67a290	0.90482426
58	0x3e9425c9	0.28935078
59	0x3e980ec2	0.2969876
60	0xbff5660b	-1.9171766
61	0xbe089ef3	-0.13341884
62	0xc04c5301	-3.1925662
63	0xbe8d016c	-0.27540147
64	0xbfe45f0a	-1.7841504
65	0x3fae257a	1.3605187
66	0xc0349957	-2.8218591
67	0xbfde0f2d	-1.7348381
68	0xbfb18209	-1.3867809
69	0xbfe5bdda	-1.7948563
70	0xbf012251	-0.5044299
71	0xbfffb717	-1.997775
72	0xbfb940fc	-1.4472957
73	0xbfd2b03b	-1.6460031
74	0x3e7866eb	0.2425801
75	0xbe9f49d6	-0.3111102
76	0x3e033880	0.12814522
77	0xbfcc9809	-1.5983897
78	0xc0332d40	-2.7996368
79	0xbfb4c3f1	-1.4122297
80	0x3e890612	0.26762444
81	0xbf7330d2	-0.9499637
82	0xc01fd67a	-2.4974656
83	0xbffad544	-1.9596334
84	0xbee1a9a2	-0.44074732
85	0xbe389859	-0.18026866
86	0xbf2efb65	-0.6835235
87	0xbfa540d1	-1.2910405
88	0xbf02d0d2	-0.51099885
89	0xbe732085	-0.23742874
90	0x3f213724	0.6297476
91	0xbf2473b2	-0.6423904
92	0xbf815555	-1.0104166
93	0xbf4d8fed	-0.8029774
94	0xbfab78e3	-1.3396267
95	0xc03313c1	-2.7980807
96	0xbf27b174	-0.65505147
97	0xbf825552	-1.0182288
98	0xbf50ab0e	-0.8151101
99	0xbf0bbfa1	-0.5458928
100	0xbed3014c	-0.41211927
101	0xbea4a1cb	-0.32154688
102	0x3eb9929a	0.3624466
103	0xc0048312	-2.0705
104	0xbe4bdec8	-0.19909203
105	0xbf1cf9d3	-0.613187
106	0xbfacbb30	-1.3494625
107	0xbf96b355	-1.1773478
108	0xbfadba71	-1.3572522
109	0xbd9c34eb	-0.07627281
110	0xbf54c547	-0.8311352
111	0xbf2c4824	-0.6729758
112	0x3ef1515e	0.4713239
113	0xbe1650fb	-0.14679329
114	0xbe367313	-0.17817335
115	0xbf26b98e	-0.65126884
116	0x3e296e37	0.1654595
117	0xbf525f2f	-0.8217649
118	0xc03075a2	-2.7571797
119	0xc001075a	-2.0160737
120	0xbfe80c98	-1.8128843
121	0x3e0a1f7a	0.1348857
122	0xbf94c711	-1.162325
123	0xbfc59a77	-1.5437764
124	0xbf2ec97d	-0.68276197
125	0xbbd5b490	-0.006521769
126	0xc01d9684	-2.4623117
127	0xbea9a271	-0.33131745

planner.encoder.model.7.running_var f4 [128]
0	0x3fc7c871	1.5608045
1	0x3f49326d	0.7859257
2	0x406b20de	3.673881
3	0x3f5a36ee	0.85240066
4	0x3ff90df6	1.9457386
5	0x3f8813de	1.0631063
6	0x3fc1445e	1.5098989
7	0x3f5b0436	0.855533
8	0x3f10d2ce	0.5657166
9	0x400f1fb5	2.2363102
10	0x40032979	2.0494063
11	0x3fda6681	1.7062532
12	0x3fc27677	1.5192403
13	0x3f3d91b1	0.7405043
14	0x3fe36647	1.7765588
15	0x3fe852a7	1.8150223
16	0x3fa564f5	1.2921435
17	0x3fe867f9	1.815673
18	0x4043564f	3.0521429
19	0x3fcd8688	1.6056681
20	0x3fdb9876	1.7155902
21	0x3ee77936	0.45209664
22	0x3f67d920	0.9056568
23	0x3f1bc42b	0.60846204
24	0x3f70f26b	0.941199
25	0x4036410c	2.8477201
26	0x3f431873	0.7620918
27	0x3ff913b6	1.945914
28	0x3fb1be1a	1.3886139
29	0x3fb2aa00	1.395813
30	0x3f11ee67	0.570044
31	0x3fa1dbc9	1.2645198
32	0x3f9db4c9	1.2320796
33	0x3f3138ca	0.6922728
34	0x4095a593	4.6764617
35	0x3f63471c	0.8878038
36	0x404d3865	3.206567
37	0x400614ec	2.095027
38	0x4057fba4	3.374734
39	0x4002f305	2.0460827
40	0x3f7f9b1b	0.9984605
41	0x3f83a9fd	1.0286251
42	0x3fc0ca64	1.5061765
43	0x400926d2	2.1429944
44	0x3f10b6cf	0.56528944
45	0x3f8315ce	1.0241029
46	0x3f8b4316	1.0879848
47	0x406c36ef	3.6908529
48	0x3fcf6e70	1.6205578
49	0x3fa66ef4	1.300261
50	0x4053460d	3.3011506
51	0x3fa15954	1.2605386
52	0x402b330a	2.6749902
53	0x3f7cbb85	0.9872363
54	0x3f3b91a9	0.73269135
55	0x40244c78	2.5671673
56	0x3f641022	0.89087117
57	0x3fcdda74	1.6082292
58	0x3f62eff0	0.88647366
59	0x401292a3	2.2902
60	0x402854b4	2.6301699
61	0x3f9ac126	1.2090194
62	0x404a60c4	3.162156
63	0x40006e2d	2.0067246
64	0x400c94c0	2.196579
65	0x3fb5ae91	1.4193898
66	0x404c4af0	3.1920738
67	0x40055e54	2.0838823
68	0x3fac8951	1.3479406
69	0x4014fa53	2.3277786
70	0x3f2302e5	0.6367629
71	0x3fcb2e2c	1.5873466
72	0x4004123d	2.0636132
73	0x403f3a9e	2.9879527
74	0x401cccec	2.4500074
75	0x3ee4f163	0.44715413
76	0x3f5df81a	0.867067
77	0x3f7259ab	0.9466807
78	0x40444681	3.0668032
79	0x3f834e32	1.0258238
80	0x3fb9bec1	1.4511338
81	0x3f99cea7	1.201619
82	0x401bdfb3	2.4355285
83	0x3fa65cbc	1.299705
84	0x3fc9545a	1.5728867
85	0x3f123d64	0.57124925
86	0x4012bd9f	2.2928236
87	0x4011a0e7	2.2754457
88	0x3f0cc395	0.54985934
89	0x3ed38ae5	0.41316906
90	0x3fac5cc8	1.3465815
91	0x3ee8189b	0.45331272
92	0x3ebea63e	0.37236208
93	0x402a040c	2.656497
94	0x3fb0a93c	1.3801646
95	0x40125683	2.2865303
96	0x3fe4ea0f	1.7883929
97	0x3f0e8622	0.5567342
98	0x3f34ee49	0.70676094
99	0x3f250368	0.6445832
100	0x400d7f7b	2.2109058
101	0x3f43de03	0.7651064
102	0x3f60953e	0.87727726
103	0x3ffea3b7	1.9893712
104	0x3fc82a84	1.5637975
105	0x3f6736f2	0.90318215
106	0x3facb571	1.3492872
107	0x3fb88ec9	1.4418575
108	0x3fa48b28	1.2854967
109	0x404a110a	3.15729
110	0x3f8b971f	1.0905493
111	0x3f60a8e0	0.8775768
112	0x3f48fde7	0.78512424
113	0x4052a840	3.2915192
114	0x3f8ea548	1.114419
115	0x3f4b343b	0.7937657
116	0x3fb04860	1.3772087
117	0x3fa64e88	1.2992716
118	0x3fd6b7cc	1.677484
119	0x40046947	2.0689256
120	0x3ff42d22	1.9076273
121	0x3f603772	0.875846
122	0x3faa1ade	1.3289449
123	0x3f8d2a2c	1.1028495
124	0x3fd44575	1.6583697
125	0x3f04289f	0.5162448
126	0x3fc91452	1.5709326
127	0x3fb975cc	1.4489074
